results/models/dqn/best_model_ep1_2024-11-20_23-47-43.pt (torch, 613462 bytes, 6 tensors)

layer1.weight f4 [512, 12]
0	0x3e654d54	0.2239278
1	0x3e745e2e	0.23864052
2	0xbd9074b7	-0.070535116
3	0x3e87b7af	0.26507327
4	0xbd75b58a	-0.059987582
5	0x3d7a7a69	0.061151896
6	0xbe12df6e	-0.14343044
7	0x3e2dc58a	0.16969886
8	0x3e83e599	0.25761107
9	0xbe5bce9e	-0.21465537
10	0x3e81fc13	0.2538763
11	0x3d69a9ed	0.05704682
12	0x3e59f919	0.2128643
13	0x3d1eba86	0.0387521
14	0x3e0ee2a3	0.13953643
15	0xbd2568d8	-0.04038319
16	0x3e6373e8	0.22212183
17	0x3d2d51cf	0.042314347
18	0xbe099a63	-0.134378
19	0x3d97649c	0.073922366
20	0xbe088918	-0.13333547
21	0xbd0925fe	-0.033483498
22	0xbdf0ce09	-0.11758048
23	0x3e43b124	0.19110543
24	0xbe66f070	-0.22552657
25	0xbe062661	-0.13100578
26	0xbda4b154	-0.08041635
27	0xbe30722a	-0.1723105
28	0x3cef99a7	0.029248072
29	0xbe911615	-0.2833716
30	0x3e8647f7	0.2622678
31	0xbe79df87	-0.24401675
32	0x3e66191b	0.22470514
33	0x3d1b9e32	0.037992664
34	0xbdbc45c0	-0.09192991
35	0x3e387564	0.18013531
36	0x3d428d5d	0.047498096
37	0x3e6e12eb	0.23249404
38	0x3cf5ed0a	0.030020256
39	0xbdbaa138	-0.09112781
40	0x3da44186	0.0802031
41	0xbd9d2f82	-0.07675077
42	0x3df5a393	0.1199409
43	0x3e841556	0.25797528
44	0x3e2ce964	0.16885906
45	0xbe02c461	-0.12770225
46	0x3e2c4a6b	0.16825263
47	0x3d5a5714	0.0533057
48	0x3e168dc8	0.14702523
49	0xbe32a6ff	-0.17446516
50	0xbe920c0e	-0.28524822
51	0xbde931a6	-0.11386423
52	0xbe621e2e	-0.22081825
53	0x3e720a2c	0.23636693
54	0x3dab2e70	0.083584666
55	0x3df0e305	0.117620505
56	0x3dbb16e0	0.091352224
57	0xbb95a94c	-0.004567301
58	0x3e66f84b	0.22555654
59	0xbe524936	-0.2053574
60	0x3c983e6f	0.018584458
61	0xbe493242	-0.19648078
62	0x3db81cc0	0.089898586
63	0xbdc9b3e3	-0.09848764
64	0x3db613f7	0.08890527
65	0xbd735b48	-0.059413224
66	0x3e75ed57	0.24016319
67	0xbe2e233c	-0.17005628
68	0xbe2fcb9e	-0.17167518
69	0xbe29a970	-0.16568542
70	0x3e853c5d	0.26022616
71	0x3dc64675	0.09681407
72	0x3e8e48c0	0.2778988
73	0xbe721aee	-0.23643085
74	0xbe923604	-0.28556836
75	0xbe69f8fa	-0.22848883
76	0xbe46887f	-0.19388007
77	0x3dedfa00	0.11619949
78	0x3dd51708	0.104047835
79	0x3e734318	0.23756063
80	0xbe18ced7	-0.14922653
81	0xbe48c214	-0.19605285
82	0x3e1c3bcf	0.1525719
83	0xbdf00495	-0.11719624
84	0x3e34d498	0.17659223
85	0xbd8961a1	-0.06708074
86	0x3e2a76a1	0.16646816
87	0xbe6437d7	-0.22286926
88	0xbe13a971	-0.14420106
89	0x3db734b7	0.089456014
90	0x3d7f901f	0.062393304
91	0xbd93e6b9	-0.07221741
92	0x3e319f86	0.1734601
93	0x3e4a63ce	0.19764635
94	0xbe54de25	-0.20787866
95	0xbe1c547c	-0.15266603
96	0x3e880b10	0.2657094
97	0xbdc4cb4f	-0.096090905
98	0xbdd00f26	-0.10159139
99	0xbe8e97dd	-0.27850237
100	0xbe2804f6	-0.16408142
101	0x3d95b2b7	0.07309478
102	0xbd17a283	-0.037020218
103	0xbe55bc91	-0.20872714
104	0x3c019f9d	0.00791159
105	0xbe507b41	-0.20359518
106	0xbe79a4cb	-0.2437927
107	0xbe21a55f	-0.1578574
108	0xbe804513	-0.250527
109	0xbe3a29e1	-0.18180038
110	0x3e949313	0.2901846
111	0x3d669d15	0.05630215
112	0x3dba2b1b	0.09090253
113	0xbe88e52a	-0.26737338
114	0xbe401367	-0.18757401
115	0xbdc0fa90	-0.09422791
116	0x3d40d67b	0.047079545
117	0xbe822ddb	-0.2542561
118	0xbdfad65d	-0.12247918
119	0xbe2f003b	-0.17089932
120	0xb9a7c40e	-0.00031998794
121	0xbddefabe	-0.10887669
122	0xbcb016b5	-0.021495203
123	0xbe49d209	-0.19709028
124	0xbe4c4351	-0.19947554
125	0xbe2db2a0	-0.16962671
126	0xbdcd5694	-0.10026279
127	0xbe6acf02	-0.2293053
128	0x3e76608a	0.24060264
129	0xbd70b901	-0.058770183
130	0x3e7cd083	0.24688916
131	0x3db53d7c	0.08849618
132	0xbe7b4906	-0.24539575
133	0x3e4b88e6	0.19876441
134	0xbda31daf	-0.07964646
135	0xbde30fd3	-0.110870026
136	0xbe766db3	-0.24065284
137	0xbe9332a9	-0.28749588
138	0x3da75da1	0.08172155
139	0xbd8168b0	-0.06318796
140	0x3de426a4	0.111401826
141	0xbe66217b	-0.2247371
142	0x3e5a9503	0.21345906
143	0xbe59c939	-0.21268167
144	0xbd4654ee	-0.04842084
145	0x3d7c6e5b	0.06162868
146	0x3e1a4cb4	0.15068322
147	0x3e704fd5	0.23467954
148	0x3e875a36	0.26436013
149	0xbe68bed3	-0.22729044
150	0x3d98423d	0.07434509
151	0xbdfabad0	-0.12242663
152	0xbcf758df	-0.030193744
153	0xbe58a460	-0.21156454
154	0x3e87616f	0.26441523
155	0xbe5758ae	-0.21029922
156	0x3e1c5334	0.15266114
157	0x3dcbe44c	0.099556535
158	0x3dbbd41d	0.09171317
159	0xbe21f8b1	-0.15817524
160	0x3e855d6f	0.26047847
161	0x3d7b6f69	0.061385546
162	0x3d107c13	0.035274576
163	0xbe8351e5	-0.25648418
164	0x3df43c80	0.11925602
165	0xbd46c9c0	-0.048532248
166	0xbe09691e	-0.13419005
167	0x3e7bd690	0.24593568
168	0x3d8793c8	0.06619984
169	0xbe219194	-0.1577819
170	0xbe13a679	-0.14418973
171	0xbc43160d	-0.011907113
172	0x3e26e3fe	0.1629791
173	0xbd934ed9	-0.07192773
174	0xbe26967a	-0.1626834
175	0xbdc66315	-0.09686867
176	0xbe5aed86	-0.2137967
177	0x3dda42e8	0.106572926
178	0x3e66ab6c	0.2252633
179	0xbe8a2aac	-0.2698568
180	0x3d8ae818	0.067825496
181	0x3e19820a	0.14991012
182	0x3d532283	0.051546585
183	0xbdd42154	-0.10357919
184	0x3e1b0e77	0.15142237
185	0x3e1c2a80	0.15250587
186	0x3ddb5268	0.10709077
187	0xbd532a70	-0.051554143
188	0xbd9ad174	-0.07559481
189	0x3cf63ecf	0.030059246
190	0xbd4d68d1	-0.05014879
191	0xbdae6d0a	-0.08516891
192	0x3e3d605d	0.18493791
193	0x3e7f7a08	0.24948895
194	0xbce64e52	-0.028113518
195	0xbd892a66	-0.0669754
196	0x3b9c235e	0.0047649583
197	0xbc90eed4	-0.017692007
198	0x3d8f0adc	0.06984493
199	0x3da1b065	0.07894973
200	0xbe862de4	-0.26206887
201	0xbdd931c4	-0.10605195
202	0x3e788e25	0.24272974
203	0x3de5a6ea	0.11213477
204	0xbc68e8fb	-0.014215703
205	0xbe2facf1	-0.17155816
206	0xbe34b54a	-0.17647281
207	0xbe8610d8	-0.26184726
208	0xbdc03be9	-0.09386427
209	0x3dc76686	0.09736352
210	0x3e3c8ca0	0.18413019
211	0x3e053e02	0.13011935
212	0xbe8293a8	-0.25503278
213	0xbe319f13	-0.17345838
214	0xbd3ab107	-0.045578983
215	0x3e8ef033	0.27917632
216	0x3d360454	0.04443772
217	0xbd93ec8f	-0.07222854
218	0x3dfabbc8	0.12242848
219	0xbddb8451	-0.10718597
220	0xbe3c9f8d	-0.18420239
221	0x3e5a5360	0.21320868
222	0xbe038af3	-0.12845974
223	0xbd61f3b2	-0.055164047
224	0xbe91ab37	-0.2845094
225	0x3e490460	0.19630575
226	0x3e62a699	0.22133864
227	0x3ddce570	0.10785949
228	0xbe4dd899	-0.20102157
229	0xbe931d03	-0.28733072
230	0xbe70b131	-0.23505093
231	0x3e5ff045	0.21869
232	0x3e0e05fb	0.13869469
233	0x3e795b08	0.24351132
234	0x3e1a2b3b	0.15055554
235	0x3d9c1ce9	0.07622702
236	0xbb23c745	-0.00249906
237	0xbe616b8f	-0.22013687
238	0xbe7cab10	-0.2467463
239	0xbe89f4ae	-0.26944488
240	0x3df2cf05	0.11855892
241	0xbe10777b	-0.14108078
242	0xbd678189	-0.05652002
243	0xbe28a88b	-0.16470544
244	0xbd54a6c0	-0.051916838
245	0xbe4f1015	-0.20220979
246	0xbe4006dd	-0.18752618
247	0x3dc6f94c	0.09715518
248	0xbdae2e6e	-0.085049495
249	0x3e3ff1bb	0.18744557
250	0xbdbbc1c2	-0.09167816
251	0xbe57df22	-0.21081212
252	0xbd514879	-0.051094506
253	0xbe0f78d4	-0.14010936
254	0xbdb5509f	-0.08853268
255	0xbe8ccbb7	-0.27499172

layer1.bias f4 [512]
0	0xbe66e8cd	-0.22549744
1	0x3d5bca8f	0.05365997
2	0xbd722523	-0.059117448
3	0x3e612307	0.21986018
4	0xbe931794	-0.28728926
5	0x3c146409	0.009057053
6	0x3e019b05	0.12656792
7	0x3d13aa51	0.0360511
8	0xbda32c14	-0.079673916
9	0x3e899e27	0.26878473
10	0xbe63f2c2	-0.22260574
11	0x3e8a0fb9	0.2696512
12	0x3d9dbd01	0.07702065
13	0x3e0ec198	0.13941038
14	0x3e4e80ea	0.20166364
15	0x3cf1f1cf	0.029534249
16	0x3cf6f26d	0.030144894
17	0xbd7021d4	-0.05862601
18	0xbe876be2	-0.26449496
19	0x3dfa4fb3	0.12222233
20	0x3e5c1c9b	0.21495287
21	0x3df79231	0.12088431
22	0xbd3b23b0	-0.04568833
23	0xbe85690c	-0.26056707
24	0xbbcf5639	-0.006327417
25	0x3d95e2a1	0.07318617
26	0xbe675377	-0.22590433
27	0x3e7a50c7	0.24444877
28	0xbc297215	-0.010342141
29	0x3da20f11	0.0791303
30	0x3e812e99	0.25230864
31	0x3e03fe8d	0.12890072
32	0xbe216bb0	-0.15763736
33	0x3de0a00f	0.10968029
34	0x3e2ad847	0.16684066
35	0x3e11d720	0.1424222
36	0xbe0ca87c	-0.13736147
37	0x3ce39a6f	0.0277836
38	0xbe53a8f9	-0.20669927
39	0xbd0b1468	-0.033955008
40	0xbe4b6da7	-0.19866048
41	0x3e3177be	0.17330834
42	0x3e90520d	0.281876
43	0xbe90270c	-0.2815479
44	0xbe0a14e2	-0.13484529
45	0xbdfe279b	-0.12409898
46	0xbe4ef1e1	-0.20209457
47	0x3e85697b	0.26057038
48	0xbe62776e	-0.22115871
49	0xbe1ae887	-0.15127765
50	0xbe77ab93	-0.24186544
51	0x3aa6bee6	0.0012721687
52	0xbe5b9e97	-0.21447216
53	0xbe46aac2	-0.19401076
54	0x3e930dff	0.28721616
55	0x3e03b354	0.12861377
56	0x3dfd2ae6	0.12361698
57	0x3e503a65	0.20334776
58	0x3d4e9fbc	0.050445303
59	0x3d3b0201	0.045656208
60	0xbe5b8da1	-0.21440746
61	0x3da60e23	0.08108165
62	0xbe66e5be	-0.22548577
63	0xbb28506f	-0.0025682708
64	0xbe1f081d	-0.15530439
65	0xbe291649	-0.16512407
66	0xbe2cddc2	-0.16881469
67	0xbe106b09	-0.1410333
68	0xbe2e6c63	-0.17033534
69	0xbe21a82c	-0.15786809
70	0xbdd74ab4	-0.10512295
71	0xbe87f8d2	-0.26557022
72	0x3e6c9093	0.23102026
73	0x3dca2a56	0.09871356
74	0xbe92fb31	-0.2870727
75	0xbe9460cf	-0.2898011
76	0xbe150cca	-0.1455566
77	0x3de2d985	0.11076645
78	0x3e85fe69	0.26170662
79	0xbd3524c2	-0.044224508
80	0x3e322bc8	0.17399514
81	0xbe1f67db	-0.15566961
82	0xbd6dbc55	-0.058040936
83	0xbd3479f1	-0.044061605
84	0xbe8fde04	-0.28099072
85	0x3a2c996b	0.00065841404
86	0x3d9e6017	0.077331714
87	0x3e3581fc	0.17725366
88	0xbe64ad04	-0.22331625
89	0xbdb1f906	-0.086900756
90	0x3c5796a9	0.013158479
91	0x3cface56	0.030615967
92	0x3d457e09	0.0482159
93	0xbe5c207a	-0.21496764
94	0x3e65643b	0.22401516
95	0xbe85595a	-0.26044732
96	0xbdd2b5a1	-0.10288549
97	0x3e1402ad	0.14454146
98	0xbd925773	-0.07145586
99	0xbe0fdd30	-0.1404922
100	0xbe925ed4	-0.28587973
101	0x3e4b487b	0.19851868
102	0xbbd45aa5	-0.006480532
103	0x3e0f3580	0.13985252
104	0x3d5b06ad	0.053473163
105	0xbe5dc3a0	-0.21656656
106	0xbdcf65b2	-0.10126819
107	0x3e50ff61	0.2040992
108	0xbe0b2fde	-0.13592479
109	0xbe082c1a	-0.13298073
110	0x3e28e101	0.16492082
111	0xbe02b75b	-0.12765257
112	0x3d37ca44	0.04487063
113	0xbe11b242	-0.14228156
114	0x3db29078	0.087189615
115	0x3cf36070	0.02970907
116	0xbe6ca6bd	-0.2311048
117	0xbe603671	-0.21895768
118	0x3dd3bf85	0.10339264
119	0xbdc193c9	-0.09452016
120	0x3e211034	0.15728837
121	0x3c897fd7	0.016784592
122	0xbdca22ab	-0.09869894
123	0xbd52e8f3	-0.05149169
124	0xbe05e44d	-0.13075371
125	0x3e0e43f5	0.13893111
126	0x3e6ba2cf	0.23011325
127	0xbbef3d73	-0.0073010265
128	0xbe3ef359	-0.18647517
129	0x3e56a4e3	0.20961337
130	0x3e7241d1	0.2365792
131	0x3e476bd1	0.19474722
132	0xbbff4e28	-0.0077912994
133	0x3d8df71a	0.069318965
134	0x3c524321	0.012833388
135	0xbddebce7	-0.10875874
136	0xbe9251a0	-0.285779
137	0xbd0b0b9f	-0.03394663
138	0x3dffa58c	0.124827474
139	0x3e2eb19a	0.17059937
140	0x3d8c5948	0.068529665
141	0x3e0778d6	0.13229689
142	0x3e38ff73	0.18066196
143	0xbd678f54	-0.056533173
144	0x3e41a7a6	0.18911609
145	0xbc00130f	-0.007817044
146	0xbdd155aa	-0.10221417
147	0xbde588b0	-0.11207712
148	0xbe2bb0bb	-0.16766636
149	0xbe620875	-0.22073539
150	0x3d886e76	0.06661694
151	0x3e8c263e	0.27372926
152	0x3d2f7579	0.04283664
153	0x3d1fc625	0.039007325
154	0xbdda2e28	-0.10653335
155	0xbde90136	-0.11377184
156	0xbdb4d99e	-0.0883057
157	0x3dcf43ab	0.101203285
158	0x3d4ffee2	0.050780185
159	0xbdd82074	-0.10553065
160	0x3d701970	0.05861801
161	0xbd268f53	-0.04066403
162	0xbcaf8013	-0.021423375
163	0x3e52ada7	0.20574056
164	0xbdf73b59	-0.120718665
165	0x3e886190	0.26636934
166	0xbe1f7004	-0.15570074
167	0x3e881f5e	0.2658643
168	0x3de09f1e	0.10967849
169	0x3debc35c	0.11511871
170	0xbd869baf	-0.06572663
171	0xbda427cf	-0.080154054
172	0xbe582e1d	-0.21111341
173	0xbe8db5ee	-0.27677864
174	0x3e4b6993	0.19864492
175	0x3e90202d	0.28149548
176	0x3da78979	0.08180518
177	0xbde734a2	-0.11289336
178	0x3d859444	0.0652242
179	0xbc4769ee	-0.012171252
180	0xbe804bbd	-0.25057784
181	0xbe68e3b7	-0.22743116
182	0x3dcb7ac6	0.099355265
183	0xbdad4681	-0.08460713
184	0xbd8a5d5f	-0.067560904
185	0xbe33e80c	-0.17568988
186	0x3e02410f	0.1272013
187	0xbe179215	-0.1480182
188	0xbdbc278f	-0.09187233
189	0x3e1c2f86	0.15252504
190	0x3e8d4c93	0.27597484
191	0x3e82e291	0.2556348
192	0x3dea680b	0.11445626
193	0x3c27f9e5	0.010252451
194	0x3e5fb384	0.21845824
195	0x3e82d114	0.2555014
196	0x3e06713a	0.1312913
197	0x3dadc0ff	0.08484077
198	0x3d8c8bbd	0.068625905
199	0x3cdbe519	0.02684264
200	0x3e433898	0.19064558
201	0x3daa1224	0.08304241
202	0xbe7773a6	-0.2416521
203	0xbe2f1240	-0.17096806
204	0xbe865fd8	-0.26244998
205	0xbdb1a4c8	-0.08674008
206	0x3c8a72c4	0.016900428
207	0xbdf4de1f	-0.11956429
208	0xbe87d27d	-0.26527777
209	0xbe413963	-0.18869548
210	0x3dffad27	0.12484198
211	0xbca68c93	-0.020330703
212	0xbd4c41fb	-0.04986761
213	0x3d3f64e4	0.046727076
214	0xbd73dd32	-0.05953712
215	0xbe1ad423	-0.15119986
216	0xbe05c24b	-0.13062398
217	0xbdf0ed32	-0.117639914
218	0xbe8b63f9	-0.2722471
219	0xbe8761cd	-0.26441804
220	0xbde6cb13	-0.11269202
221	0x3ddc5b84	0.10759643
222	0x3e8f8ea0	0.28038502
223	0xbc1ed952	-0.009695368
224	0x3e49d3b5	0.19709666
225	0x3dc7df99	0.09759445
226	0xbe6b61ed	-0.22986574
227	0xbe159c52	-0.14610413
228	0xbda58bfe	-0.08083342
229	0xbe739723	-0.23788123
230	0x3d237a91	0.03991181
231	0x3d89794c	0.06712589
232	0xbe67de5f	-0.22643422
233	0xbd765508	-0.060139686
234	0xbe825ff2	-0.25463825
235	0x3e927d25	0.28611103
236	0x3e2c8e51	0.16851164
237	0xbddef85d	-0.10887215
238	0x3e7d2c90	0.2472403
239	0xbe3a4fc0	-0.18194485
240	0x3e76245f	0.24037312
241	0xbde3797f	-0.11107158
242	0x3da97654	0.082745224
243	0x3e4f0690	0.20217347
244	0x3e08dd0b	0.13365571
245	0x3d912620	0.0708735
246	0xbd098880	-0.033577442
247	0x3aa85a25	0.0012844248
248	0x3e7c59a9	0.24643578
249	0xbdc46f9c	-0.095916
250	0xbdbc69d4	-0.091998726
251	0x3d10242a	0.03519074
252	0xbe0f65ac	-0.14003628
253	0xbddb9bc7	-0.107230715
254	0x3cb162bc	0.021653526
255	0x3e605a1f	0.21909378

layer2.weight f4 [256, 512]
0	0x3d1ec7c9	0.03876475
1	0x3cb13dba	0.021635879
2	0x3ccf3cc1	0.025297524
3	0xbd1bc750	-0.038031876
4	0x3d011d0f	0.031521853
5	0x3ba74d83	0.0051056757
6	0xbd294b27	-0.041331436
7	0x3d2bd97b	0.041955452
8	0xbb6a31fc	-0.003573536
9	0x3bbe71dc	0.005811913
10	0x3d0add8b	0.033902686
11	0x3cd34570	0.025789946
12	0x3d156e6a	0.036482252
13	0xbd33eabe	-0.04392504
14	0x3d2842f3	0.041079473
15	0x3c3055f9	0.010762685
16	0x3af7c321	0.0018902757
17	0xbd08a396	-0.033359133
18	0xbcd4bdc4	-0.025969394
19	0x3d355643	0.04427172
20	0x3cf7cbcf	0.03024855
21	0x3d08c534	0.033391193
22	0xbbcf2a86	-0.006322208
23	0xbcdf4aed	-0.027257407
24	0x3bfb1298	0.0076621287
25	0xbca13c9f	-0.019682227
26	0xbceb9e09	-0.02876188
27	0x3c3e01a9	0.0115970755
28	0x3d032311	0.032015864
29	0xbd122ff1	-0.03569025
30	0xbd2a96c7	-0.0416477
31	0x3b7196e5	0.0036863622
32	0xbc94de08	-0.018172279
33	0xbcd5964a	-0.02607264
34	0xbc16c284	-0.00920165
35	0xbba8a87d	-0.0051470385
36	0xbc47b634	-0.012189437
37	0x3cf67b24	0.030088015
38	0x3cb1e0c6	0.021713626
39	0x3c63b1fb	0.013897414
40	0xbc7873bc	-0.015164312
41	0xbb9f80af	-0.004867635
42	0x3cd4cbe5	0.02597613
43	0x3ba24879	0.004952487
44	0xbd2e9909	-0.042626414
45	0x3bb5f116	0.0055524213
46	0x3cbd88ec	0.023136579
47	0xbc64a409	-0.013955125
48	0xbc07250c	-0.008248579
49	0xbc0dfe89	-0.008666643
50	0x3cc91b85	0.024549255
51	0x3d08e80e	0.03342443
52	0xbd187810	-0.037223876
53	0x3cdd8513	0.027040994
54	0x3c9f3cef	0.019438235
55	0x3c89ea78	0.016835436
56	0xbce32dba	-0.027731765
57	0xbcc38653	-0.023867762
58	0x3d28a521	0.041173104
59	0x3c4f58bc	0.012655433
60	0xbc4dd0e9	-0.012562015
61	0xbc12a02a	-0.008949319
62	0x3cf25703	0.029582506
63	0xbc5ee6b1	-0.013604806
64	0x3cdef200	0.027215004
65	0xbc688dbc	-0.014193948
66	0x3c079f66	0.00827775
67	0x3c13f536	0.009030631
68	0xbcadf29d	-0.021233851
69	0xbacb5720	-0.0015513636
70	0x3bcd14ca	0.0062585818
71	0xbd2b75f7	-0.041860547
72	0xbc0e9297	-0.008701942
73	0x3b89d8ee	0.0042067682
74	0x3d151020	0.03639233
75	0x3c1a5714	0.009420175
76	0xbd19d414	-0.03755577
77	0xbc3e62f0	-0.011620268
78	0x3d287987	0.041131523
79	0xbc098cff	-0.0083954325
80	0x3d0e2ca8	0.034710556
81	0x3ba61e17	0.005069505
82	0x3cd61446	0.026132714
83	0xbcb16ce2	-0.021658365
84	0x3d31cb8c	0.043407008
85	0x3bda2355	0.006657044
86	0xbc3df071	-0.01159297
87	0x3d0cc078	0.03436324
88	0x3cb27f51	0.021789225
89	0xbcf34d81	-0.029700043
90	0xbaebb68c	-0.001798348
91	0x3d01b6b3	0.031668376
92	0x3c0a8bdb	0.008456196
93	0xbc895250	-0.016762882
94	0xbcf9a5de	-0.0304746
95	0xbd098214	-0.033571318
96	0x3cd46642	0.025927667
97	0x3c8e31dc	0.01735776
98	0xbd2b2fc8	-0.041793615
99	0xbc401863	-0.011724564
100	0x3c288296	0.01028504
101	0xbd1a8ecf	-0.03773385
102	0x3d1bf8a3	0.038078915
103	0xbb5e1929	-0.0033889508
104	0xbc9d3dc1	-0.019194486
105	0x3bcdd142	0.006281049
106	0x3c8e1077	0.017341835
107	0x3c20dddc	0.00981852
108	0x3d27e5d1	0.040990654
109	0x3ccbc3ee	0.0248737
110	0xbbc72491	-0.006077357
111	0x3c11738e	0.008877648
112	0x3c04a441	0.008095802
113	0xbca559a2	-0.020184342
114	0xbd15827c	-0.036501393
115	0xbbf1d5bb	-0.007380215
116	0xbc9fa175	-0.019486168
117	0xbd35fd29	-0.044430885
118	0x3c58fc56	0.013243755
119	0xbc97df80	-0.01853919
120	0x3d22508c	0.039627597
121	0x3c8173bc	0.015802257
122	0x3c9a25f0	0.018816918
123	0x3c281abd	0.010260281
124	0x3c6f2b5b	0.014597739
125	0x3ce2482c	0.027622305
126	0x3d0a87cf	0.033820923
127	0xba4a3675	-0.0007713803
128	0xbc36efd0	-0.011165574
129	0x3c5ac287	0.013352043
130	0xbca351e4	-0.01993651
131	0xbb9d17e0	-0.004794106
132	0x3c69a390	0.014260188
133	0x3c8d2013	0.017227208
134	0xbd3a770d	-0.045523692
135	0x3c6e72f4	0.014553774
136	0xbc8c2573	-0.0171077
137	0xbd0a7355	-0.033801395
138	0xbc9a26cc	-0.018817328
139	0x39dd3756	0.00042193633
140	0x3c9da0d1	0.019241722
141	0xbd2b60ca	-0.041840352
142	0x3c44a3be	0.01200193
143	0x3d188b68	0.037242323
144	0xbcc13a9d	-0.02358752
145	0x3c435a4a	0.011923382
146	0xbc9183e0	-0.017763078
147	0x3c31fab9	0.010863
148	0x3c872a19	0.016499566
149	0xbcf48547	-0.029848708
150	0x3c014c3f	0.007891714
151	0x3d2b5739	0.04183123
152	0x3b4b2cd3	0.003100206
153	0xbd007702	-0.031363495
154	0x3a10e168	0.0005526752
155	0x3c1fa513	0.009743947
156	0x3c7559c8	0.014975019
157	0xbae22216	-0.001725259
158	0xbc4625e4	-0.012093995
159	0xbcc9b4b8	-0.024622306
160	0x3cd5a208	0.02607824
161	0xbcd0b7c9	-0.02547826
162	0xbc90db5a	-0.01768272
163	0x3cda580e	0.026653316
164	0xbcc0001a	-0.023437548
165	0xbc0943f6	-0.00837802
166	0xbca5dd07	-0.020246996
167	0xbd2b5bf0	-0.041835725
168	0x3ca52ef5	0.020163992
169	0xbcb6b736	-0.022304159
170	0xbc9bbdd2	-0.019011412
171	0xbc4a2d3c	-0.012339886
172	0x3c4658ab	0.012106101
173	0x3d1ee8a8	0.038796097
174	0x3d15f5fc	0.036611542
175	0x3b01ce64	0.0019806856
176	0xbd1b392d	-0.037896324
177	0x3b55ad9b	0.0032604698
178	0x3a85d31e	0.0010210013
179	0x3d18d8fd	0.03731631
180	0xbc3f56ed	-0.01167844
181	0xbd2db404	-0.042408004
182	0x3c5b995a	0.013403261
183	0xbc49ab69	-0.012308934
184	0x3c89977e	0.01679587
185	0x3c6ff6af	0.014646216
186	0x3c575645	0.013143127
187	0x3cb291eb	0.021798095
188	0xbd051603	-0.032491695
189	0xbd0ddb24	-0.034632817
190	0x3d1ef045	0.038803358
191	0x3d1aaf25	0.037764687
192	0xbc83902f	-0.016059963
193	0x3d2d497a	0.0423064
194	0x3bcb13b2	0.006197416
195	0xbc672186	-0.014107114
196	0xbcb8bcce	-0.022550967
197	0xbcc09fd5	-0.023513714
198	0x3d068cdc	0.032849178
199	0xbcf3f4fb	-0.029779902
200	0xbca9f1a6	-0.02074511
201	0x3d39cc1e	0.045360677
202	0xbcc62566	-0.024187755
203	0x3d26ef2f	0.040755447
204	0x3c8dd476	0.017313223
205	0x3cb3922f	0.021920292
206	0x3bf35b09	0.0074266237
207	0xbbd61845	-0.006533655
208	0x3c8b62aa	0.01701482
209	0x3c6dc269	0.014511683
210	0xbcba32bd	-0.022729272
211	0xbd1517bd	-0.03639959
212	0xbd0d808f	-0.03454643
213	0xbbaf3a0c	-0.005347496
214	0x3c669953	0.014074641
215	0xbcfa2396	-0.030534547
216	0x3c055fbf	0.008140503
217	0x3cd082dd	0.025453025
218	0x3cbfafed	0.023399318
219	0xbc87420a	-0.016510982
220	0x3bf63805	0.0075140023
221	0xbd2b5530	-0.041829288
222	0x3cee63c7	0.029100312
223	0xbd1b148c	-0.037861392
224	0x3b20b80d	0.0024523765
225	0xbc889896	-0.016674321
226	0xbd160f35	-0.036635596
227	0xbd20bfa9	-0.03924528
228	0xbce888be	-0.028385516
229	0xbd0362e5	-0.032076735
230	0x3cfe5a6c	0.031048976
231	0xbc1a3192	-0.009411233
232	0xbd03c20a	-0.032167472
233	0x39271d2e	0.00015937231
234	0xbcb9490b	-0.022617837
235	0xbba4e51b	-0.0050321943
236	0x3d10ca2e	0.035349064
237	0xbd1fb971	-0.03899521
238	0xbd269286	-0.04066708
239	0x3c46f446	0.0121432
240	0x3ce753f1	0.028238269
241	0xbd2bf28b	-0.041979354
242	0x3c79e073	0.015251267
243	0x3d390886	0.045174144
244	0xbc1d90a6	-0.009617006
245	0xbcca4b3a	-0.024694074
246	0x3c9abd42	0.018889073
247	0x3cb6b666	0.022303771
248	0xbb964ef5	-0.004587049
249	0xbd1e366e	-0.038626127
250	0x3ae09ac0	0.0017135963
251	0xbcea681c	-0.028614096
252	0xbd1a818d	-0.037721206
253	0x3ccd0196	0.02502517
254	0x3d01dece	0.031706624
255	0x3c78abc5	0.015177672

layer2.bias f4 [256]
0	0xbc7d70cd	-0.015468788
1	0x3ca4a0cd	0.020096207
2	0x3cd1cea3	0.025611227
3	0xbbb754a9	-0.005594809
4	0xbd1103b1	-0.03540391
5	0x3d2f043f	0.04272866
6	0x3c57c439	0.013169342
7	0x3c9e0f9e	0.019294556
8	0x3d32a792	0.04361684
9	0xbc9cf262	-0.019158546
10	0x3c625342	0.0138137955
11	0x3d2e6357	0.042575207
12	0x3d1fd60c	0.03902249
13	0x3d284e69	0.041090403
14	0x3d1c5915	0.038170893
15	0xbd0ffc7b	-0.035152894
16	0xbc69ae19	-0.0142626995
17	0x3ad96d01	0.0016588272
18	0x3b4ba354	0.0031072693
19	0xbd186724	-0.037207738
20	0xbc74468f	-0.014909401
21	0x3c711e1e	0.014716653
22	0x3cbd29aa	0.023091156
23	0x3ca68b0d	0.020329976
24	0x3d192064	0.037384406
25	0xbd081450	-0.033222497
26	0xbc254a4b	-0.010088514
27	0xbd0c66b4	-0.034277633
28	0xbd1157f9	-0.035484288
29	0xbb836f9d	-0.004011108
30	0xbc6a4af8	-0.0143001005
31	0xbc150ae5	-0.009096836
32	0xbc7e1195	-0.015507122
33	0x3d296437	0.041355338
34	0xbcb42c8c	-0.021993898
35	0x3cdfcf8c	0.027320646
36	0xbc332f83	-0.010936621
37	0x3cc435cd	0.023951435
38	0xbd13bf95	-0.03607138
39	0xbd1cce6c	-0.038282797
40	0x3d1d2dfd	0.038373936
41	0xbd34f70c	-0.044180915
42	0xbcb421e1	-0.021988811
43	0xbcb26cd5	-0.02178041
44	0x3cc0e35c	0.023545913
45	0xbc8cd2fb	-0.017190447
46	0xbd2e751e	-0.04259216
47	0x3cb7c84d	0.022434378
48	0x3cb66212	0.02226356
49	0x3b0cabcb	0.0021464701
50	0xbd21effd	-0.03953551
51	0xbcda721c	-0.02666574
52	0x3d11eca8	0.035626084
53	0xbc08a622	-0.00834039
54	0xbc2af2cd	-0.010433865
55	0x3ce80da3	0.028326815
56	0x3b9eb778	0.0048436485
57	0xbcb3aeeb	-0.021933993
58	0xbc0cec10	-0.008601204
59	0x3b569686	0.0032743528
60	0x3cf03bc6	0.029325377
61	0xbcc558ba	-0.02409016
62	0xbcf6fc39	-0.030149566
63	0x3cf674c3	0.030084973
64	0x3d17fa81	0.037104134
65	0x3c28242a	0.010262528
66	0xbcca8479	-0.024721371
67	0xbc897455	-0.016779104
68	0x3d2572ea	0.040392794
69	0xbcc2d644	-0.02378381
70	0xbd1b2308	-0.037875205
71	0x3cd90a10	0.026494056
72	0xbacfb73a	-0.0015847452
73	0x38eec9b5	0.00011386295
74	0xbccbc538	-0.024874315
75	0xbd356e7a	-0.04429481
76	0xbc60550e	-0.013692154
77	0x3cc3546c	0.023843966
78	0x3c3281bf	0.010895192
79	0x3cef68a3	0.0292247
80	0xbd16df3e	-0.036833994
81	0x3c19a3c6	0.009377426
82	0xbcf99688	-0.030467287
83	0xbd1c3943	-0.038140547
84	0xbbc25d7b	-0.005931554
85	0x3ca7c277	0.02047847
86	0xbc824a81	-0.015904667
87	0xbc8e3f25	-0.017364094
88	0x3c4a5e10	0.012351528
89	0xbb83303a	-0.004003552
90	0xbca0b00c	-0.019615196
91	0xbafac0f1	-0.0019130987
92	0xbc88fddd	-0.016722614
93	0x3d102a98	0.03519687
94	0xbcea3c67	-0.028593255
95	0xbcafc01c	-0.02145391
96	0xbd22c477	-0.039738145
97	0xbd3137a5	-0.043265957
98	0x3d00eb47	0.031474378
99	0x3cfd33bd	0.03090846
100	0x3c2889ad	0.010286731
101	0xbd26f816	-0.040763937
102	0x3cf679dc	0.030087404
103	0x3d089783	0.033347618
104	0xbbbf9de7	-0.005847681
105	0xbcb297c3	-0.021800881
106	0x3d18ba8f	0.03728729
107	0xbcba90e5	-0.02277417
108	0x3c44badb	0.01200744
109	0x3cf0a912	0.029377494
110	0xbd08ba45	-0.033380765
111	0xbc1e1797	-0.009649179
112	0x3d07b009	0.033126865
113	0xbc9abd65	-0.018889138
114	0xba40f7e8	-0.00073611597
115	0xbaf2d2e9	-0.0018525991
116	0x3ce710bc	0.028206222
117	0xbcd60e7b	-0.026129952
118	0x3c201b60	0.009772152
119	0xbcc11944	-0.023571618
120	0x3d2c942d	0.0421335
121	0x3d2df9a4	0.042474404
122	0x3b8496ca	0.004046296
123	0x3d2fc935	0.042916495
124	0xbbb360f8	-0.005474206
125	0xbcc261e6	-0.023728322
126	0xbcb1249f	-0.021623908
127	0x3a0c0602	0.00053414714
128	0xbc6c1200	-0.014408588
129	0xbbaaf403	-0.0052170767
130	0xbd142215	-0.036165316
131	0xbd28d564	-0.04121913
132	0x3b0a45a5	0.002109864
133	0x3cf911d6	0.030404013
134	0xbd193c7c	-0.037411198
135	0x3c94901f	0.018135129
136	0x3d1b1d49	0.037869725
137	0x3cc1db4a	0.023664135
138	0xbc5d99d0	-0.013525441
139	0xbc2dbedc	-0.010604586
140	0xbccbe090	-0.024887353
141	0xbd342359	-0.043979023
142	0xbd0d7881	-0.03453875
143	0xbd21492c	-0.039376423
144	0xbc747d00	-0.01492238
145	0xbd13f8ef	-0.036126073
146	0xbd32a6c0	-0.043616056
147	0x3c8fa1fd	0.017533297
148	0xbb34c214	-0.00275815
149	0x3c979e2b	0.018508038
150	0x3cf68f4d	0.030097628
151	0x3c91ef3d	0.017814273
152	0x3c44526f	0.011982544
153	0xbc7523fc	-0.014962193
154	0x3d1a55ce	0.037679486
155	0xbd323d2e	-0.043515377
156	0xbbeb0805	-0.007172587
157	0x3bd97dde	0.006637319
158	0x3b807ee3	0.003921376
159	0x3d0b28d9	0.033974502
160	0xbc0a25ff	-0.008431911
161	0xbc9e4153	-0.019318258
162	0xbbc21da7	-0.005923945
163	0x3d016a5a	0.031595565
164	0xbd348c57	-0.04407915
165	0xbaea199b	-0.0017860414
166	0x3cccff20	0.025023997
167	0x3d008ad9	0.031382415
168	0x3d220866	0.03955879
169	0xbca158c6	-0.01969565
170	0x3d11d2d3	0.03560145
171	0xbd197b77	-0.03747126
172	0x3ca9e17b	0.0207374
173	0x3d221d68	0.039578825
174	0xbba1f5a3	-0.0049426123
175	0xbc27eeb6	-0.010249784
176	0x3c6b6a74	0.014368642
177	0x3ca43e2a	0.020049173
178	0xbd101f76	-0.035186253
179	0x3b4c60b9	0.003118558
180	0xbc6a2394	-0.014290709
181	0xbba57e7f	-0.00505048
182	0xbb0c23fa	-0.0021383748
183	0xbc8ad3ed	-0.016946757
184	0x3cbac105	0.022797117
185	0xbcbb418f	-0.02285841
186	0xbcb8e390	-0.022569448
187	0xbd1b07a7	-0.037849095
188	0xbc0a1e7e	-0.0084301215
189	0xbd21815b	-0.039430004
190	0xbcdab679	-0.026698338
191	0x3cb86e95	0.022513667
192	0x3d227792	0.039664812
193	0xbc7cbb4a	-0.015425513
194	0x3c15881c	0.009126689
195	0x3d007e4d	0.03137045
196	0xbc8d5218	-0.01725106
197	0xbbf6d275	-0.0075324127
198	0xbbf2b994	-0.0074073765
199	0x3beaa26b	0.007160475
200	0xbb434511	-0.0029795805
201	0x3d2d63fe	0.042331688
202	0xbd05f43c	-0.032703623
203	0x3c8c1b1b	0.017102769
204	0xbc9eb383	-0.019372707
205	0xbcf1615e	-0.029465374
206	0xbc212da1	-0.009837539
207	0x3c7f3a99	0.015577936
208	0xbd24641a	-0.040134527
209	0xba8bf5f2	-0.0010678156
210	0xbd0d5e1f	-0.03451359
211	0x3cc321d3	0.02381984
212	0xbc27fba2	-0.010252865
213	0x3bfd6f85	0.0077342414
214	0xbbd6efa3	-0.0065593286
215	0xbcad2391	-0.021135123
216	0x3b877fbb	0.0041350997
217	0xbcf02db7	-0.029318674
218	0x3d07ed8d	0.03318553
219	0x3d058a24	0.032602444
220	0xbd021638	-0.03175947
221	0x3d2c9d72	0.04214234
222	0x3d185512	0.037190504
223	0xbcfa6f74	-0.030570723
224	0x3c8143a9	0.015779333
225	0x3c7ac27c	0.015305158
226	0x3c9ffa5b	0.019528558
227	0x3c2ebe09	0.010665425
228	0xbd0b5016	-0.034011923
229	0xbc2d325e	-0.0105710905
230	0xbd04e943	-0.03244902
231	0xbd198e03	-0.03748895
232	0xbd00afad	-0.031417537
233	0xbc683442	-0.0141726155
234	0x3bf07dd0	0.007339217
235	0xbccd39e8	-0.025052026
236	0x3d160e28	0.036634594
237	0x3d1b5586	0.03792336
238	0x3d1b79b6	0.03795787
239	0xbce56628	-0.028002813
240	0x3cbe4139	0.02322446
241	0x3d11e898	0.03562221
242	0x3b3c9408	0.0028774757
243	0x3d2cff49	0.042235646
244	0x3d011dc4	0.031522527
245	0xbb8086c1	-0.003922314
246	0x3cf4cb00	0.029881954
247	0x3d2a6f0b	0.041609805
248	0xbcf3e41a	-0.029771853
249	0x3c8c5a14	0.017132796
250	0xbced8902	-0.028995994
251	0x3d2355c5	0.039876718
252	0x3c305d3a	0.010764414
253	0xbbdcd9cd	-0.006739831
254	0xbd1c9a63	-0.038233172
255	0xbd014f74	-0.031569913

layer3.weight f4 [57, 256]
0	0x3cedbf02	0.029021744
1	0xbbb76449	-0.0055966717
2	0xbd59fcb4	-0.053219512
3	0xb95bd22a	-0.0002096376
4	0xbcd18468	-0.025575832
5	0x3d463428	0.048389584
6	0xbd701eca	-0.058623113
7	0x3d311f38	0.043242663
8	0xbc9c5a94	-0.01908616
9	0x3d32b99e	0.04363405
10	0x3cd2cf94	0.025733747
11	0x3d3eea84	0.04661037
12	0x3ca784fa	0.02044915
13	0xbcbad973	-0.022808766
14	0xbd56f8e7	-0.052483466
15	0xbc513a79	-0.012770289
16	0x3bbe692c	0.0058108773
17	0xbb947b81	-0.0045313244
18	0x3c9623b0	0.018327564
19	0xbd436c4e	-0.04771071
20	0x3d565f7a	0.052337147
21	0xbc8631f9	-0.01638125
22	0x3d6617c0	0.056174994
23	0xbcd7701c	-0.026298575
24	0x3c212d4c	0.00983746
25	0x3ba998b2	0.0051756734
26	0xbd4e7938	-0.050408572
27	0xbd4a58f4	-0.04940124
28	0xbce81df7	-0.0283346
29	0xbd026475	-0.031834085
30	0xbc96fb47	-0.018430365
31	0xbce6c76e	-0.028171267
32	0xba849426	-0.0010114952
33	0xbbce8071	-0.0063019325
34	0xbc1ccab5	-0.0095698135
35	0xbd0493b9	-0.03236744
36	0xbc8e72a9	-0.017388659
37	0xbd715777	-0.058921304
38	0x3d367448	0.04454449
39	0x3b9696a4	0.0045955945
40	0x3d44aba3	0.048015248
41	0x3d1f2a1e	0.038858525
42	0x3cf8f1ba	0.030388702
43	0x3d51c9ce	0.051217847
44	0xbc278f50	-0.010227039
45	0xbc5b1f05	-0.013374095
46	0xbd6321d6	-0.05545219
47	0xbc6895c0	-0.014195859
48	0xbd22a37a	-0.039706685
49	0xbd778db8	-0.060437888
50	0xbd652c90	-0.0559507
51	0xbd5ecfc8	-0.054397374
52	0xbcabd561	-0.02097577
53	0xbcd84beb	-0.026403388
54	0xbc9d25c8	-0.019183055
55	0xbd5c2922	-0.053750165
56	0xbc604b4b	-0.013689826
57	0xbd552ce2	-0.052044757
58	0x3cbb65f5	0.022875765
59	0x3d6723d8	0.056430668
60	0x3d0eb61a	0.034841634
61	0x3d79a5ca	0.060949124
62	0xbd2cf7aa	-0.04222838
63	0xbd4d8d80	-0.050183773
64	0xbc2cb2aa	-0.010540644
65	0x3cc6553c	0.024210565
66	0xbcb72b68	-0.022359565
67	0x3d07624c	0.033052728
68	0x3d2ab9a2	0.04168094
69	0xbd6be790	-0.057593882
70	0xbbfdc5a8	-0.0077445097
71	0x3d0ced98	0.034406275
72	0x3ce85bba	0.028364051
73	0x3d73ae80	0.059492588
74	0xbca7525e	-0.020425018
75	0x3cfe3e25	0.031035492
76	0x3cd60528	0.026125506
77	0x3d3dbb1a	0.046321012
78	0x3c39faf0	0.011351332
79	0xbd2a0486	-0.04150822
80	0xbc6a805e	-0.014312832
81	0xbca931b5	-0.020653585
82	0xbd6012e0	-0.0547055
83	0x3cb64518	0.022249743
84	0x3c6839ab	0.014173905
85	0xbd1870c6	-0.037216924
86	0xbcf57208	-0.0299616
87	0xbd5022c9	-0.050814424
88	0x3b9fb63d	0.0048740194
89	0xbc755110	-0.01497294
90	0xbd5c499c	-0.053781137
91	0xbc60139a	-0.013676548
92	0x3ccd1d28	0.025038317
93	0x3cdb7056	0.026786964
94	0xbd42c762	-0.047553428
95	0x3d0d5dc5	0.034513254
96	0x3c72b7b8	0.01481431
97	0x3d2e978c	0.042624995
98	0xbd3dce84	-0.046339527
99	0x3b138f3c	0.0022515794
100	0x3a99eb09	0.001174302
101	0xbd3b612a	-0.04574696
102	0xbd1e85ee	-0.038701944
103	0xbc045dd6	-0.008079013
104	0xbd005eb1	-0.031340305
105	0x3c5c955e	0.013463346
106	0xbd24b891	-0.04021508
107	0xbc87b1d0	-0.01656428
108	0xbc492ae6	-0.012278294
109	0xbc857a6f	-0.016293732
110	0xbc42948e	-0.0118762385
111	0x3d09fab2	0.033686347
112	0xbd6bc862	-0.057564147
113	0xbd274fb2	-0.040847488
114	0xbd51ca6e	-0.051218443
115	0xbd30e430	-0.043186367
116	0x3cf36e1a	0.029715586
117	0x3cb41fee	0.021987882
118	0x3c9a35af	0.018824426
119	0x3d41574d	0.047202397
120	0x3c889f76	0.0166776
121	0x3d541486	0.051777385
122	0x3d4072ca	0.04698447
123	0x3b25aab2	0.0025278744
124	0xbd0a564f	-0.033773717
125	0xbd05a58c	-0.03262858
126	0xbceb4c68	-0.028722957
127	0xbcdb5da2	-0.026778046
128	0xbcf3cfa9	-0.029762106
129	0x3d7e417a	0.062074162
130	0x3b5b7fca	0.0033492916
131	0xbcd74c74	-0.026281573
132	0xbd0edc74	-0.03487821
133	0x3d77bf52	0.06048519
134	0x3c99224c	0.018693112
135	0x3cd0b8b4	0.025478698
136	0x3d1622dd	0.036654342
137	0x3d10d5d1	0.03536016
138	0xbd0ce28e	-0.034395747
139	0x3d3ab790	0.045585215
140	0xbd5f62b9	-0.05453751
141	0xbc4e04c2	-0.012574377
142	0x3d5f5df8	0.054532975
143	0xbcc8654d	-0.024462366
144	0x3cf3d0a4	0.029762574
145	0x3c53d3ac	0.0129288845
146	0xbcdf7df2	-0.027281735
147	0x3cf93562	0.030420963
148	0x3d141e99	0.036161993
149	0xbd5e4cde	-0.054272525
150	0x3b7f11d2	0.0038920534
151	0x3d25a082	0.040436275
152	0xbd16e7a6	-0.03684201
153	0xbd0de2b5	-0.034640033
154	0x3cf2f289	0.029656665
155	0xbd0c6d3c	-0.03428386
156	0xbd3cdf9f	-0.0461117
157	0xbb9ce21e	-0.0047876975
158	0x3d75693c	0.059914812
159	0x3cd43148	0.025902405
160	0xbd79a2e4	-0.06094636
161	0xbd7d9200	-0.061906815
162	0xbbeccf57	-0.0072268653
163	0xbd14a79e	-0.036292665
164	0xbc0fbb82	-0.008772733
165	0xbcd73e64	-0.026274867
166	0x3d4ee35a	0.050509788
167	0x3d1fbb0f	0.038996752
168	0xbc15acaa	-0.009135405
169	0x3ca5d022	0.020240847
170	0xbd75172e	-0.05983656
171	0xbc85af5a	-0.016318966
172	0x3d4c9a26	0.049951695
173	0xbbac3d32	-0.0052563185
174	0xbd27f7b2	-0.041007705
175	0x3d0c667b	0.03427742
176	0x3d67142d	0.056415725
177	0x3c0065ee	0.007836802
178	0xbc95af30	-0.018272012
179	0x3cd3bf58	0.025848076
180	0xbd5f27fb	-0.054481488
181	0x3b6edd79	0.0036447926
182	0x3d043695	0.032278616
183	0x3c817936	0.015804868
184	0x3d4be4b5	0.04977866
185	0xbd381244	-0.044939294
186	0xbc923d50	-0.017851502
187	0xbd7c9c88	-0.061672717
188	0xbcf1bb14	-0.029508151
189	0x3d074218	0.033022016
190	0xbd67d0df	-0.05659568
191	0xbb10bd14	-0.0022085356
192	0x3d0ab559	0.033864353
193	0xbd55f75d	-0.052237857
194	0xbcd46c83	-0.025930649
195	0xbc1a836c	-0.0094307475
196	0xbd25c262	-0.04046858
197	0xbd7f94f6	-0.06239792
198	0x3c04eade	0.008112637
199	0x3ccca643	0.024981624
200	0xbccd911f	-0.025093613
201	0x3d155dee	0.03646653
202	0xbb9f54ea	-0.0048624175
203	0x3d06fcca	0.032955922
204	0xbd3d60d2	-0.046234913
205	0x3d383a96	0.044977747
206	0x3d342d2c	0.04398839
207	0xbd6b12e2	-0.057391055
208	0xbd511fd7	-0.051055755
209	0xbc934160	-0.01797551
210	0xbc853eea	-0.016265351
211	0x3d2ff3ac	0.042956993
212	0xbbd14c74	-0.0063872878
213	0x3bd01854	0.0063505564
214	0xbcf24a32	-0.029576395
215	0xbd6b3344	-0.057421938
216	0xbc5ac4fc	-0.013352629
217	0x3cde3110	0.027123004
218	0x3d2fcddf	0.042920943
219	0x3cac5374	0.021035887
220	0xbd63e49d	-0.055637944
221	0xbd1a0dc0	-0.03761077
222	0xbc9ddb98	-0.01926975
223	0x3c9c0f98	0.019050404
224	0x3cbc2810	0.022968322
225	0xbd2ba76c	-0.041907713
226	0x3c54a06c	0.012977701
227	0xbd6bade8	-0.057538897
228	0xbd455fc1	-0.04818702
229	0x3d0928f8	0.033486336
230	0x3ba152b2	0.004923188
231	0x3bc94bc8	0.006143067
232	0x3d692656	0.056921326
233	0xbd28a967	-0.04117718
234	0xbcfbb3ea	-0.030725438
235	0xba11c291	-0.00055603037
236	0x3d777e84	0.06042339
237	0xbd6bb026	-0.057541035
238	0xbd281e82	-0.04104472
239	0x3c23e27a	0.010002727
240	0x3d5a6356	0.05331739
241	0xbc86652a	-0.01640566
242	0xbcea77c4	-0.028621562
243	0x3d73d104	0.059525505
244	0x3c70c6aa	0.014695803
245	0xbd233b30	-0.039851367
246	0x3d2a1a90	0.04152924
247	0x3d60976a	0.0548319
248	0x3c926500	0.017870426
249	0x3c863fb0	0.01638779
250	0xbb94044c	-0.004517114
251	0x3cb95811	0.022625001
252	0x3d5b3478	0.053516835
253	0xbd39494e	-0.045235924
254	0xbcaa1596	-0.020762246
255	0xbc5e53c2	-0.013569774

layer3.bias f4 [57]
0	0xbc81c6d4	-0.015841879
1	0xbd512bbf	-0.05106711
2	0xbcb0aac5	-0.021565804
3	0x3b4eb863	0.0031543009
4	0x3d42dab9	0.04757187
5	0x3c552f71	0.013011799
6	0x3c066e8d	0.008205068
7	0x3d4a6092	0.049408503
8	0x3c871707	0.016490472
9	0x3d0d8284	0.034548298
10	0x3d0eac2e	0.034832172
11	0x3d48f9dd	0.049066413
12	0x39ff6030	0.00048709055
13	0x3d32a14e	0.043610863
14	0x3d1597e5	0.03652181
15	0xbd5f49ea	-0.05451385
16	0xbd69cfdf	-0.057083007
17	0x3d698140	0.057008028
18	0xbcdd1f0d	-0.026992345
19	0x3d036a32	0.032083698
20	0x3d59acd8	0.053143352
21	0xbd2f2ead	-0.042769123
22	0x3c776c7c	0.015101548
23	0xbc65dad5	-0.014029224
24	0xbc7611de	-0.015018908
25	0xbc046e82	-0.008082988
26	0xbcdbd000	-0.02683258
27	0x3803a526	3.138664e-05
28	0xbb5f20be	-0.0034046615
29	0xbca0a08a	-0.019607801
30	0x3d43efd7	0.04783615
31	0x3cf0d3e6	0.029397916
32	0x3d6ee858	0.05832705
33	0xbd3c42ef	-0.04596227
34	0xbc8b970b	-0.017039796
35	0x3d5dd677	0.054159608
36	0x3d24e80b	0.040260356
37	0x3d1e194a	0.038598336
38	0xbc8dd477	-0.017313225
39	0xbb295dd4	-0.002584328
40	0xbd7d8c91	-0.061901633
41	0xbcfb80a6	-0.030700993
42	0xba93cfe0	-0.0011277162
43	0xbcd3b1f1	-0.025841685
44	0x3d7570b0	0.05992192
45	0x3bd81416	0.0065941913
46	0x3d022be4	0.03178014
47	0xbd54e820	-0.051979184
48	0x3d13fb79	0.036128495
49	0x3d60cd46	0.054883264
50	0x3cb34522	0.021883551
51	0xbcc993fc	-0.024606697
52	0x3d58be87	0.052916076
53	0x3d50ad20	0.050946355
54	0xbd2ac98b	-0.041696113
55	0xbc52747c	-0.012845155
56	0x3d499e1a	0.049223043
