results/models/dqn/best_model_ep3_2024-11-21_00-10-43.pt (torch, 613462 bytes, 6 tensors)

layer1.weight f4 [512, 12]
00000000: 00cc 803e fcf0 883e aa26 ddbd 419c 7e3e
00000010: 024a 83bd 383e ca3d e59b 37be 7f57 333e
00000020: 28ac 803e 77fe 7ebe 8e1b 873e f6ff 8c3d
00000030: 89c6 fe3d 4e61 343d bca6 6a3e 4085 8d3c
00000040: 1068 ee3d de33 50bd 39e2 1fbd 9ba2 f03d
00000050: 375f 29be 06c9 743d 9905 1cbe b419 233e
00000060: d345 41be a3a2 fabc 6428 aebe a111 20be
00000070: a295 443e 7101 88be b8b1 8f3e 6338 5ebe
00000080: bb22 de3e cc69 8e3d 6990 62bd 401d 583e
00000090: 6d2c 853d 230a 593e be6e d1bd 4440 4fbe
000000a0: 002d 273e 4cd0 663d f8ab 68bc fe5b 3f3e
000000b0: c97b 243e 5e5f 83be 33f5 853e e119 163e
000000c0: bad6 dc3d 5f22 f8bd fc36 72be 0d47 93bd
000000d0: d94f 58be ce3e 413e 72d1 fe3d 6b39 0f3e
000000e0: 4e57 de3d e947 1c3d 8aee 523e 58f0 58be
000000f0: d3c8 883d d347 ddbd 88b4 18bd 6dcc 2cbd
00000100: b688 393e e6aa 48bc 51aa 8d3e 8bae f8bd
00000110: 6dce 54bd e235 d0be 0c6b 9d3e 2d1b 173e
00000120: 66c9 4a3e c276 4dbe e4ea 82be c431 83be
00000130: 21ae 01be 06f8 b73d bfa9 003e 77b9 4f3e
00000140: 2420 02be db19 2cbe 77dd 593e b1b4 6bbd
00000150: b9b9 423e 4e5d 89bd 58b3 1e3e 8765 5dbe
00000160: fc50 0bbe 1db9 c03d 8e33 853d e8bb 86bd
00000170: d98b 303e e1ea 2e3e 3433 52be 7d7a 1bbe
00000180: 8368 a03e 470c da3c 419f 9ebe cde8 77be
00000190: 38d2 be3b f502 cb3d d792 12bb eb47 2dbe
000001a0: d764 613e 8cdc 40be 2add 3cbe f5e6 cdbd
000001b0: 1d33 18be ccaa 16be 5ffc b73e 33c5 9e3d
000001c0: a4a3 5a3d 9d66 78be bb3a 27be f02b b3bd
000001d0: 9473 4bbc b149 ebbe b24a bfbd 7aa6 10be
000001e0: 085e ae3c 15c7 d3bc 7f72 89be a1bb 49be
000001f0: 8bb5 86bd 5159 34be 2ef5 c7bd dba9 65be
00000200: bebc d23e bed4 f9bd f1fb 833e 155d d23d
00000210: 19fb 6dbe ede1 5e3e 3435 6dbe 7d36 d8bd
00000220: 342f fdbd e38b 8cbe f2e9 e33d 3aac 34bd
00000230: 76f0 833e 2f27 04be e90b 5d3e 16fa 4cbe
00000240: 8535 e3bc 88fa 0b3e 69c1 cabd 25af 633e
00000250: a7e3 c53e b260 71be 1a10 8e3d 8175 f4bd
00000260: 7e68 183e 3640 3abe e5e8 893e 6fcc 47be
00000270: ba58 273e e640 3b3e 4a99 3cbe 2bb0 24be
00000280: 059c ca3e eb0b 333d adb8 063d 034e 7fbe
00000290: f2cc 9e3e 820e 533c 9efd eabd 03ab 833e
000002a0: 7ec8 bc3d e096 52be 135a c43d 9408 583c
000002b0: 7769 873d 45b4 3fbd 1e65 05be f42c a0bd
000002c0: 99c0 b0be 6c6a 073e aad5 683e 368a 83be
000002d0: 1750 e33d ee45 173e 73f8 9cbd 7749 3ebe
000002e0: 9874 663e 4fdd 8c3e 6cbd c63b bedc d8bd
000002f0: 97cc 91bd 4c47 c7bd ac5f 7e3d bd58 c93c
00000300: 0c7d de3d 9ee9 823e 1303 25bd c140 adbd
00000310: 45f5 bf3d 3dde 91bb 7f89 633d f18e a63d
00000320: 1071 72be b5c0 eebd 3150 873e 2644 083e
00000330: 27eb 46bd 66c2 bebd 912f 98bd a5dc 26be
00000340: 8d21 fdbd 61c5 41bb 679d 8e3e 125f 503e
00000350: ba4e 67be ad33 92bd 35f7 f6bd ecdb 473e
00000360: c861 333c 9e6c 30be 4cdb c53e ae81 d3bd
00000370: 76b7 a8be 652f 573e 99ee febd 0b49 66bd
00000380: c698 f4be 91a1 8b3e 97f0 423e 5837 a33d
00000390: ad1b 3cbe f978 86be 63bd 8cbe 8a51 353e
000003a0: a389 6d3e ecdd 903e 9d12 d23d 50fc 8c3d
000003b0: 1001 723d 243f 85be d103 1fbe 87ba 33be
000003c0: bd48 173e de75 36be 8f0e 3a3e 81f7 05be
000003d0: b6c5 0fbe 2fbb 24be ae50 1cbe 4801 f13d
000003e0: c681 5dbe c9fe 373e 0d3e 9bbd 8ce0 44be
000003f0: a471 f8bc 8be3 9ebd cbfb e4be e510 84be
0.2515564 0.26746356 -0.1079839 0.24864294 -0.064106 0.098751485 -0.17930563 0.17513846
0.25131345 -0.24901758 0.2638821 0.06884758 0.12440211 0.04403811 0.22915167 0.017275453
0.11640942 -0.050830714 -0.039034102 0.117497645 -0.16540228 0.059762023 -0.1523651 0.15927774
-0.18874292 -0.03059513 -0.3401519 -0.15631725 0.19197705 -0.265636 0.28065276 -0.21701197
0.43385872 0.06953773 -0.0553135 0.21104908 0.06502614 0.21195273 -0.102262005 -0.20239359
0.1632576 0.05635099 -0.014201157 0.18687436 0.16062845 -0.25658697 0.26163635 0.1465831
0.10783143 -0.12115931 -0.23653787 -0.07191286 -0.2112421 0.18871614 0.12442292 0.13986747
0.10856496 0.038154516 0.20598808 -0.21185434 0.06678929 -0.10804715 -0.037281543 -0.042187143
0.18118557 -0.012247777 0.27669004 -0.121426664 -0.051954675 -0.4066611 0.30745733 0.1475646
0.1980339 -0.20064834 -0.25569832 -0.25623906 -0.12664081 0.089828536 0.12564753 0.20285593
-0.12707573 -0.16806738 0.21275888 -0.057545368 0.1901616 -0.067072496 0.15498102 -0.21620761
-0.13605112 0.094103076 0.06503974 -0.06578809 0.17240848 0.17081787 -0.20527345 -0.15183444
0.31329736 0.026617182 -0.30980876 -0.242099 0.0058234 0.099126734 -0.0022365355 -0.16921966
0.22011124 -0.18834132 -0.18443742 -0.10053817 -0.14863248 -0.14713591 0.3593473 0.077524565
0.053378716 -0.24257894 -0.16330998 -0.08748615 -0.012417693 -0.4595466 -0.09340419 -0.14126006
0.021285072 -0.025851766 -0.26845166 -0.19700481 -0.06577595 -0.17612197 -0.09763561 -0.22428076
0.41159624 -0.121987805 0.25778154 0.1027166 -0.23240317 0.21765871 -0.23164827 -0.10557268
-0.12362519 -0.27450475 0.11128606 -0.04410956 0.25769395 -0.12905572 0.21586575 -0.20017275
-0.027735481 0.13669789 -0.09900171 0.22234781 0.38650247 -0.23572043 0.06936665 -0.119364746
0.1488361 -0.18188557 0.26935497 -0.19511579 0.1634244 0.18286476 -0.1841785 -0.16082828
0.39572158 0.043712538 0.032890964 -0.24932103 0.31015736 0.012881877 -0.11474155 0.2571641
0.09217928 -0.20565367 0.09587493 0.013185639 0.06611913 -0.046802778 -0.13026854 -0.07821074
-0.3452194 0.1322419 0.22737756 -0.25691384 0.1109926 0.1477277 -0.076645754 -0.18582712
0.22505414 0.27512595 0.0060650613 -0.10588978 -0.071191005 -0.09730396 0.06210296 0.024578447
0.108636945 0.2556886 -0.040286135 -0.084596165 0.09372953 -0.0044515417 0.05555105 0.08132733
-0.23675942 -0.1165785 0.2642837 0.13307247 -0.048564103 -0.09314422 -0.074309476 -0.16295107
-0.12359915 -0.002956711 0.27854463 0.20348766 -0.22588626 -0.071387626 -0.1205887 0.19517487
0.010948606 -0.17228934 0.38643873 -0.10327469 -0.3295247 0.21014173 -0.12447853 -0.056222003
-0.47772807 0.27271703 0.1903709 0.0796954 -0.18369932 -0.2626417 -0.2748824 0.17706886
0.23197035 0.28294313 0.102574565 0.06884062 0.059083045 -0.26024735 -0.155288 -0.17551623
0.14773841 -0.178184 0.18169616 -0.13082696 -0.14040264 -0.1608703 -0.15265152 0.117678225
-0.21631536 0.17968287 -0.075801946 -0.19226283 -0.030327626 -0.07758244 -0.44723353 -0.2579414

layer1.bias f4 [512]
00000000: a61a 3abe 6efc 23bd 73b8 c1bd 268e b13e
00000010: 83c7 a5be 468c 48bd 7ef3 cc3d a13a 343d
00000020: 5e63 07be cd9e 713e 3853 71be 011d 813e
00000030: 364a 7d3d 4c64 f33d 34fb 413e 9934 253e
00000040: bd33 2d3d ab7d 1fbe 8ced 6dbe ed60 283e
00000050: 1d0f 493e c969 e43d 8059 8bbd ff80 aebe
00000060: 00fe 0cbd d82f 9c3d 0091 d6bd d94a 6f3e
00000070: 78da 90bd 0a16 923d 8383 4a3e df9f f13d
00000080: 587d 3abe 5c0d aa3d 6a53 353e f86b cc3d
00000090: 1967 43be 356e 97b8 2591 62be 6606 5e3d
000000a0: 3181 69be 1b39 2e3e c753 633e 7974 14be
000000b0: 582d 11be c61f 41bd 011d 6fbe 0097 723e
000000c0: ecf0 02be 7a82 2fbe ebde 94be cd34 2f3d
000000d0: af35 73be 5a29 2ebe 7a40 b13e a604 293e
000000e0: 75e6 bd3d d7d2 813e 7c40 2b3c ceed 603d
000000f0: 7617 64be 4242 323d 4321 2fbe 3c60 8ebd
00000100: e1d4 47be b64c f8bd 825f 01be 7fbc 0ebe
00000110: e00b 5cbe eace 3abe f0ae a2bd 7407 28be
00000120: 8372 653e adc9 e73d cbe4 94be 31f6 9cbe
00000130: f311 d5bd 652f d43d fd85 5b3e e2e4 9dbd
00000140: 509d 473e e6d3 24be 245b adbd 54e1 97bd
00000150: 060b 90be a500 0cbd 7091 a23d d9d7 0d3e
00000160: 0296 60be f94f 9dbd 5f7e 443d dced 703d
00000170: 66da 053d 46bb 75be 8586 483e 2c24 51be
00000180: 0427 b33c 217b 003e 197f 07be 5510 3dbe
00000190: 55ad 85be 63fe 7b3e 83ca 343c bdce 383e
000001a0: 1914 b53d 5e99 f8bd 10ea abbd 81e9 783e
000001b0: 8f05 ccbd 3944 05be 93c5 543e b7da 55bd
000001c0: 5805 343a 466e 3abe e6d4 0e3e 46ff 183a
000001d0: f5d3 71be 88e0 54be ceaf ca3d 8572 bdbd
000001e0: 0a99 fb3d 9147 01bd bf41 dfbd 2a20 c3bd
000001f0: 7324 09be 3e5c 363e 691a ad3e c1e1 4fbd
00000200: 7c89 39be 190f 063e 73cc 543e b926 333e
00000210: 36ae e43d a31e 3e3d d5cb 3d3b 7756 eabd
00000220: 5995 acbe feb5 d2bd 40c0 803d 3837 203e
00000230: 57f8 943d b366 f43d 2780 223e 681d aabd
00000240: c0f8 713e 1a19 773d 2f42 06be dbb1 2dbe
00000250: 07d0 52be 9f88 8bbe 3d33 743d 13f7 a23e
00000260: a6ff ca3c dfc6 a43b b26d 1fbe 500c e6bd
00000270: 87e4 ddbd dbe5 6e3d 4cdb 893c 88f4 07be
00000280: 07d2 a13d 3619 36bd adbd 75bd 3e8f 333e
00000290: 269e fabd 3155 733e 066a 3bbe 6d58 783e
000002a0: bcf7 dd3d 56ed a83d 8fb6 30bd 7e6a c1bd
000002b0: eb7f 7bbe acaf 8abe a839 463e c144 9a3e
000002c0: 7736 ef3d 549d e4bd f178 123e bec3 f23d
000002d0: 1bb2 78be 874f 3cbe a3f9 873c 24b9 00be
000002e0: fc44 ecbd 9bcc c2bd ddd5 733d 51b2 25be
000002f0: 020e b2bd a8a4 2d3e 4cb5 853e 333b 463e
00000300: 1cce 9d3b 520e 153d ca92 583e f22a 793e
00000310: 661e 453e 5f4b a23d 21f5 003d 7911 a1bc
00000320: 6cd5 263e bb66 bc3c 9137 76be bbc2 3bbe
00000330: 658d 7ebe bbaf 56bd a267 89bc 02d5 92bd
00000340: 8247 a2be c87a 54be 61c9 143e 5256 0cbd
00000350: 879c 0fbd b855 d93c 5fda 22bd 15a9 26be
00000360: 8a08 3abe 3f38 39be 62f9 8bbe fcb7 36be
00000370: bdfa 1ebe d2ee 643d 8091 663e 31f4 8cbc
00000380: 6e79 443e 886c 6a3d f05c 66be 95a4 d9bd
00000390: 34ff 243d 68ea 90be d507 de3c 35d4 b3bc
000003a0: c4fb 9bbe 157e 843d e764 8fbe 9b3b 8e3e
000003b0: 7fd9 093e deb7 07be 08ef 783e 4f19 08be
000003c0: 998f 353e 9e07 16be da38 df3d f107 9b3e
000003d0: fe5a fc3d 6a4e 1f3e b1e1 95bd a1a0 78bd
000003e0: c9f7 763e 1f20 17be be6e 0cbe 7bca 2e3c
000003f0: e656 0cbe da2e febd 74b2 363d 2b49 563e
-0.18174228 -0.040035658 -0.09459009 0.34678763 -0.32378778 -0.0489619 0.1000738 0.044001225
-0.132215 0.23595734 -0.23566902 0.2521744 0.06183835 0.118843645 0.18943483 0.16133346
0.04228567 -0.15575282 -0.23235148 0.16443224 0.19634672 0.111529894 -0.0680418 -0.3408279
-0.03442192 0.07626313 -0.10476875 0.23368396 -0.070729196 0.0713311 0.1977673 0.11798071
-0.18211877 0.08303329 0.17707601 0.09981531 -0.19082297 -7.220769e-05 -0.2212568 0.05420532
-0.22803189 0.17013972 0.22199927 -0.14497556 -0.14177454 -0.047149442 -0.23350908 0.23690414
-0.12787217 -0.17139617 -0.29076323 0.042774964 -0.23750947 -0.17007962 0.34619504 0.1650568
0.09272472 0.2535617 0.010452386 0.05491429 -0.22274575 0.04352022 -0.17102532 -0.06951949
-0.195148 -0.121240065 -0.1263409 -0.13939093 -0.21488905 -0.18242994 -0.07943523 -0.16409093
0.22406964 0.113177635 -0.29080805 -0.3065658 -0.10403814 0.10360602 0.21437831 -0.077096716
0.19493604 -0.16096458 -0.08464649 -0.07416025 -0.2813341 -0.034180302 0.07937896 0.1385187
-0.21932223 -0.07681269 0.04797208 0.05882059 0.032678984 -0.2399722 0.19582565 -0.20423955
0.02186919 0.1254697 -0.13232078 -0.18463261 -0.26108804 0.2460876 0.011034611 0.18047614
0.08841724 -0.121386275 -0.08394253 0.24307825 -0.09961998 -0.13014306 0.20778494 -0.052210536
0.00068672514 -0.18206128 0.13948402 0.00058363786 -0.23616011 -0.20788777 0.09896813 -0.092503585
0.12285049 -0.03156239 -0.10901212 -0.09527619 -0.1339281 0.17808625 0.33809212 -0.050752405
-0.18118852 0.13091697 0.20781116 0.1749524 0.111660406 0.046415936 0.0028960605 -0.11442273
-0.33707693 -0.102886185 0.06286669 0.15646064 0.072739296 0.11933651 0.15869199 -0.0830639
0.23630047 0.060326673 -0.13111185 -0.16962378 -0.20587169 -0.2725267 0.059619177 0.31829128
0.024780106 0.00502859 -0.15569189 -0.11232817 -0.10834604 0.058324676 0.016828202 -0.13276875
0.07901388 -0.044457637 -0.059995342 0.17535111 -0.12237196 0.23762967 -0.18302163 0.24252482
0.10838267 0.08248393 -0.04314285 -0.0944414 -0.24560516 -0.27087152 0.19357932 0.3013058
0.1168031 -0.111628205 0.14303948 0.11853741 -0.24286692 -0.18389712 0.016598528 -0.12570626
-0.11536595 -0.09511682 0.059530128 -0.16181304 -0.08694078 0.16957343 0.2611488 0.1935852
0.00481583 0.03639061 0.21149746 0.24332789 0.19249877 0.07924532 0.031483773 -0.019661652
0.16292351 0.022998204 -0.24044634 -0.18336003 -0.24858625 -0.052413683 -0.016773049 -0.07169534
-0.3169518 -0.20749962 0.14529945 -0.03426201 -0.035061385 0.026530132 -0.039759036 -0.16275437
-0.1816732 -0.18087862 -0.273387 -0.17843622 -0.15525337 0.05589182 0.22516441 -0.017206283
0.19186947 0.05723241 -0.2249639 -0.10627095 0.040282443 -0.28303838 0.027103344 -0.021951774
-0.3046552 0.06469361 -0.2800667 0.2777985 0.13461874 -0.13253734 0.24309933 -0.13290904
0.1773056 -0.14651343 0.108995155 0.30279496 0.12322043 0.15557256 -0.07318438 -0.060700063
0.2411796 -0.14758347 -0.1371412 0.010668392 -0.13705024 -0.1241128 0.04460378 0.20926349

layer2.weight f4 [256, 512]
00000000: 951c 1e3d 3236 9a3c f591 c43c a2c6 09bd
00000010: f80d ba3c 38fb 463b 9e4a 37bd 712e 283d
00000020: f156 91bb 567e ab3b 2f78 053d 40aa cb3c
00000030: 9c0a 123d d381 32bd 8e57 213d 941e 9c3b
00000040: 621f ad3b 2b44 06bd bf0d e9bc ca16 f83c
00000050: de5c eb3c 77a4 5b3c 2254 dfbb 9be5 debc
00000060: 4b45 da3b e7e0 93bc 7f97 e6bc 80df 243c
00000070: 54ea fb3c c531 26bd 324f 2cbd 0dd6 0938
00000080: 9e36 99bc e157 e0bc 75e1 81bc 0fac c4bb
00000090: 5ffb 253c fe88 e93c 6c8b a63c 2734 9f3c
000000a0: 22df e3bc 03d6 12bc f90d c93c 1809 95bc
000000b0: aad6 2fbd 858b 2ebb 3e7e b93c 5a9c 6bbc
000000c0: 0855 31bc 484e 0fbc cb50 bf3c 58a6 1a3d
000000d0: 6fc7 17bd 351d b83c e911 883c d318 5b3c
000000e0: 8902 e6bc b811 57bc 060d 233d d40e 7f3c
000000f0: 3ac7 46bc 6b7f 123c f3a0 a73c 58c6 63bc
00000100: 111c d83c bd5c 3fbc dee1 2b3b aba6 023c
00000110: 8202 49bc ca40 00bb 239d 9e3b 7bcd 08bd
00000120: 2a56 bfbb 43b9 4bbc 8d85 df3c 0b67 843c
00000130: 71ae 1bbd dcd6 fdbc 5d2d 223d e418 16bc
00000140: a6af 013d 4f85 6ebb cd21 c73c 2d17 b2bc
00000150: b21f 273d 15c3 ba3b e78a 49bc d0ba e73c
00000160: ccdc 9d3c c049 09bd 7cf2 4abb 11e5 fd3c
00000170: dcc3 f83b 5964 86bc 3f29 0dbd 5889 08bd
00000180: 803e b03c 18d5 883c 16ba 28bd 711e 43bc
00000190: 4f74 0b3c 929a 01bd 1ebe a93c b294 69bc
000001a0: e5f9 a9bc 570e 593b e7ea 723c 9a2e 903c
000001b0: 2d79 1a3d 7f6b c73c 320a 64bb 9c5a 103c
000001c0: c16e d93b b20c a3bc aaf4 02bd 543a febb
000001d0: 5e6e 9fbc 6854 33bd cade 403c c1a1 94bc
000001e0: 5ad2 1a3d 92ed 813c f2db 963c 625d 1b3c
000001f0: 7522 603c b73d f03c 76ef 0e3d 93f1 ab3b
00000200: 1863 a3bc 98aa 0bbc 8448 a9bc f420 c0bb
00000210: 5710 f53b 633f 823c 2f0c 3bbd 2edf 5c3c
00000220: 9721 a7bc d76e 09bd efe0 a4bc c205 06bc
00000230: b1c9 953c 7b9b 30bd a239 353a e164 123d
00000240: 6040 17bd ec27 273c 738b 99bc ba2e 2e3c
00000250: a5a8 7a3c 5a74 f5bc 0a7b f23b 08d7 783d
00000260: 021f da3a dd31 03bd 08f4 51bb a46d cbba
00000270: d065 733c 3e17 5fbc 0e23 48bc a805 cabc
00000280: eaca c73c 6a86 f3bc b00b 93bc 9b29 d53c
00000290: d075 bebc f357 0bbc 15a5 adbc 2439 2bbd
000002a0: 8732 b53b 38eb b5bc 5343 0ebd 42e4 54bc
000002b0: 556b 353c 4b85 1b3d c9f6 0c3d 5506 2ebb
000002c0: 5213 f1bc ccbe 993a e395 82bc 4096 153d
000002d0: abbc 42bc 51b3 2abd 78bb 4d3c 19f0 4abc
000002e0: 66e1 4e3c 1a56 cabb 5c02 473c 50f4 a73c
000002f0: c13f 13bd 39e2 2abd 1498 153d 990a 153d
00000300: 6f5a b1bc 89cb 343d 8922 8b3b 5234 a5bc
00000310: d91c eabc 4b55 82bb 7a4a 013d 2582 f4bc
00000320: 9f2d aebc cb05 263d 5ef4 c7bc d52e 223d
00000330: 567e 833c 5ebd af3c 9f5c d53b fefd 90bc
00000340: 81d0 863c 6fd1 2a3a 030e 13bd 78e9 11bd
00000350: 2f6d 78bd 582e 83bb 72a8 e53a d03a d1bc
00000360: c9fa e73b 2b6c 393d 30a3 b53c bc55 f6bc
00000370: cf5b e33b bb13 2bbd d4b1 c33c 2d94 1bbd
00000380: e54a 1d3b dff1 98bc e3db 12bd d529 30bd
00000390: c9a7 5abd 5895 00bd 13e4 f53c 53b6 1fbc
000003a0: 99d6 02bd 292b bebb 0236 babc c31b f4bc
000003b0: ed76 0b3d 44c7 3fbd 05fe 3dbd b3ff d0bb
000003c0: 1a34 d93c d746 28bd a40c 993b 19c8 6c3d
000003d0: 2ef0 27bc c3ae c9bc f1c4 8a3c cf8b ac3c
000003e0: dc19 93bb 99ae 1ebd 5098 543b 4f69 c9bc
000003f0: be35 17bd 2591 c23c de99 503c 7d26 573c
0.038601477 0.01882467 0.023995379 -0.033636697 0.022711739 0.003036214 -0.044748895 0.041059915
-0.004435413 0.0052335663 0.03258532 0.024861455 0.03565465 -0.04358084 0.03939014 0.0047643874
0.005283282 -0.032779854 -0.028448937 0.030284304 0.028730806 0.013405911 -0.0068154493 -0.027209094
0.0066610924 -0.018051578 -0.02814841 0.010063052 0.030751385 -0.040574808 -0.042067714 3.2862696e-05
-0.018702801 -0.027385654 -0.015854577 -0.0060019563 0.010130732 0.028507706 0.020330153 0.019434048
-0.027816359 -0.008962157 0.024542795 -0.018192813 -0.04292933 -0.0026633453 0.022643205 -0.014380539
-0.010823496 -0.008746691 0.023353955 0.037756294 -0.03705543 0.022474864 0.016610103 0.013372618
-0.02807738 -0.013126783 0.039807342 0.0155675 -0.01213246 0.008941512 0.020462489 -0.013902269
0.02638057 -0.011679825 0.0026227157 0.007974307 -0.012268664 -0.0019569867 0.0048405095 -0.033399086
-0.005839129 -0.012434307 0.027285362 0.016162416 -0.038008157 -0.030986242 0.039594043 -0.009161208
0.031661652 -0.0036395376 0.02430811 -0.021739567 0.04080171 0.005699525 -0.012301183 0.028287321
0.019270323 -0.0335176 -0.0030967286 0.030993016 0.0075917076 -0.016405271 -0.034463163 -0.033334106
0.021514177 0.016703174 -0.04119309 -0.011909113 0.008511617 -0.03164155 0.020720538 -0.014256643
-0.020749042 0.003312012 0.014826513 0.017600346 0.03771322 0.02434325 -0.0034796116 0.008810665
0.0066355173 -0.019903515 -0.03197161 -0.007758418 -0.019461807 -0.043781668 0.011771867 -0.018143537
0.037798263 0.015860353 0.018415425 0.009482713 0.01368009 0.029326303 0.034896336 0.0052473038
-0.019944713 -0.008524559 -0.020664461 -0.0058633033 0.0074787545 0.015899366 -0.045665916 0.013480945
-0.02040176 -0.03355297 -0.020126788 -0.008180084 0.01828465 -0.043117028 0.000691319 0.035740737
-0.036926627 0.010202389 -0.018743252 0.010631258 0.015298997 -0.029962707 0.0073999213 0.060751945
0.0016641321 -0.032029975 -0.0032036323 -0.0015520346 0.014855817 -0.013616381 -0.012215389 -0.0246609
0.02438875 -0.02972718 -0.017949909 0.026020816 -0.023249537 -0.008504855 -0.021196881 -0.04180254
0.005529705 -0.022206888 -0.034732174 -0.012993874 0.011072953 0.037968915 0.03441504 -0.0026554067
-0.029428158 0.0011729836 -0.015940612 0.036520243 -0.011885802 -0.041674916 0.012556903 -0.012386345
0.012626981 -0.006174815 0.012146559 0.02050224 -0.035949472 -0.04171965 0.036521986 0.03638706
-0.021649567 0.04413942 0.0042460603 -0.02016655 -0.028578209 -0.003977453 0.031565167 -0.029847214
-0.021261988 0.04053287 -0.024408516 0.039595444 0.016051453 0.021452602 0.0065112854 -0.017699238
0.016456844 0.00065161934 -0.035902034 -0.035623044 -0.060651 -0.0040033273 0.0017521514 -0.02554074
0.0070794565 0.045269173 0.02217254 -0.030070178 0.0069384347 -0.041766863 0.023888506 -0.03798311
0.002400094 -0.01867002 -0.03585423 -0.043008644 -0.05338267 -0.031392425 0.03001598 -0.009748059
-0.031942938 -0.005803485 -0.022730831 -0.029798394 0.034048963 -0.046820894 -0.04638483 -0.006378138
0.026514102 -0.041083183 0.0046706963 0.057808015 -0.010250134 -0.024619466 0.016939612 0.02106276
-0.0044891667 -0.038740728 0.0032439418 -0.024586348 -0.036916487 0.02375085 0.012731997 0.013131735

layer2.bias f4 [256]
00000000: e87a 8dbc a86d 5e3c 9cb3 6b3c e55d 55bc
00000010: eaa0 12bd 5453 0f3d 145a 083c 5576 dd3b
00000020: f6d7 2e3d cce8 c2bc 6c8a 803d 51cc 013d
00000030: c4c9 fb3c 05d8 163d f712 f83c 9ec8 20bd
00000040: 18ef edbc 260a 70bb a0fc 13bc 5d2d 30bd
00000050: 1ee2 cabc 5911 1a3c 2a70 953c 8456 11bc
00000060: 5535 103d 2540 6ebd 9322 88bc 5c13 1fbd
00000070: 15e2 1dbd 7654 20bc 5eaa b5bc 1efa 2ebc
00000080: 5582 65bc ab73 0c3d e279 d6bc ccde a13c
00000090: b8c6 8cbc b8b0 a23c 0562 77bd f3dc 29bd
000000a0: 6a42 f93c c4bf 44bd 384c e0bc 12f7 0fbd
000000b0: 66b4 853c 895d 9dbc 3701 3dbd 76fe 7d3c
000000c0: d42c 8f3c 3dd7 9bb9 ec7b 1ebd 2b2a 06bd
000000d0: 73b6 ec3c 1515 32bc c54b 75bc a70b d83c
000000e0: bfe7 593a 9ced 14bd e2ae 60bc 9523 d4bb
000000f0: 12c2 b93c d873 debc 5518 0fbd 3e14 813c
00000100: 9614 ad3c 00ca 7c3b b987 1fbd edf8 9ebc
00000110: 1cd1 423c 122a eabc 4cba 28bd 1ca0 343c
00000120: df48 cbba 638d cfbb 3f8f f1bc a873 54bd
00000130: 945f 72bc 6e01 713c ec97 ca3b 234d ea3c
00000140: 6b72 26bd 2754 d13b 525b 08bd 4b56 4dbd
00000150: e070 32bc 7395 593c 4207 7fbc 9c51 c4bc
00000160: 09c9 cc3b 801f 89bc fe9c b9bc fa7c d4bb
00000170: aebb c8bc fbf6 ea3c 9307 32bd e3d8 d7bc
00000180: 6534 60bd 1270 2dbd e981 393c 777e ba3c
00000190: 74f9 2e3b 2cc5 35bd 8196 b73b cff4 5e3c
000001a0: 8e93 4fbc b8ca d7bc 2872 093d d5d6 dcbc
000001b0: 5354 c13b d07e b83c d6da 38bd cbe5 60bc
000001c0: 6b7a dd3c 5ef2 aebc edb3 13bc 2036 a4bb
000001d0: 4f55 b13c b9f8 efbc 8054 573b 257e 16bd
000001e0: 77a2 aa3c 58e2 003d 336d 2cbb 5872 173d
000001f0: e509 24bc 0348 f3bc ec8a d5bc 4093 c8bb
00000200: dc2c a0bc 06be bebc c10e 28bd 57af 3abd
00000210: 6152 073b 0d4a c53c 309c 3fbd 6b02 033c
00000220: bed8 fc3c daca a53c 11bc f7bc 2a3d a0bc
00000230: af48 e0bc b262 48bd e1fd 38bd 3e8c 3ebd
00000240: 67ba d0bc e9ea 3cbd 0a82 49bd bf3d 553c
00000250: 080e f6bb 9408 543c 480f 613d 01b6 4f3c
00000260: 355a 293c f9d7 8bbc c73b ef3c d69c 4dbd
00000270: b02c 4bbc 1a40 7a3a b9bb 57bc faca 1c3d
00000280: 9e0a 55bc 405f c2bc 75c4 42bc b04f fd3c
00000290: c0c8 43bd c2f5 52bb 4eb0 573c eee8 ca3c
000002a0: 1a64 0b3d 1208 f6bc 035d 9b3c 780c 28bd
000002b0: a149 fb3b d530 8c3c 92cb 1fbc a43e 6dbc
000002c0: e49e 363c 8f5b 553c 511b 1bbd c49c 53bb
000002d0: 02b7 b4bc 3992 abbc 6a2c 26bc 2c0e 10bd
000002e0: 89fd 803c 00ab dbbc 21b7 12bd 958f 7bbd
000002f0: 53b5 69bc bafe 63bd 42ce 05bd a709 893c
00000300: 392d 0d3d e7cc b4bc f873 903b 265c c23c
00000310: 9339 10bd a8e0 04bd 825d 45bc 9c81 773b
00000320: 5eab f3bb 5a56 1d3d b96c 12bd 0701 163c
00000330: d301 adbc 876e 1cbd 2c2a aabc bd28 2e3c
00000340: b421 fcbc 9ede c1bb 7d70 19bd 4f34 953c
00000350: b60f 32bc c27d 343b a630 6bbc 160b f0bc
00000360: 7eba 2cba 1449 06bd 7ae3 e93c 9cdf f53c
00000370: 2539 14bd e7d9 ac3c d41b f83c dfc3 383c
00000380: e5a6 a23b 5de5 1d3c 0f53 883d 395d ae3b
00000390: fb38 27bd 3115 c4bc f26f 1cbd 55e0 28bd
000003a0: 867d 08bd 8ab7 8abc f519 1c3b f293 bcbc
000003b0: 579f fb3c 5b0c ec3c 54ae fa3c ba66 fbbc
000003c0: 125c 843c 1d02 973c 5caf 45bb a3d8 123d
000003d0: 47c8 e43c 03be aabc dfd3 323c 216c 6d3c
000003e0: 5599 15bd 6417 033c a577 e8bc 7a88 0a3d
000003f0: f276 963b b388 58bc 8842 19bd 0c64 27bd
-0.01727052 0.013575949 0.014386084 -0.0130228745 -0.03579799 0.034991577 0.008322258 0.006758491
0.042686425 -0.023792647 0.06276402 0.031688992 0.030735858 0.036827106 0.03028248 -0.039253823
-0.029044673 -0.0036627143 -0.009032398 -0.04301201 -0.024766024 0.00940355 0.01824196 -0.008870725
0.03520711 -0.05816664 -0.016618049 -0.038836822 -0.038545687 -0.009785762 -0.022175964 -0.01067975
-0.014008124 0.034289997 -0.026181165 0.019759558 -0.0171846 0.019859657 -0.060396213 -0.04147048
0.030427177 -0.048034444 -0.027380094 -0.035147734 0.016321372 -0.01920964 -0.046143737 0.015502563
0.01747743 -0.0002972427 -0.0386924 -0.03275506 0.028895592 -0.010869284 -0.014971678 0.026372744
0.0008312426 -0.036359414 -0.01371357 -0.0064739683 0.022675548 -0.027154848 -0.034935314 0.015756723
0.02112798 0.003857255 -0.038947795 -0.019405806 0.011890676 -0.028584514 -0.04119329 0.011024501
-0.0015509388 -0.0063339933 -0.02948725 -0.05186811 -0.014793295 0.0147098135 0.0061826613 0.028601235
-0.04063646 0.0063882056 -0.033290215 -0.050131124 -0.010891169 0.01328026 -0.015565695 -0.023964696
0.006249551 -0.016738653 -0.022657868 -0.006484625 -0.024503555 0.028682223 -0.043464255 -0.026348537
-0.054737467 -0.042343207 0.011322477 0.022765381 0.0026698979 -0.04437749 0.0056026583 0.013608172
-0.012669457 -0.026341781 0.033556134 -0.026957909 0.005899945 0.022521406 -0.045130573 -0.013726662
0.027035912 -0.021355804 -0.009015066 -0.005011335 0.021647124 -0.029293405 0.0032856762 -0.036741395
0.020829422 0.03146586 -0.0026310205 0.03697428 -0.010012125 -0.029697424 -0.02606722 -0.006121069
-0.01955264 -0.02328397 -0.041029695 -0.045577373 0.0020648467 0.024083162 -0.04677981 0.007996182
0.03086507 0.020238329 -0.030241044 -0.019560415 -0.027378408 -0.04892225 -0.045163993 -0.046520464
-0.025479509 -0.046122465 -0.04919628 0.01301521 -0.007508997 0.012941498 0.054946214 0.01267767
0.010336448 -0.017070757 0.029203309 -0.0501984 -0.012400791 0.0009546295 -0.013167315 0.03827951
-0.01300302 -0.02372706 -0.011887659 0.030921787 -0.047798872 -0.003218994 0.013164593 0.024769273
0.03403101 -0.030033145 0.01896525 -0.041027516 0.0076686894 0.017113129 -0.009753125 -0.014480267
0.011146281 0.013022318 -0.037867848 -0.0032289485 -0.022059921 -0.020943748 -0.010142425 -0.035169765
0.015745895 -0.026814938 -0.035819177 -0.061416227 -0.0142644225 -0.055662848 -0.032667406 0.016728235
0.034466956 -0.022070361 0.004408356 0.02372558 -0.035211157 -0.03244081 -0.01204622 0.0037766462
-0.0074362 0.03841243 -0.035748217 0.009155518 -0.021119034 -0.038191345 -0.020772062 0.01062983
-0.03077779 -0.0059164306 -0.037460793 0.01821342 -0.010868004 0.0027540778 -0.01435486 -0.029302161
-0.0006589069 -0.032784536 0.028550852 0.030013852 -0.03618731 0.021099998 0.030286707 0.011277168
0.004963743 0.009637204 0.06656467 0.0053211716 -0.040825825 -0.023935886 -0.038192697 -0.041229565
-0.033322833 -0.016933221 0.0023819183 -0.023019765 0.030715628 0.028814485 0.030600704 -0.030688632
0.016157184 0.018433625 -0.0030164337 0.035851132 0.02792753 -0.020842558 0.010914772 0.014491112
-0.036523182 0.008001182 -0.028377363 0.03382156 0.004591816 -0.013216185 -0.037416965 -0.040866897

layer3.weight f4 [57, 256]
00000000: 6413 e03c 3c65 a0bb d055 55bd fe21 57b9
00000010: daea 9ebc 6df9 413d 12fb 72bd 1158 2d3d
00000020: 4904 99bc d343 473d fdd9 64be ffd7 3a3d
00000030: c704 273d efc0 c8bc 7ac2 65bd 581b 55bc
00000040: 9f19 2abb f8a5 2ebc c2ef 923c c340 3fbd
00000050: 7bbb 5e3d 6801 88bc 24c8 773d 4dd7 d2bc
00000060: 6a32 fb3b 6afa a53b f0b1 2dbd ce0f 2ebd
00000070: 6b59 0bbd 380d 1abd 2dd0 b5bc 4fd0 d7bc
00000080: 2fc0 81ba d9b1 d4ba 05c3 81bb 3d6d 20bd
00000090: d18d 6bbc 437a 7bbd c38f 323d 5cd3 92ba
000000a0: 8040 243d 7fc5 1b3d 9d6d e83c 7db0 843d
000000b0: d7b3 8abb f479 c3bb 4c51 46bd 076a b3bc
000000c0: fea0 2cbd 6c43 6dbd f248 60bd 1f0f 5abd
000000d0: 9c62 a5bc 41c9 e4bc 39cb 99bc c478 82bd
000000e0: 99a8 8abc 82a0 50bd 204f ef3c 0a35 623d
000000f0: b59c fa3c 16a5 743d dad8 37bd fae5 2cbd
00000100: c8cc de3b 7e10 b93c c642 b3bc 122a e73c
00000110: c014 273d 26df 66bd feb0 5dbc db75 1c3d
00000120: 9766 e33c 3f03 623d 11b4 6abc 961c f43c
00000130: 6192 4a3d 7faf 393d e99e 8a3c f863 26bd
00000140: f02b 09bc 9f7f b3bc 4f14 60bd c161 b23c
00000150: bfd4 a23c 0a31 20bd 2735 f0bc d013 4dbd
00000160: 53e6 cf3b a63b cc39 18ad 79bd d227 db3b
00000170: 39c6 ac3c 33c2 d63c ad9f 3ebd 8812 2c3d
00000180: 218a 6d3c 91de 2a3d c731 25bd 7069 103b
00000190: c840 043c abb7 3bbd 7724 1bbd 1f8b 01bc
000001a0: 3203 c2bc 1708 bf3b 80d3 2abd 314e a4bc
000001b0: e5df 44bc b7c8 75bc 096e 3ebc b4e6 b23c
000001c0: 3bef 77bd ff3d 12bd bc50 4dbd 3592 30bd
000001d0: 0211 c03c e51e 823c faa4 c63c 9f99 033d
000001e0: 54b5 853c 5048 6a3d d168 243d be21 223b
000001f0: 64a7 0dbd d9cb 02bd d847 e6bc e3af d6bc
00000200: 2958 08bd dcd4 783d 55d1 563b 716d f1bc
00000210: d4cf 0bbd 5f19 643d f6aa 0a3d a8a2 a83c
00000220: 2362 163d 0aa3 da3c cfe0 09bd e78d 203d
00000230: cc08 5abd 30d5 65bc 198b 2f3d df7f dcbc
00000240: b19c ee3c bb4e 4f3c 4db9 dabc 3b8e d23c
00000250: b544 f53c 0199 3fbd 46b5 383e 9dcb 103d
00000260: 77af 13bd 3734 e6bc 1b5f 023d 0d11 19bd
00000270: d3f3 2abd 5c51 a8bb 842c 703d 8dda 133d
00000280: f236 5abd 1b83 69bd c1a9 b039 be7b 11bd
00000290: 0ab5 3cbb ffb3 ebbc ab79 4a3d c4b0 0e3d
000002a0: 8594 efbb 2646 a23c 38dc 6fbd 3e2d afbc
000002b0: 58cf 623d ee8f a8bb 3255 0abd 36c0 053d
000002c0: b866 543d 7252 fb3b 427b 05bd 6ff9 fa3c
000002d0: 793c 3ebd cefc 2e3c 6448 db3c 23c5 de3c
000002e0: 176a 653d c324 34bd 7308 04bd e12b 77bd
000002f0: f55a f0bc 2ce0 863d b958 4cbd 91f3 e0ba
00000300: 6640 0b3d 318f 60bd d653 9fbc b74c 2fbc
00000310: c638 22bd 2921 7abd b21a 023c be3b a53c
00000320: c67a 92bc 1c94 e23c 7d90 39bb 180a c53c
00000330: 0b64 18bd 164c 343d 2655 303d 34cf 7cbd
00000340: 6048 093e 2e1d 90bc 2f39 94bc 3a2b 443d
00000350: 65d5 ccbb a4e3 4e3b 751e f9bc 312f 66bd
00000360: 2958 dabb be74 983c c737 193d b090 f03c
00000370: c18f 5ebd bdb3 babc 0d33 4ebc 4abd 80be
00000380: 7c9c 533c 06a4 47bd 410f 473e ac32 4cbd
00000390: ec67 54bd c83b 063d 5be9 c93c de80 4c3b
000003a0: 0f07 483d 65c7 4abd daf3 09bd 7f76 85bb
000003b0: 155b 633d 24a9 66bd 6a88 24bd 5dc6 a93b
000003c0: 5d07 333d 7ca4 993b a2c6 0abd 54d1 543d
000003d0: 18b7 4b3c d2bf 1fbd 6b79 263d e8cc a63d
000003e0: b545 8f3c 8a99 8e3b 16dc 90bb fb13 db3c
000003f0: d0c3 723d ed30 17bd 9374 a6bc a695 59bc
0.027352996 -0.0048948806 -0.05208379 -0.00020516661 -0.019399095 0.04735701 -0.05932147 0.042320315
-0.018678801 0.048648667 -0.22348781 0.045616146 0.04077604 -0.02450606 -0.05609367 -0.013007008
-0.0025955213 -0.010659687 0.017936591 -0.04669262 0.054378014 -0.016602233 0.060493603 -0.025737429
0.007665922 0.005065252 -0.042406023 -0.04249554 -0.034020822 -0.037610263 -0.022193993 -0.026344446
-0.0009899194 -0.0016227319 -0.0039600157 -0.039166678 -0.014377073 -0.061395895 0.043594133 -0.0011201906
0.040100574 0.038030144 0.02837258 0.06478975 -0.0042328644 -0.0059654657 -0.048417374 -0.021901144
-0.04214572 -0.057925627 -0.054757066 -0.053237077 -0.020188622 -0.027927997 -0.018773662 -0.063706905
-0.016926097 -0.050934322 0.029212534 0.055226363 0.030592302 0.05972775 -0.04488454 -0.04221151
0.006799314 0.022590872 -0.021882426 0.028218303 0.040791273 -0.056365155 -0.013530968 0.038198333
0.02775888 0.055178877 -0.014325158 0.029798787 0.049456004 0.04533338 0.016921477 -0.04062268
-0.008372292 -0.02191144 -0.054706868 0.021775128 0.019876836 -0.039109267 -0.02932222 -0.050067723
0.0063445955 0.00038954354 -0.06095609 0.0066880966 0.021090614 0.026215648 -0.046538997 0.04200986
0.0144982645 0.041716162 -0.040330674 0.0022035502 0.008072086 -0.045829456 -0.037876572 -0.007906704
-0.023683164 0.005829822 -0.04170561 -0.020056816 -0.012016271 -0.015001467 -0.011622914 0.021838523
-0.060530882 -0.035703655 -0.050125822 -0.043108184 0.02344561 0.015883872 0.024248589 0.032128926
0.016321816 0.05719787 0.040139023 0.002473935 -0.034583464 -0.031932686 -0.02811043 -0.026206916
-0.0332872 0.060749874 0.003277858 -0.029471131 -0.034133747 0.05568826 0.033854447 0.020585373
0.036714684 0.026689071 -0.03366166 0.03919783 -0.053231046 -0.014027879 0.042857263 -0.026916442
0.02912745 0.012653048 -0.026699686 0.025702586 0.029939989 -0.046776775 0.180379 0.03535043
-0.03605601 -0.02810107 0.03182898 -0.037369777 -0.041736435 -0.005136652 0.058636203 0.0360971
-0.053275056 -0.057009798 0.00033695812 -0.0355184 -0.002879443 -0.028772352 0.049432438 0.034836546
-0.007311406 0.01980884 -0.058559626 -0.021383878 0.05537352 -0.005144111 -0.033772655 0.03265401
0.051855773 0.0076697404 -0.03258825 0.030636517 -0.04644439 0.0106803905 0.026767917 0.027193611
0.05600938 -0.04398037 -0.03223462 -0.06034458 -0.029340247 0.06585726 -0.0498893 -0.0017162432
0.033996962 -0.054824058 -0.019449156 -0.010699443 -0.039604925 -0.06106678 0.007940935 0.020170089
-0.017880809 0.027658515 -0.0028314881 0.024052665 -0.037204783 0.044017874 0.043049954 -0.06172104
0.13406515 -0.017592039 -0.018093674 0.047892787 -0.0062510245 0.003156879 -0.03041003 -0.05619735
-0.0066633415 0.018610355 0.03740671 0.029365867 -0.054336313 -0.022790784 -0.012585414 -0.25144416
0.012915727 -0.04874041 0.19439413 -0.049853012 -0.05185692 0.032771856 0.024647405 0.003120474
0.048834857 -0.049506564 -0.03367982 -0.0040729637 0.055506784 -0.05631365 -0.040169157 0.0051811174
0.043708194 0.0046887975 -0.033880837 0.051957443 0.01243379 -0.039001293 0.040643137 0.081445515
0.017489294 0.0043517994 -0.0044207675 0.026742926 0.059268773 -0.036911894 -0.020319259 -0.013280308

layer3.bias f4 [57]
00000000: 3ced 56bc 5e4b 15bd 3a2d 8c3c fd8e 8a3d
00000010: 7a0f 923d b047 943c 7932 073d 35bc b23d
00000020: 5908 5a3d 5ec8 423d d61c 813d 9401 953d
00000030: ccd2 08b9 041d 363d 94fb fe3c fe9d 63bd
00000040: 36d0 73bd 149c 773d 82aa 62bd 3797 903b
00000050: 0d8a 523d 7a54 e6bc 50b4 af3c 52fa d83b
00000060: 9411 7f3c f93a a93c beac 873b aa0b e03b
00000070: 935f d3bc c314 2ebd a5bb 403d a419 b6bb
00000080: aa93 103d a776 89bd 2f24 13bd e032 0c3d
00000090: cb11 193d 1e5b 213d 7453 913c 0794 1c3c
000000a0: c433 87bd 6497 88bc 46c2 adbc e2e3 81bd
000000b0: 63ec f93c 5322 74bc 7151 fd3c bfb4 afbd
000000c0: 01db ad3c 8d17 063d dfeb 6ebb 1395 63bd
000000d0: fc1b d33c 16d4 003d 5bbe d5bd 3859 36bd
000000e0: 107d 073e
-0.0131180845 -0.03644883 0.01711141 0.06765554 0.07131858 0.01810059 0.03300712 0.08727304
0.053230617 0.047554366 0.06304328 0.07275692 -0.00013048499 0.044461265 0.031125821 -0.055570595
-0.059524737 0.060451582 -0.05533839 0.0044125575 0.051401187 -0.028116453 0.021448284 0.0066216374
0.015568156 0.020658003 0.0041404655 0.006837328 -0.02580241 -0.04250027 0.04705395 -0.005557256
0.035297073 -0.06712084 -0.03592318 0.034228206 0.037370484 0.039393537 0.017739989 0.009556777
-0.066016704 -0.016673751 -0.0212108 -0.06342293 0.030508226 -0.014900762 0.030922623 -0.085793965
0.021222593 0.032737304 -0.0036456508 -0.05556209 0.02577018 0.03145226 -0.10436698 -0.04451868
0.13231301
