results/models/dqn/best_model_ep4_2024-11-20_23-50-43.pt (torch, 613462 bytes, 6 tensors)

layer1.weight f4 [512, 12]
0.22423887 0.23991233 -0.07128256 0.2641435 -0.059602145 0.06190113 -0.14413059 0.16868328
0.25735548 -0.21531098 0.25400123 0.057210796 0.21396932 0.03916216 0.13835965 -0.04162372
0.22385299 0.043402255 -0.13539563 0.072770685 -0.13430642 -0.034558587 -0.116427615 0.19037047
-0.22373238 -0.1289503 -0.08468707 -0.17224362 0.03055521 -0.28289306 0.26256177 -0.24387872
0.2262028 0.021992907 -0.090979315 0.18092237 0.04791514 0.23326115 0.029356029 -0.09127511
0.07934007 -0.07606803 0.11922673 0.25744778 0.1662485 -0.12826392 0.16687998 0.051443588
0.14497793 -0.17690821 -0.28405353 -0.11252374 -0.22167581 0.23521146 0.084546864 0.11867792
0.09114358 -0.0035521644 0.22487779 -0.20567447 0.019054657 -0.19618444 0.08927054 -0.09757622
0.0891298 -0.057952594 0.23976624 -0.16883737 -0.17110887 -0.16446151 0.26060587 0.097298674
0.27697152 -0.23709795 -0.2847364 -0.22775471 -0.19400926 0.115478806 0.10463404 0.23784032
-0.14860229 -0.19528495 0.15257853 -0.11688024 0.17068273 -0.07286242 0.16064402 -0.22847767
-0.14985251 0.08324304 0.05725613 -0.07802829 0.167648 0.19310036 -0.21352506 -0.15834713
0.26682642 -0.094025575 -0.10365081 -0.27806118 -0.16255227 0.07298461 -0.03587892 -0.20862968
0.009558866 -0.21429051 -0.24269934 -0.15682976 -0.24659368 -0.17782894 0.29314157 0.058940522
0.09427095 -0.26446986 -0.18404335 -0.091599375 0.05043657 -0.2560045 -0.1193609 -0.16775028
0.00075340184 -0.10774136 -0.02213418 -0.19625697 -0.19850825 -0.1692169 -0.09952829 -0.22858977
0.24154119 -0.06047896 0.24753685 0.08922796 -0.24690577 0.1968054 -0.07534672 -0.1110389
-0.24182358 -0.2884925 0.080946036 -0.0636126 0.1097693 -0.21570368 0.21219188 -0.21369651
-0.046568606 0.06300404 0.15045029 0.23573962 0.26519546 -0.22519651 0.07532142 -0.12106442
-0.029076973 -0.21228506 0.2654242 -0.20898998 0.15452708 0.10251307 0.08987358 -0.1573529
0.2623271 0.06279732 0.036139064 -0.25570711 0.12134844 -0.05672895 -0.13253409 0.24734642
0.0666704 -0.15742236 -0.1431676 -0.00999212 0.16348916 -0.06978971 -0.16273028 -0.09476979
-0.2128498 0.115091495 0.22623682 -0.2686057 0.06625339 0.148328 0.052921988 -0.10217832
0.15065423 0.15109907 0.10839862 -0.05019449 -0.074334 0.031429272 -0.04935456 -0.08386424
0.18416438 0.24802233 -0.027356885 -0.065997414 0.0037375286 -0.018417811 0.07053856 0.07965189
-0.26248962 -0.10524926 0.24189088 0.11138768 -0.01376761 -0.17146698 -0.17646174 -0.26180854
-0.09393625 0.09740148 0.18391684 0.12993604 -0.25548992 -0.17344713 -0.046035413 0.2783916
0.036484316 -0.07978603 0.11950511 -0.11356578 -0.19102977 0.20574935 -0.13358492 -0.061438497
-0.29148436 0.19808303 0.21421477 0.10082104 -0.20122515 -0.28500968 -0.23551577 0.2172563
0.14058663 0.24396129 0.14985673 0.07462921 0.000117381715 -0.22060977 -0.24421486 -0.26674545
0.11835047 -0.14117368 -0.051509753 -0.16237527 -0.051470816 -0.20074874 -0.18580642 0.09935158
-0.08471091 0.20184077 -0.09059439 -0.20965575 -0.054832313 -0.1431276 -0.100498416 -0.27935454
00000000: e09e 653e 94ab 753e 97fc 91bd d13d 873e
00000010: 6121 74bd 0a8c 7d3d f896 13be 4fbb 2c3e
00000020: 19c4 833e 7b7a 5cbe 730c 823e de55 6a3d
00000030: c61a 5b3e 8068 203d 27ae 0d3e a27d 2abd
00000040: b839 653e 90c6 313d 27a5 0abe cc08 953d
00000050: 9f87 09be 4e8d 0dbd 9a71 eebd 7af0 423e
00000060: 1a1a 65be 8c0b 04be 6a70 adbd a260 30be
00000070: eb4e fa3c 5cd7 90be 7f6e 863e 58bb 79be
00000080: b5a1 673e 782a b43c 5d53 babd b743 393e
00000090: aa42 443d 03dc 6e3e 0e7c f03c 72ee babd
000000a0: 0c7d a23d 8ec9 9bbd 252d f43d 32d0 833e
000000b0: 0c3d 2a3e 9e57 03be 96e2 2a3e 83b6 523d
000000c0: 1875 143e 6d27 35be 776f 91be d972 e6bd
000000d0: fcfe 62be 46db 703e e826 ad3d 690d f33d
000000e0: 7ca9 ba3d 6ecb 68bb 5d46 663e 549c 52be
000000f0: 8318 9c3c 93e4 48be 79d3 b63d 0bd6 c7bd
00000100: af89 b63d b35f 6dbd 4885 753e b4e3 2cbe
00000110: 2a37 2fbe 9968 28be 226e 853e 8744 c73d
00000120: 36cf 8d3e cec9 72be f8c8 91be 8838 69be
00000130: 5daa 46be 2780 ec3d 5f4a d63d 6a8c 733e
00000140: 332b 18be c7f8 47be 8c3d 1c3e e85e efbd
00000150: 74c7 2e3e e438 95bd de7f 243e 0df6 69be
00000160: f072 19be 547b aa3d 6785 6a3d 4ccd 9fbd
00000170: ebab 2b3e 1abc 453e 50a6 5abe c025 22be
00000180: 799d 883e 7b90 c0bd e046 d4bd 095e 8ebe
00000190: 1a74 26be f578 953d c6f5 12bd 05a3 55be
000001a0: ca9c 1c3c f96e 5bbe 2d86 78be fb97 20be
000001b0: 0e83 7cbe ca18 36be a716 963e 9e6b 713d
000001c0: 2111 c13d 9868 87be dc75 3cbe 7498 bbbd
000001d0: 9496 4e3d 0613 83be 7d73 f4bd bbc6 2bbe
000001e0: f17f 453a 81a7 dcbd bd52 b5bc 96f7 48be
000001f0: bf45 4bbe 3247 2dbe 7dd5 cbbd 7013 6abe
00000200: 9356 773e c9b8 77bd 4d7a 7d3e 26bd b63d
00000210: ded4 7cbe 5b87 493e 624f 9abd 5d68 e3bd
00000220: 9aa0 77be 4ab5 93be 09c7 a53d 5347 82bd
00000230: bace e03d 6de1 5cbe d448 593e 42d3 5abe
00000240: b9be 3ebd 4308 813d a40f 1a3e ba65 713e
00000250: b3c7 873e ea99 66be 1e42 9a3d 9ff0 f7bd
00000260: d532 eebc 4161 59be aee5 873e 7801 56be
00000270: 593c 1e3e 5ff2 d13d a40f b83d 1e21 21be
00000280: bd4f 863e e29b 803d 8e06 143d 0bec 82be
00000290: 8885 f83d 9e5c 68bd 04b7 07be 6148 7d3e
000002a0: 7e8a 883d 5433 21be 879a 12be fdb5 23bc
000002b0: b469 273e e8ed 8ebd c4a2 26be aa16 c2bd
000002c0: 4cf5 59be 17b5 eb3d a0aa 673e b086 89be
000002d0: dbaf 873d 4ce3 173e bac4 583d de42 d1bd
000002e0: 1a45 1a3e b7b9 1a3e 1800 de3d bd98 4dbd
000002f0: 6d3c 98bd fbbb 003d 0228 4abd 04c1 abbd
00000300: 9695 3c3e 91f9 7d3e 8c1b e0bc a729 87bd
00000310: 53f1 743b f3e0 96bc 8576 903d 8820 a33d
00000320: 0a65 86be ed8c d7bd 3eb2 773e 391f e43d
00000330: 8b91 61bc 0a95 2fbe 63b2 34be c50b 86be
00000340: a661 c0bd 6d7a c73d b254 3c3e f40d 053e
00000350: 93cf 82be 209c 31be a18f 3cbd 5889 8e3e
00000360: 9470 153d dc66 a3bd 18bf f43d 2d95 e8bd
00000370: 4f9d 43be f5af 523e 7cca 08be efa6 7bbd
00000380: 703d 95be 47d6 4a3e 1e5b 5b3e 437b ce3d
00000390: f70d 4ebe caec 91be 0c2b 71be 6f78 5e3e
000003a0: f1f5 0f3e fdd0 793e 0b74 193e 33d7 983d
000003b0: d42a f638 87e7 61be 7613 7abe dc92 88be
000003c0: bb61 f23d d58f 10be e4fb 52bd b445 26be
000003d0: 10d3 52bd 1491 4dbe 0a44 3ebe d778 cb3d
000003e0: ea7c adbd 59af 4e3e 8d89 b9bd ffaf 56be
000003f0: d997 60bd 0b90 12be 1dd2 cdbd 8f07 8fbe

layer1.bias f4 [512]
-0.22456937 0.054721057 -0.05997343 0.22036807 -0.28812084 0.008516855 0.12583628 0.041803405
-0.08054262 0.26558056 -0.22325195 0.27064228 0.075801045 0.13778634 0.20045537 0.02812162
0.029387431 -0.05849196 -0.25735772 0.12275458 0.21378945 0.124488905 -0.04684785 -0.26220804
-0.007631903 0.073541075 -0.22792664 0.24392147 -0.012049014 0.0769362 0.251823 0.130258
-0.16066629 0.11030815 0.17090558 0.14313312 -0.13746293 0.024962543 -0.20937136 -0.032206763
-0.1986803 0.17351253 0.28103343 -0.281332 -0.13476361 -0.12373913 -0.20393635 0.25883707
-0.22068642 -0.15213755 -0.2433051 0.0011539813 -0.2151579 -0.19704603 0.28605583 0.12839493
0.12433059 0.20371094 0.04913974 0.04597331 -0.21505274 0.08103174 -0.22659256 -0.0032969227
-0.15672955 -0.16014916 -0.16265021 -0.1426472 -0.16858284 -0.15766145 -0.107207134 -0.26631793
0.23087506 0.09943751 -0.28744352 -0.29074058 -0.14128916 0.121185385 0.25856882 -0.046057913
0.1729223 -0.15556979 -0.061995104 -0.044964503 -0.28080922 0.00027386707 0.078226395 0.17080086
-0.22795747 -0.0845551 0.013853341 0.030596683 0.044324674 -0.2161102 0.22683826 -0.26036572
-0.102492474 0.14619537 -0.07422415 -0.14181241 -0.27852064 0.19605261 -0.006476562 0.13968673
0.056572158 -0.21619697 -0.103359446 0.20216966 -0.13269377 -0.13289906 0.16564198 -0.124336526
0.04185508 -0.14378276 0.08758245 0.028442113 -0.23109266 -0.21872169 0.10379539 -0.09446117
0.1575303 0.01891649 -0.09863995 -0.05294636 -0.13160735 0.14228557 0.22916472 -0.008060171
-0.18572973 0.2092729 0.23775448 0.19218922 -0.007717088 0.06861745 0.012590389 -0.10854226
-0.28644758 -0.032149862 0.1200706 0.17008814 0.06751584 0.13079032 0.18055306 -0.05673688
0.19085331 -0.0064990944 -0.1027398 -0.1140267 -0.169975 -0.22203413 0.06508589 0.28138328
0.04237512 0.03898237 -0.10769117 -0.11370378 -0.08851237 0.10056999 0.049685195 -0.1058702
0.058298174 -0.042230684 -0.02303686 0.203412 -0.12094235 0.26421288 -0.15798101 0.2649849
0.11087579 0.11405075 -0.065917216 -0.08025424 -0.21098636 -0.2766153 0.19627997 0.2792988
0.08374338 -0.1128253 0.06462021 -0.009048468 -0.25114554 -0.21565822 0.09710765 -0.08564418
-0.06638357 -0.17653115 0.12610862 -0.14959247 -0.091046125 0.15444349 0.27535883 0.25334418
0.11397082 0.012577483 0.21822292 0.254656 0.12980698 0.08848948 0.0692798 0.025611028
0.18823878 0.08204095 -0.2409279 -0.17250258 -0.26479262 -0.08668563 0.017848257 -0.11958233
-0.2631455 -0.18857488 0.124835104 -0.020318225 -0.049572486 0.046697583 -0.059675373 -0.15269715
-0.1291638 -0.11994724 -0.27194455 -0.26394477 -0.114789575 0.108475156 0.27884045 -0.010723593
0.19697869 0.09607414 -0.22972055 -0.1411765 -0.081294134 -0.2360561 0.03823528 0.06715559
-0.22696638 -0.058290116 -0.2560873 0.28643242 0.16736378 -0.10880409 0.24717371 -0.18174964
0.2401137 -0.10911203 0.08545954 0.2021605 0.13456771 0.070953116 -0.035332967 0.0021493067
0.2462815 -0.09668508 -0.09245275 0.038149916 -0.13994554 -0.10910198 0.022122731 0.21825671
00000000: 83f5 65be 3023 603d b3a6 75bd 2ba8 613e
00000010: 9384 93be 478a 0b3c 3adb 003e 0c3a 2b3d
00000020: 87f3 a4bd 2dfa 873e 299c 64be a091 8a3e
00000030: 943d 9b3d dd17 0d3e 2c44 4d3e 505f e63c
00000040: e9bd f03c 4495 6fbd 64c4 83be c166 fb3d
00000050: 9feb 5a3e 0af4 fe3d 88e3 3fbd 2240 86be
00000060: 0b15 fabb b49c 963d 9a65 69be 8dc6 793e
00000070: 3a69 45bc ba90 9d3d f2ee 803e 5a62 053e
00000080: b485 24be 3de9 e13d df01 2f3e 7d91 123e
00000090: 15c3 0cbe 3f7e cc3c 7265 56be 3deb 03bd
000000a0: d972 4bbe 45ad 313e 9de3 8f3e bf0a 90be
000000b0: 79ff 09be f16a fdbd b1d4 50be 4b86 843e
000000c0: 9ffb 61be f2c9 1bbe f924 79be 3041 973a
000000d0: 5a52 5cbe 6fc6 49be e975 923e f679 033e
000000e0: 09a1 fe3d 9a99 503e c146 493d 824e 3c3d
000000f0: c936 5cbe f8f3 a53d e107 68be 2f11 58bb
00000100: b67d 20be 24fe 23be c78d 26be 1c12 12be
00000110: fba0 2cbe 0172 21be 6a8f dbbd d35a 88be
00000120: 836a 6c3e e5a5 cb3d cc2b 93be f3db 94be
00000130: 1bae 10be 0b30 f83d 2263 843e 39a7 3cbd
00000140: 8b12 313e b04d 1fbe 94ee 7dbd b32c 38bd
00000150: 3ac6 8fbe d195 8f39 2935 a03d 6ce6 2e3e
00000160: af6d 69be 392b adbd 20f9 623c e5a5 fa3c
00000170: ca8d 353d fe4b 5dbe 4a48 683e a84e 85be
00000180: 93e7 d1bd 3db4 153e d502 98bd 4637 11be
00000190: 429a 8ebe 04c2 483e 5739 d4bb 0a0a 0f3e
000001a0: 35b8 673d bd62 5dbe 1eae d3bd 9005 4f3e
000001b0: e0e0 07be b116 08be 0d9e 293e 26a4 febd
000001c0: 3b70 2b3d ca3b 13be 6d5e b33d 6fff e83c
000001d0: 8ea3 6cbe 94f8 5fbe ad92 d43d dc74 c1bd
000001e0: 9f4f 213e c1f6 9a3c be03 cabd 48de 58bd
000001f0: 14c4 06be 4fb3 113e 28aa 6a3e cf0e 04bc
00000200: ef2f 3ebe a34b 563e e975 733e 40cd 443e
00000210: a0df fcbb 4e87 8c3d eb47 4e3c 684b debd
00000220: 42a9 92be 93af 03bd 93e7 f53d 962b 2e3e
00000230: bf45 8a3d e6ed 053e e7e2 383e ee64 68bd
00000240: 0d6f 433e 5bf6 d4bb 3f69 d2bd d586 e9bd
00000250: ed0d 2ebe ea5c 63be c04b 853d 7811 903e
00000260: 8991 2d3d faab 1f3d 308d dcbd 87dd e8bd
00000270: f945 b5bd a4f7 cd3d b482 4b3d 7ad2 d8bd
00000280: 11ca 6e3d 15fa 2cbd ccb7 bcbc 3c4b 503e
00000290: 9fb0 f7bd e946 873e c6c5 21be 1aac 873e
000002a0: d912 e33d 7193 e93d 9bff 86bd 565c a4bd
000002b0: cf0c 58be 85a0 8dbe 9efd 483e 4100 8f3e
000002c0: a681 ab3d f310 e7bd 9a57 843d 0740 14bc
000002d0: 2696 80be 82d5 5cbe 60e0 c63d 3766 afbd
000002e0: 1cf4 87bd 95c4 34be 9e22 013e c52e 19be
000002f0: 6476 babd 6f26 1e3e d5fb 8c3e 54b6 813e
00000300: 8969 e93d ca11 4e3c d475 5f3e 4562 823e
00000310: 1fec 043e f939 b53d 91e2 8d3d 38ce d13c
00000320: abc1 403e 1605 a83d ceb5 76be 84a4 30be
00000330: e692 87be 3c88 b1bd 8236 923c 95e7 f4bd
00000340: 02bb 86be c619 41be 8ca9 ff3d 6872 a6bc
00000350: 850c 4bbd f745 3f3d 2a6e 74bd a45c 1cbe
00000360: 8443 04be e6a6 f5bd 513c 8bbe c523 87be
00000370: cc16 ebbd 3928 de3d 2dc4 8e3e 02b2 2fbc
00000380: c8b4 493e 85c2 c43d dd3b 6bbe 9390 10be
00000390: 8a7d a6bd b1b8 71be 999c 1c3d df88 893d
000003a0: e069 68be 9ec1 6ebd e01d 83be 45a7 923e
000003b0: 6961 2b3e aed4 debd 1b1b 7d3e 941c 3abe
000003c0: 5ee0 753e 2176 dfbd 6905 af3d 2a03 4f3e
000003d0: 1ecc 093e de4f 913d 4db9 10bd 62db 0c3b
000003e0: 3831 7c3e d402 c6bd de57 bdbd 1643 1c3d
000003f0: e24d 0fbe dc70 dfbd bb3a b53c b07e 5f3e

layer2.weight f4 [256, 512]
0.038605567 0.021622267 0.025281643 -0.038141757 0.030284325 0.0051020635 -0.042597458 0.041930497
-0.003573715 0.0058072414 0.033882268 0.025772937 0.03645954 -0.043897815 0.041052252 0.010755879
0.0017693916 -0.035484493 -0.025953513 0.042808503 0.030228198 0.033285134 -0.0063182376 -0.027240392
0.0076560793 -0.020620137 -0.02874373 0.011581578 0.031994674 -0.03567835 -0.041626535 0.003665308
-0.018160935 -0.026095904 -0.009550764 -0.0051460383 -0.012215675 0.030068904 0.021700013 0.013888907
-0.015155237 -0.005010227 0.025958031 0.0048575317 -0.04259919 0.0054267133 0.023121832 -0.013948155
-0.008243474 -0.00866162 0.024534509 0.03340401 -0.037202224 0.026979944 0.019159429 0.016377917
-0.02771563 -0.0239782 0.041147646 0.012468827 -0.012554075 -0.008943647 0.028720522 -0.013597842
0.027197989 -0.014185441 0.008266038 0.009024897 -0.021358792 -0.0015515795 0.006252868 -0.04195782
-0.008696837 0.004204216 0.034755018 0.009414503 -0.037533082 -0.013384793 0.041104827 -0.00839086
0.03385356 0.0050663855 0.026102051 -0.021646114 0.043379784 0.006650391 -0.011588155 0.034250658
0.017973587 -0.029681893 -0.003196593 0.031647958 0.008451091 -0.016752673 -0.030467235 -0.0335509
0.025784912 0.017346859 -0.04176866 -0.011717232 0.010278801 -0.03783997 0.03805623 -0.0035313196
-0.019206448 0.0061496454 0.016419226 0.0098122815 0.04093577 0.02485782 -0.006104961 0.008748692
0.008088032 -0.020173144 -0.036604464 -0.007377406 -0.019473735 -0.04441098 0.01323048 -0.018527847
0.03959713 0.015792048 0.018805575 0.010254004 0.014588664 0.02760529 0.033667505 -0.004749351
-0.011514529 0.01109214 -0.019924032 -0.004799233 0.014128878 0.017212758 -0.045496468 0.014544699
-0.020776048 -0.033780977 -0.022587901 -0.0002684925 0.019227834 -0.041815758 0.0119945565 0.037219636
-0.024104498 0.011788086 -0.017751735 0.0108561935 0.016488373 -0.029834066 0.00788466 0.041778035
0.0011947443 -0.031343076 -0.0032391131 0.009737708 0.0142553095 -0.0054100654 -0.0120866215 -0.024608366
0.026060682 -0.02546771 -0.017671902 0.026635982 -0.023422802 -0.008373008 -0.020239547 -0.041815966
0.020063315 -0.022290612 -0.019671407 -0.012334524 0.012098728 0.03877114 0.036585625 0.001391943
-0.037873637 0.0032584846 0.0010203632 0.037293624 -0.011671066 -0.042663503 0.013393465 -0.01230159
0.01581971 0.014516862 0.013133774 0.021782748 -0.032536007 -0.034736175 0.038775083 0.037740707
-0.018316718 0.03876057 0.0061736186 -0.0141276615 -0.02267087 -0.023498967 0.032828126 -0.029762791
-0.02073655 0.04431661 -0.024173008 0.04073049 0.017303014 0.02190668 0.007420601 -0.00733113
0.017004611 0.014377204 -0.023239568 -0.036376905 -0.035622314 -0.005344093 0.012334991 -0.030515263
0.008135399 0.025437145 0.023384571 -0.016500773 0.007509465 -0.0418072 0.029055791 -0.037838705
0.0024508168 -0.016673738 -0.03661291 -0.039220326 -0.028368501 -0.032056317 0.031027436 -0.009407364
-0.03214866 0.00015927483 -0.022604225 -0.0056130444 0.035325933 -0.038970254 -0.040664524 0.012027253
0.028216312 -0.0419544 0.014490901 0.04500439 -0.009612064 -0.024811188 0.018876556 0.02228773
-0.0045842133 -0.038603522 0.0017125328 -0.028595947 -0.03769852 0.025008535 0.031107944 0.015167512
00000000: df20 1e3d 2e21 b13c 731b cf3c 883a 1cbd
00000010: d516 f83c 362f a73b ac7a 2ebd 50bf 2b3d
00000020: fd34 6abb ac4a be3b 22c8 0a3d c421 d33c
00000030: 9956 153d 32ce 33bd 6826 283d 6d39 303c
00000040: eeea e73a 3058 11bd 769c d4bc f857 2f3d
00000050: 20a1 f73c fe55 083d 3809 cfbb 3e27 dfbc
00000060: d9df fa3b 90eb a8bc f977 ebbc a9c0 3d3c
00000070: d90c 033d 7623 12bd 9680 2abd aa35 703b
00000080: 3ec6 94bc 14c7 d5bc cf7a 1cbc 19a0 a8bb
00000090: 4124 48bc 1053 f63c 3ac4 b13c 4c8e 633c
000000a0: ac4d 78bc d52c a4bb f0a5 d43c ee2b 9f3b
000000b0: 7d7c 2ebd 92d2 b13b ff69 bd3c cd86 64bc
000000c0: a30f 07bc 78e9 0dbc 98fc c83c a5d2 083d
000000d0: 5c61 18bd 0b05 dd3c 3cf4 9c3c fb2a 863c
000000e0: e40b e3bc ee6d c4bc 6f8a 283d 0d4a 4c3c
000000f0: 9baf 4dbc 6088 12bc 4d47 eb3c 7cc9 5ebc
00000100: 51ce de3c 0d6a 68bc 476e 073c 29dd 133c
00000110: a2f8 aebc 5e5e cbba dce4 cc3b f7db 2bbd
00000120: 2e7d 0ebc 85c3 893b 475b 0e3d 4a3f 1a3c
00000130: 4abc 19bd e44b 5bbc 895d 283d d179 09bc
00000140: 08aa 0a3d ec03 a63b f8d3 d53c 3153 b1bc
00000150: 00af 313d 86eb d93b 3fdc 3dbc 6b4a 0c3d
00000160: 583d 933c 7127 f3bc ee7d 51bb 4aa1 013d
00000170: 7276 0a3c e73c 89bc 6c96 f9bc ab6c 09bd
00000180: e13a d33c 001b 8e3c 9d15 2bbd a2f9 3fbc
00000190: 6b68 283c 16fe 1abd d9e0 1b3d b66d 67bb
000001a0: d756 9dbc f782 c93b 9d81 863c b1c3 203c
000001b0: 44ac 273d a0a2 cb3c 200c c8bb ad56 0f3c
000001c0: aa83 043c 2642 a5bc 90ee 15bd 2bbe f1bb
000001d0: 6287 9fbc 4ae8 35bd a8c4 583c b6c7 97bc
000001e0: 9a30 223d 535e 813c 260e 9a3c 6900 283c
000001f0: 4b05 6f3c 7d24 e23c f0e6 093d 72a0 9bbb
00000200: 6fa7 3cbc cfbb 353c b937 a3bc e242 9dbb
00000210: cf7c 673c c501 8d3c 815a 3abd e44c 6e3c
00000220: 8832 aabc ec5d 0abd 430a b9bc 74c4 8cb9
00000230: b183 9d3c 0047 2bbd d184 443c 9e73 183d
00000240: cc76 c5bc d122 413c 166c 91bc 2dde 313c
00000250: a012 873c 9266 f4bc a92e 013c 721f 2b3d
00000260: f798 9c3a 9961 00bd 4d47 54bb e88a 1f3c
00000270: 1a8f 693c eb46 b1bb f706 46bc 7c97 c9bc
00000280: 367d d53c a9a1 d0bc aac4 90bc b433 da3c
00000290: 2de1 bfbc f12e 09bc 68cd a5bc 3847 2bbd
000002a0: d25b a43c cd9a b6bc ee25 a1bc be16 4abc
000002b0: be39 463c 7dce 1e3d cfda 153d db71 b63a
000002c0: 6321 1bbd 4d8c 553b b5bd 853a 33c1 183d
000002d0: 0038 3fbc edbf 2ebd 4470 5b3c 9c8c 49bc
000002e0: 5698 813c 22d8 6d3c 0a2f 573c bc71 b23c
000002f0: 7a44 05bd 8547 0ebd 9fd2 1e3d 0096 1a3d
00000300: f10c 96bc 67c3 1e3d 114c ca3b b577 67bc
00000310: 43b8 b9bc e880 c0bc c976 063d 19d1 f3bc
00000320: b3df a9bc 5585 353d 7906 c6bc 04d5 263d
00000330: 0dbf 8d3c a375 b33c 8328 f33b fa39 f0bb
00000340: 414d 8b3c 5d8e 6b3c e860 bebc f3ff 14bd
00000350: b4e8 11bd 801d afbb b418 4a3c 25fb f9bc
00000360: 564a 053c 8f61 d03c 0091 bf3c a12c 87bc
00000370: f511 f63b 073e 2bbd 6906 ee3c c2fc 1abd
00000380: e29d 203b 5d97 88bc 6bf7 15bd 7ea5 20bd
00000390: 0f65 e8bc 7c4d 03bd 402d fe3c 5821 1abc
000003a0: 50ae 03bd 0303 2739 7f2c b9bc a1ed b7bb
000003b0: edb1 103d 469f 1fbd d88f 26bd f50d 453c
000003c0: e525 e73c 60d8 2bbd 3e6b 6d3c 8656 383d
000003d0: eb7b 1dbc d540 cbbc 02a3 9a3c c294 b63c
000003e0: 2b37 96bb ba1e 1ebd 1177 e03a 0c42 eabc
000003f0: c369 1abd b3de cc3c 16d6 fe3c 2881 783c

layer2.bias f4 [256]
-0.015468426 0.021070873 0.024127172 -0.006616556 -0.035525575 0.04147885 0.013180041 0.01848326
0.043589614 -0.019145869 0.01620251 0.041078806 0.03899187 0.041065447 0.037506506 -0.035130206
-0.01502729 0.00010964785 0.005145231 -0.038655408 -0.013308903 0.015630946 0.023083668 0.020317499
0.036702286 -0.03320208 -0.0088514825 -0.034251686 -0.035510484 -0.0032904416 -0.014363749 -0.00870169
-0.015500881 0.04132359 -0.021964643 0.02793947 -0.010989739 0.023844762 -0.03604869 -0.0378989
0.038052354 -0.045644496 -0.01756635 -0.021766799 0.023588 -0.017305586 -0.042564936 0.02029976
0.023778226 0.0010268143 -0.039510556 -0.026649103 0.035330147 -0.010023262 -0.009702946 0.0283098
0.006693148 -0.024076348 -0.009221649 0.0032723676 0.028329594 -0.024857122 -0.028793875 0.029353183
0.03678521 0.00895799 -0.024679292 -0.013779934 0.040367838 -0.023781674 -0.037024807 0.02554037
-0.0015837527 0.00010097995 -0.02486939 -0.043496657 -0.013683646 0.023324706 0.0108629465 0.02920655
-0.036811307 0.009366563 -0.0301939 -0.03752952 -0.005999581 0.019297238 -0.015894458 -0.019208038
0.013786347 -0.0061884616 -0.019885866 -0.0019118935 -0.014544606 0.035174184 -0.028942436 -0.021446967
-0.03971319 -0.043238733 0.031611584 0.029161356 0.009942143 -0.041865986 0.030069254 0.033911236
-0.007828601 -0.02232427 0.036701165 -0.02422851 0.010152993 0.030396966 -0.033801876 -0.0107164
0.03121504 -0.018880844 -0.0032484129 -0.0017704347 0.026178466 -0.025570316 0.009774054 -0.024838658
0.04181021 0.04141886 0.0042369585 0.04288927 -0.008192419 -0.023805391 -0.021616008 0.0006619122
-0.014153301 -0.0052139573 -0.036381695 -0.04121539 0.0021085879 0.031609617 -0.03738851 0.018254923
0.039162777 0.0235255 -0.013516934 -0.0103760315 -0.02419828 -0.04315284 -0.03432746 -0.03810233
-0.015179539 -0.036103386 -0.043588832 0.0172953 -0.0017625066 0.018496694 0.028074715 0.017771157
0.011962999 -0.013528129 0.03861427 -0.042682387 -0.0071680495 0.0068038553 0.003918824 0.033785947
-0.008426806 -0.018011617 -0.0061028767 0.031575147 -0.04405715 -0.0017849071 0.023975935 0.03290022
0.040466417 -0.019683173 0.03548076 -0.039295297 0.020638261 0.03955387 -0.004939493 -0.011423756
0.013139345 0.021515504 -0.03708348 0.0050529926 -0.01590357 -0.0061782375 -0.002110425 -0.016763208
0.0226883 -0.022574047 -0.022760302 -0.03936129 -0.009583218 -0.039405048 -0.026685072 0.021470737
0.039481413 -0.017980406 0.009122019 0.031963665 -0.01724085 -0.0075278752 -0.009745067 0.0064078895
-0.0029676883 0.042304464 -0.033347227 0.017173903 -0.021005034 -0.030141547 -0.0098313 0.015501625
-0.04034936 -0.0010673607 -0.0355406 0.023833282 -0.010252338 0.0061940136 -0.006501561 -0.021122646
0.0041325474 -0.026330598 0.03267233 0.03255862 -0.03104801 0.03949371 0.039508678 -0.030554835
0.017003758 0.0140551105 0.019490741 0.009453098 -0.03387924 -0.0082127405 -0.0324286 -0.038382158
-0.03290899 -0.014622298 0.0073905466 -0.025115326 0.03661141 0.03610103 0.03743477 -0.028016662
0.023301894 0.035599522 0.0007512397 0.04173581 0.03150211 -0.0077041374 0.028392714 0.042917836
-0.031201735 0.017031666 -0.028977845 0.039598707 0.0106770815 -0.007600781 -0.038210485 -0.031549495
00000000: 486f 7dbc d39c ac3c 59a6 c53c b2cf d8bb
00000010: 4483 11bd bae5 293d 19f1 573c 356a 973c
00000020: 068b 323d ccd7 9cbc 20bb 843c 4042 283d
00000030: f0b5 1f3d 3e34 283d 6ca0 193d b1e4 0fbd
00000040: 0635 76bc bef2 e538 5399 a83b 2255 1ebd
00000050: 960d 5abc 780c 803c f619 bd3c e270 a63c
00000060: 2355 163d e7fe 07bd cf05 11bc 7f4b 0cbd
00000070: 7173 11bd 73a4 57bb ee55 6bbc 8891 0ebc
00000080: 68f7 7dbc ed42 293d 32ef b3bc 51e1 e43c
00000090: 4e0e 34bc 1756 c33c cba7 13bd e13b 1bbd
000000a0: c9dc 1b3d b9f5 3abd 4ee7 8fbc 4950 b2bc
000000b0: 9f3b c13c 72c4 8dbc 9258 2ebd af4b a63c
000000c0: 8eca c23c 2c96 863a d2d5 21bd 384f dabc
000000d0: 58b6 103d 9c38 24bc 1bf9 1ebc f4e9 e73c
000000e0: 3252 db3b c33b c5bc 6616 17bc 3875 563b
000000f0: 7713 e83c 2aa1 cbbc 22e1 ebbc 1676 f03c
00000100: 17ac 163d 89c4 123c 3a2c cabc 3bc5 61bc
00000110: bf58 253d c9d1 c2bc 53a7 17bd 0a3a d13c
00000120: ec95 cfba 33c5 d338 e4ba cbbc 8d29 32bd
00000130: 5f31 60bc 7413 bf3c 80fa 313c 9342 ef3c
00000140: 74c7 16bd 3676 193c 3359 f7bc 8eb8 19bd
00000150: 2298 c4bb 3e15 9e3c 1835 82bc 2d5a 9dbc
00000160: 21e0 613c 94c8 cabb afe7 a2bc 8098 faba
00000170: 804c 6ebc ce12 103d b018 edbc 8db1 afbc
00000180: 4caa 22bd 191b 31bd 267b 013d cce3 ee3c
00000190: 5fe4 223c ab7b 2bbd cc53 f63c 82e6 0a3d
000001a0: 8843 00bc 63e1 b6bc f653 163d de7a c6bc
000001b0: bd58 263c 0f03 f93c d673 0abd d793 2fbc
000001c0: afb6 ff3c 00ac 9abc 53e3 54bb ee0d e8ba
000001d0: 3974 d63c d778 d1bc 5b23 203c 717a cbbc
000001e0: 2f41 2b3d d3a6 293d 2fd6 8a3b a9ac 2f3d
000001f0: 7f39 06bc 8603 c3bc 0e14 b1bc 2d84 2d3a
00000200: 3fe3 67bc d8d9 aabb f904 15bd 78d1 28bd
00000210: 3c30 0a3b 1679 013d b224 19bd 598b 953c
00000220: 2669 203d 8db8 c03c 2176 5dbc 3b00 2abc
00000230: 793b c6bc 08c1 30bd f39a 0cbd 3011 1cbd
00000240: 9ab3 78bc 25e1 13bd 348a 32bd dfae 8d3c
00000250: e803 e7ba 6186 973c f2fc e53c d194 913c
00000260: 7400 443c 16a5 5dbc ff29 1e3d bad3 2ebd
00000270: f5e1 eabb e0f2 de3b 7a69 803b 2263 0a3d
00000280: 9610 0abc 198d 93bc a4fa c7bb f154 013d
00000290: 4575 34bd 8bf3 e9ba 2e69 c43c 62c2 063d
000002a0: 1dc0 253d 9b3e a1bc 4654 113d 1bf4 20bd
000002b0: 9211 a93c 3d03 223d 78db a1bb b52a 3bbc
000002c0: 6846 573c 4841 b03c d9e4 17bd 9393 a53b
000002d0: 3448 82bc d072 cabb 0e4f 0abb ff52 89bc
000002e0: d0dc b93c 35ed b8bc d073 babc 4e39 21bd
000002f0: ee02 1dbc 3067 21bd a79a dabc 66e3 af3c
00000300: 43b7 213d a54b 93bc 8574 153c 55ec 023d
00000310: af3c 8dbc 65ac f6bb c6a9 1fbc 46f9 d13b
00000320: 8c7d 42bb 7247 2d3d 1a97 08bd 49b0 8c3c
00000330: c012 acbc 68eb f6bc 7613 21bc 87fa 7d3c
00000340: 5f45 25bd afe6 8bba 0593 11bd 043e c33c
00000350: 6cf9 27bc 27f7 ca3b 0c0b d5bb 6609 adbc
00000360: 526a 873b 44b3 d7bc 6cd3 053d 305c 053d
00000370: 6558 febc 28c4 213d dad3 213d 224e fabc
00000380: 774b 8b3c 6847 663c 0cab 9f3c 2be1 1a3c
00000390: f5c4 0abd bb8e 06bc dad3 04bd 9c36 1dbd
000003a0: 94cb 06bd 5d92 6fbc 662c f23b a8be cdbc
000003b0: d9f5 153d acde 133d 3455 193d 3383 e5bc
000003c0: 9de3 be3c ced0 113d d8ee 443a 2bf3 2a3d
000003d0: 5b08 013d fd72 fcbb d697 e83c 9dca 2f3d
000003e0: c89a ffbc fe85 8b3c f262 edbc 4132 223d
000003f0: edee 2e3c f90f f9bb 9982 1cbd 0b3a 01bd

layer3.weight f4 [57, 256]
0.029003594 -0.004655609 -0.05318775 -0.00020950467 -0.02555995 0.046878103 -0.058586814 0.04321544
-0.019074816 0.043606825 0.025712978 0.046580877 0.020436672 -0.022795154 -0.051121622 -0.012762348
0.0042242575 -0.004532259 0.01831622 -0.047681216 0.05228153 -0.01672046 0.056140963 -0.026282694
0.009930051 0.005172554 -0.04896531 -0.049371745 -0.02779603 -0.031601094 -0.018419022 -0.028154252
-0.0010108572 -0.0062979623 -0.009564142 -0.03125022 -0.015964424 -0.05696749 0.044517264 0.005679484
0.04940441 0.03883357 0.030369418 0.051186085 -0.0102208005 -0.013365587 -0.05541816 -0.016805224
-0.03909906 -0.056030322 -0.05591667 -0.054363344 -0.019719558 -0.025997682 -0.019171711 -0.053716134
-0.012093234 -0.052012995 0.021700978 0.056396637 0.03643339 0.06346652 -0.04144612 -0.04993518
-0.010534405 0.026909333 -0.022345953 0.034437932 0.041655984 -0.057557583 -0.006645334 0.036329824
0.028347036 0.05945629 -0.02041254 0.03304125 0.026109625 0.04629152 0.011344526 -0.041483264
-0.014303757 -0.020641107 -0.049808614 0.022236131 0.014165398 -0.036596335 -0.029943451 -0.051785506
0.0064890026 -0.014963865 -0.053813234 -0.013668041 0.026583517 0.02676995 -0.047523934 0.034487158
0.014805235 0.04259777 -0.046310034 0.0022501615 0.0019356014 -0.04522653 -0.03867699 -0.008073908
-0.03185587 0.013758334 -0.039055973 -0.016892284 -0.012270921 -0.015415242 -0.011868865 0.03366593
-0.058480278 -0.040822532 -0.05118668 -0.043159142 0.02937161 0.025234716 0.018813083 0.04671179
0.01666739 0.051745623 0.04775257 0.0025263147 -0.03464265 -0.032608163 -0.028704807 -0.02676103
-0.029255606 0.062035594 0.0033471647 -0.026265692 -0.03485779 0.06089948 0.018681768 0.02644388
0.037954476 0.035337474 -0.03437533 0.04555799 -0.05565077 -0.010352987 0.055591445 -0.024796953
0.029744424 0.012920944 -0.02726472 0.030352766 0.03691413 -0.054238494 0.0033670247 0.039758317
-0.036819324 -0.027505597 0.029959906 -0.03257571 -0.046082206 -0.0028540553 0.059878513 0.025886524
-0.060907792 -0.059488747 -0.005122992 -0.036269978 -0.008767061 -0.026258986 0.050478026 0.040291186
-0.007416597 0.02022837 -0.05980026 -0.016308757 0.049919933 -0.005253199 -0.04098275 0.03391665
0.057134267 0.007831697 -0.018260669 0.027724646 -0.054050736 0.0042773928 0.032041766 0.015794659
0.050084136 -0.04491207 -0.017840158 -0.06349737 -0.029024158 0.033001598 -0.05656165 -0.002897611
0.034870643 -0.051358484 -0.025914768 -0.007160303 -0.040443625 -0.06235935 0.0066484157 0.024564676
-0.025077732 0.036443844 -0.0035276103 0.03355876 -0.04620542 0.044950522 0.043961167 -0.057354756
-0.050098676 -0.017964166 -0.017552717 0.04292977 -0.0063833175 0.006968049 -0.02730641 -0.05738564
-0.013344121 0.028190998 0.045987476 0.02102341 -0.054676723 -0.037588082 -0.016367564 0.01903906
0.02295471 -0.04052991 0.01296976 -0.0585907 -0.048157528 0.03346592 0.0049200687 0.006587139
0.056887295 -0.039059978 -0.030706154 -0.0005556747 0.06038709 -0.057504736 -0.041019764 0.009996488
0.054432735 -0.016395452 -0.028603412 0.060770016 0.014686728 -0.03982641 0.041504283 0.05479787
0.017859083 0.016376927 -0.004514278 0.023263669 0.053482804 -0.043649673 -0.020749768 -0.0135612665
00000000: f298 ed3c 148e 98bb 66db 59bd 7bae 5bb9
00000010: 1a63 d1bc 4103 403d baf8 6fbd ac02 313d
00000020: ca42 9cbc 129d 323d 06a4 d23c 97cb 3e3d
00000030: cf6a a73c e7bc babc e864 51bd 2b19 51bc
00000040: a46b 8a3b 5883 94bb e60b 963c 614d 43bd
00000050: 2825 563d 59f9 88bc 11f4 653d ce4e d7bc
00000060: a7b1 223c 877e a93b d98f 48bd 073a 4abd
00000070: 80b4 e3bc 2670 01bd 7de3 96bc bfa3 e6bc
00000080: bd7e 84ba 235f cebb ebb2 1cbc 3b00 00bd
00000090: d3c7 82bc be56 69bd bc57 363d f71a ba3b
000000a0: 475c 4a3d f30f 1f3d 49c9 f83c 80a8 513d
000000b0: 2575 27bc 56fb 5abc 27fe 62bd 1cab 89bc
000000c0: 5626 20bd 0d80 65bd e108 65bd 19ac 5ebd
000000d0: e98a a1bc 17f9 d4bc fe0d 9dbc 7305 5cbd
000000e0: b322 46bc 940b 55bd 40c6 b13c 2900 673d
000000f0: 2e3b 153d bcfa 813d 68c3 29bd d588 4cbd
00000100: 7f98 2cbc f670 dc3c dc0e b7bc ca0e 0d3d
00000110: 779f 2a3d 80c1 6bbd 1ac1 d9bb 95ce 143d
00000120: 0b38 e83c 7088 733d 3338 a7bc 4356 073d
00000130: dae3 d53c 2d9c 3d3d 64de 393c 5bea 29bd
00000140: 4e5a 6abc 8a17 a9bc 1e04 4cbd 8c28 b63c
00000150: fc15 683c 0ae6 15bd f84b f5bc 0a1d 54bd
00000160: b3a1 d43b 002b 75bc 446b 5cbd ebef 5fbc
00000170: adc5 d93c a74c db3c 75a8 42bd 6842 0d3d
00000180: a891 723c 007b 2e3d 97af 3dbd 7277 133b
00000190: 01b4 fd3a 743f 39bd c36b 1ebd 6d48 04bc
000001a0: 4d7b 02bd a36a 613c 28f9 1fbd b061 8abc
000001b0: f90b 49bc 3690 7cbc a175 42bc 49e5 093d
000001c0: 0489 6fbd 8735 27bd 20a9 51bd a4c7 30bd
000001d0: bb9c f03c 09b9 ce3c e51d 9a3c dd54 3f3d
000001e0: 0d8a 883c 38f3 533d 3398 433d 8790 253b
000001f0: 74e5 0dbd 2390 05bd 5826 ebbc f339 dbbc
00000200: 74a9 efbc 0919 7e3d 1b5c 5b3b 262b d7bc
00000210: 0bc7 0ebd bc71 793d 820a 993c d6a0 d83c
00000220: 2776 1b3d 07be 103d 25cd 0cbd 049b 3a3d
00000230: 10f2 63bd 939f 29bc dbb3 633d fb22 cbbc
00000240: 94aa f33c 5eb2 533c 435a dfbc 5da6 f83c
00000250: 4533 173d 2f29 5ebd 4da9 5c3b 9ed9 223d
00000260: dccf 16bd 6b53 e1bc 7a6e f53c 1c6e 05bd
00000270: b2c0 3cbd 1a0b 3bbb 2c43 753d fa0f d43c
00000280: 737a 79bd 79aa 73bd c6de a7bb d48f 14bd
00000290: b8a3 0fbc 161d d7bc 0cc2 4e3d 5f08 253d
000002a0: ed06 f3bb f7b5 a53c 1ef1 74bd f199 85bc
000002b0: d878 4c3d 0723 acbb 87dd 27bd 2fec 0a3d
000002c0: 9f05 6a3d 8550 003c 6697 95bc cc1e e33c
000002d0: 4e64 5dbd 5f29 8c3b 3a3e 033d cd63 813c
000002e0: 0625 4d3d b8f5 37bd 8625 92bc e90a 82bd
000002f0: 12c4 edbc af2c 073d 30ad 67bd d8e5 3dbb
00000300: 85d4 0e3d 465d 52bd 354b d4bc faa0 eabb
00000310: 37a8 25bd 856c 7fbd f4da d93b dc3b c93c
00000320: d16f cdbc 2446 153d 7b2f 67bb e974 093d
00000330: e541 3dbd 0a1e 383d a010 343d d2ec 6abd
00000340: 4534 4dbd 9629 93bc b7ca 8fbc 20d7 2f3d
00000350: 262b d1bb 3b54 e43b b1b1 dfbc 340d 6bbd
00000360: 4da1 5abc cff0 e63c 5d5d 3c3d 4939 ac3c
00000370: b3f4 5fbd f6f5 19bd 4515 86bc cef7 9b3c
00000380: 840b bc3c b102 26bd 1e7f 543c cdfc 6fbd
00000390: d440 45bd 8f13 093d 8738 a13b edd8 d73b
000003a0: a702 693d 5bfd 1fbd 798b fbbc b3aa 11ba
000003b0: 7458 773d 168a 6bbd 5704 28bd 4fc8 233c
000003c0: dcf4 5e3d c14f 86bc b451 eabc fbe9 783d
000003d0: 9aa0 703c 0521 23bd 6500 2a3d bb73 603d
000003e0: 364d 923c e828 863c 82ec 93bb 7393 be3c
000003f0: c910 5b3d 00ca 32bd 6bfb a9bc 1330 5ebc

layer3.bias f4 [57]
-0.01471524 -0.050269786 -0.021066152 0.004425081 0.047160786 0.015201412 0.005738997 0.04740174
0.016448764 0.030695282 0.036048133 0.047685202 -0.0019103147 0.04233297 0.026481587 -0.057283424
-0.054511108 0.05601925 -0.029121676 0.030483346 0.053830825 -0.04305834 0.014062745 -0.013196999
-0.015304999 -0.008832306 -0.02611144 -0.0012476747 -0.004160446 -0.01846619 0.04719933 0.02802945
0.059855074 -0.045717392 -0.017375993 0.050672363 0.037485775 0.037789218 -0.015145443 -0.003518631
-0.06470201 -0.029739674 -0.0016593031 -0.029093135 0.057528343 0.0065680635 0.030863147 -0.05830132
0.03641536 0.053787213 0.01948136 -0.02317023 0.05153942 0.05105079 -0.042851526 -0.014955238
0.048709597
00000000: 3118 71bc b1e7 4dbd ec92 acbc 4500 913b
00000010: ab2b 413d 580f 793c 320e bc3b 5428 423d
00000020: 8fbf 863c ac74 fb3c 35a7 133d 8f51 433d
00000030: 8663 faba 5665 2d3d eaef d83c 06a2 6abd
00000040: 0a47 5fbd 7174 653d 9590 eebc 36b8 f93c
00000050: b67d 5c3d f15d 30bd 6d67 663c 3a38 58bc
00000060: d2c1 7abc 60b5 10bc a9e7 d5bc 0489 a3ba
00000070: 5a54 88bb 6846 97bc 1654 413d 049e e53c
00000080: 982a 753d 2942 3bbd 1958 8ebc d38d 4f3d
00000090: af8a 193d dec8 1a3d 9824 78bc d598 66bb
000000a0: 7d82 84bd 9ea0 f3bc f97c d9ba ba54 eebc
000000b0: d7a2 6b3d e938 d73b b6d4 fc3c 5dcd 6ebd
000000c0: 4628 153d fb4f 5c3d 6097 9f3c 7fcf bdbc
000000d0: 001b 533d a21a 513d 1585 2fbd d106 75bc
000000e0: b783 473d
