results/models/dqn/best_model_ep2_2024-11-20_23-59-36.pt (torch, 613462 bytes, 6 tensors)

layer1.weight f4 [512, 12]
0.2153591 0.23194395 -0.06921742 0.27149814 -0.06610315 0.059876192 -0.14183633 0.17482021
0.25575602 -0.21278511 0.25247398 0.056532077 0.20834523 0.029632486 0.14287177 -0.03654367
0.21800667 0.03825291 -0.12997966 0.077527046 -0.1356208 -0.02947651 -0.12023406 0.18738648
-0.19764568 -0.09526219 -0.057835493 -0.14687529 0.058942083 -0.25391912 0.28360915 -0.22039576
0.25411546 0.011839241 -0.063415125 0.20753981 0.048707843 0.2272226 0.025053514 -0.08584639
0.07880145 -0.07164543 0.11464196 0.26206347 0.17123187 -0.1320566 0.1718774 0.057253562
0.14151233 -0.17000432 -0.27862123 -0.1177312 -0.2173309 0.22992344 0.08879484 0.1127834
0.086572215 0.000981588 0.21962221 -0.20953557 0.047564343 -0.1656806 0.12676823 -0.06916974
0.11942035 -0.026392693 0.2662806 -0.14058785 -0.14077787 -0.13355179 0.28943884 0.12663837
0.25969288 -0.23157112 -0.27541643 -0.22807889 -0.20983614 0.10670546 0.112701565 0.23390943
-0.15987574 -0.18624368 0.14272161 -0.12604792 0.18458799 -0.05812993 0.17450437 -0.2133099
-0.13495935 0.09775969 0.07089597 -0.06318639 0.18145768 0.20515603 -0.19841532 -0.1434146
0.28218973 -0.072136365 -0.081970185 -0.25791657 -0.14239426 0.093191475 -0.018611912 -0.18943016
0.029635198 -0.19390316 -0.22253114 -0.13695134 -0.22398885 -0.1427757 0.29942143 0.07204178
0.119072296 -0.24276558 -0.16785307 -0.079028495 0.075189404 -0.32051492 -0.097311035 -0.1454896
0.007699578 -0.095061585 -0.019229392 -0.19215539 -0.18888956 -0.16197075 -0.09634819 -0.2257769
0.24965224 -0.08972219 0.25406432 0.09622732 -0.23741466 0.1990268 -0.06937368 -0.1037877
-0.23660024 -0.2824678 0.08773231 -0.056070723 0.11418024 -0.18710409 0.21699123 -0.2075332
-0.03039869 0.092187 0.15624 0.24152198 0.2832828 -0.21050483 0.08390205 -0.114792414
-0.011028617 -0.2579134 0.2800369 -0.19278544 0.1627898 0.13401459 0.08893996 -0.15430254
0.2798218 0.0752705 0.040425047 -0.25365472 0.1386809 -0.13284352 -0.11822974 0.2605162
0.086717814 -0.139982 -0.115945615 0.011953012 0.18248138 -0.049495894 -0.13990827 -0.07304594
-0.19263373 0.16585998 0.24553798 -0.24769801 0.05878003 0.13285707 0.060396787 -0.09442124
0.14279447 0.14262043 0.11584778 -0.042130858 -0.0827245 0.039064866 -0.057900064 -0.09261009
0.16466475 0.2515534 -0.015947474 -0.067792915 -0.011265245 -0.02966166 0.081627905 0.07504475
-0.27276582 -0.09358957 0.23073488 0.10085746 -0.026168104 -0.16623244 -0.16709088 -0.263504
-0.1061723 0.088305876 0.19212054 0.12641229 -0.26432794 -0.16409242 -0.05446631 0.268973
0.032992806 -0.09711466 0.1283174 -0.10012637 -0.19501226 0.21047625 -0.12686774 -0.047962647
-0.2941594 0.29393277 0.21395372 0.100839175 -0.19896156 -0.28160334 -0.23228997 0.21116956
0.14130147 0.24074014 0.15182681 0.07015616 -0.00314335 -0.21743686 -0.24736278 -0.26991257
0.12919536 -0.14648528 -0.025714265 -0.13841675 -0.046221923 -0.18768589 -0.16632345 0.12349531
-0.07850997 0.31535825 -0.07996637 -0.19880083 -0.058809377 -0.13696888 -0.10403137 -0.27901268
00000000: 1987 5c3e b782 6d3e ddc1 8dbd ce01 8b3e
00000010: 1761 87bd bd40 753d 8b3d 11be 1204 333e
00000020: 74f2 823e 57e4 59be 4544 813e 2e8e 673d
00000030: 7458 553e d4bf f23c fa4c 123e d1ae 15bd
00000040: 243d 5f3e 15af 1c3d 6319 05be 80c6 9e3d
00000050: 2ee0 0abe b978 f1bc 463d f6bd 3ee2 3f3e
00000060: a163 4abe d318 c3bd e9e4 6cbd 7a66 16be
00000070: 416d 713d b001 82be 3835 913e 6daf 61be
00000080: 6c1b 823e 60f9 413c cadf 81bd 5185 543e
00000090: e081 473d 0bad 683e 073d cd3c 3bd0 afbd
000000a0: a862 a13d d7ba 92bd 67c9 ea3d 2f2d 863e
000000b0: 6857 2f3e d839 07be a100 303e b682 6a3d
000000c0: 9ce8 103e 9d15 2ebe 71a7 8ebe 0e1d f1bd
000000d0: fe8b 5ebe 0d71 6b3e 12da b53d fcfa e63d
000000e0: c64c b13d a1a8 803a a5e4 603e 7e90 56be
000000f0: d4d2 423d 2da8 29be 88cf 013e dda8 8dbd
00000100: a892 f43d 7d35 d8bc ee55 883e 43f6 0fbe
00000110: 1328 10be cdc1 08be 5431 943e 7dad 013e
00000120: 77f6 843e fb20 6dbe 6203 8dbe 838d 69be
00000130: 49df 56be 6488 da3d 14d0 e63d f485 6f3e
00000140: 77b6 23be aab6 3ebe 9d25 123e b512 01be
00000150: a204 3d3e a619 6ebd 46b1 323e e96d 5abe
00000160: c932 0abe 3b36 c83d e831 913d de67 81bd
00000170: 0bd0 393e 6c14 523e 632d 4bbe 47db 12be
00000180: 2c7b 903e 3bbc 93bd fcdf a7bd a40d 84be
00000190: cdcf 11be 2cdb be3d 0278 98bc fbf9 41be
000001a0: 84c5 f23c 8d8e 46be 34df 63be f93c 0cbe
000001b0: 555d 65be cb33 12be c44d 993e a48a 933d
000001c0: 2ddc f33d 8a97 78be ade1 2bbe b1d9 a1bd
000001d0: e7fc 993d 881a a4be 024b c7bd 3afb 14be
000001e0: be4c fc3b a6af c2bd f586 9dbc 62c4 44be
000001f0: 446c 41be a9db 25be 3352 c5bd 0f32 67be
00000200: d6a4 7f3e 44c0 b7bd b814 823e d412 c53d
00000210: d41c 73be aecd 4b3e ca13 8ebd a58e d4bd
00000220: 5547 72be 9f9f 90be ffac b33d 6aaa 65bd
00000230: 54d7 e93d 3798 3fbe f332 5e3e 9583 54be
00000240: ac06 f9bc 8acc bc3d 61fd 1f3e 8a51 773e
00000250: 710a 913e 948e 57be d7d4 ab3d 4918 ebbd
00000260: 5fb1 34bc 3a0d 84be ff60 8f3e 8c69 45be
00000270: 5fb2 263e 1f3b 093e 2726 b63d 7c01 1ebe
00000280: ce44 8f3e 6b27 9a3d bc94 253d 08df 81be
00000290: 5e02 0e3e 2208 08be 6f22 f2bd 6162 853e
000002a0: 1c99 b13d 7157 0fbe e574 edbd 91d6 433c
000002b0: 66dc 3a3e 35bc 4abd 1d44 0fbe 1c99 95bd
000002c0: c741 45be 33d7 293e 4f6e 7b3e 8ca4 7dbe
000002d0: 54c3 703d af0b 083e 9f62 773d ec5f c1bd
000002e0: b738 123e 170b 123e 9a41 ed3d 6891 2cbd
000002f0: 766b a9bd 7b02 203d 9e28 6dbd 5caa bdbd
00000300: e09d 283e 9bcb 803e 47a4 82bc 03d7 8abd
00000310: dd91 38bc 02fd f2bc 882c a73d 10b1 993d
00000320: f6a7 8bbe e3ab bfbd c445 6c3e 5b8e ce3d
00000330: 7e5e d6bc d638 2abe df19 2bbe ffe9 86be
00000340: dd70 d9bd b6d9 b43d 3fbb 443e 3972 013e
00000350: fe55 87be d807 28be 1118 5fbd d4b6 893e
00000360: 7723 073d 0de4 c6bd a365 033e 0e0f cdbd
00000370: 4bb1 47be 1687 573e 9ee9 01be 7b74 44bd
00000380: 109c 96be 5b7e 963e af16 5b3e c584 ce3d
00000390: 94bc 4bbe 502e 90be 6cdd 6dbe d53c 583e
000003a0: 55b1 103e 9584 763e 7d78 1b3e 08ae 8f3d
000003b0: a900 4ebb c5a7 5ebe ab4c 7dbe fb31 8abe
000003c0: ca4b 043e 3d00 16be b9a6 d2bc 1fbd 0dbe
000003d0: 3353 3dbd bb30 40be b250 2abe 1ceb fc3d
000003e0: d6c9 a0bd a376 a13e 68c5 a3bd 7292 4bbe
000003f0: 1ae2 70bd 9241 0cbe 660e d5bd c0da 8ebe

layer1.bias f4 [512]
-0.22567457 0.049577754 -0.08698384 0.2238619 -0.29171842 -0.021317452 0.11702749 0.02723771
-0.09962759 0.24294081 -0.22979951 0.26426673 0.059983023 0.12327636 0.17997792 0.020320458
0.0179735 -0.06710238 -0.2568719 0.11989863 0.2028229 0.11986137 -0.07119654 -0.2933932
-0.028087622 0.07754983 -0.22503488 0.21918158 -0.022241209 0.0721061 0.24713607 0.1222768
-0.17076457 0.1074088 0.16201949 0.12764105 -0.13347772 0.014027648 -0.2219963 -0.05812912
-0.21252272 0.17367996 0.25791234 -0.28535852 -0.13432702 -0.13496521 -0.20131831 0.23682304
-0.24192458 -0.17925754 -0.25857273 -0.008300048 -0.21841276 -0.18137565 0.27347508 0.111274265
0.10518754 0.19314797 0.03390378 0.039601747 -0.2267401 0.0807693 -0.22461908 -0.02101701
-0.16934435 -0.13969268 -0.14648345 -0.15104708 -0.16905092 -0.1691586 -0.10944394 -0.27972156
0.230133 0.0945908 -0.28597417 -0.30227777 -0.1510445 0.104236886 0.24004893 -0.06863571
0.17515752 -0.15507321 -0.07460836 -0.06926721 -0.27991635 -0.026096731 0.07072209 0.20436248
-0.22245625 -0.100078665 0.013230431 0.030498503 0.030371072 -0.23529088 0.24492964 -0.27681255
-0.10551004 0.12697154 -0.102409616 -0.16403136 -0.2943766 0.18833143 -0.0064556347 0.13265027
0.068763524 -0.23100364 -0.090877935 0.19807623 -0.12057993 -0.13247071 0.17930321 -0.14403827
0.033505805 -0.15901327 0.07566301 0.0017335205 -0.251091 -0.22368751 0.09940998 -0.0941565
0.15317373 0.018143656 -0.098319195 -0.07520073 -0.14538136 0.15154144 0.21414147 -0.007352272
-0.19290161 0.2121281 0.22941498 0.18294355 -0.0065460545 0.05990452 -0.0015725436 -0.11381023
-0.2846805 -0.037370216 0.1243478 0.17162834 0.062250067 0.12102833 0.17996785 -0.06996863
0.1911118 -0.017577503 -0.11528329 -0.111646265 -0.19778538 -0.23940225 0.046805725 0.2579419
0.03474986 0.038857367 -0.11294327 -0.11333362 -0.09819802 0.0988328 0.03894871 -0.11950512
0.051180523 -0.0464983 -0.053098228 0.18884014 -0.12403104 0.25381255 -0.17996989 0.24470277
0.11556194 0.09092027 -0.06018102 -0.101744145 -0.21030046 -0.2757103 0.17478932 0.2786341
0.073354706 -0.11245902 0.045072477 -0.020495003 -0.2542776 -0.23487206 0.07962058 -0.09319007
-0.06751822 -0.18564376 0.12523867 -0.18038264 -0.11242239 0.14975485 0.26060358 0.23456225
0.1174101 0.01021303 0.20288883 0.24521807 0.13280073 0.0699489 0.0490346 0.0052996385
0.16413057 0.08330615 -0.25274256 -0.18712872 -0.2607742 -0.08640745 -0.00025661007 -0.11929034
-0.27960363 -0.19568312 0.13310981 -0.020252615 -0.052239362 0.046547886 -0.053621635 -0.15970773
-0.15013611 -0.13060907 -0.2782124 -0.2711987 -0.1302268 0.08498268 0.25555345 -0.020582603
0.19633918 0.08120177 -0.22898449 -0.15248676 -0.090927206 -0.23696621 0.03373732 0.053736128
-0.23956333 -0.0614393 -0.27862588 0.27613962 0.13958143 -0.108454175 0.2606095 -0.18892281
0.22718793 -0.11064455 0.082359135 0.20395459 0.12856318 0.07685148 -0.05380888 -0.0047364687
0.24548993 -0.113736026 -0.0960611 0.030790683 -0.1394991 -0.11323073 0.010751589 0.20908847
00000000: 3c17 67be 0b12 4b3d 9524 b2bd 0e3c 653e
00000010: 1e5c 95be f0a1 aebc 1cac ef3d 9e21 df3c
00000020: 8d09 ccbd 7ac5 783e 9050 6bbe f84d 873e
00000030: c2b0 753d 5178 fc3d 224c 383e 1777 a63c
00000040: 293d 933c f96c 89bd b784 83be 6a8d f53d
00000050: ceb0 4f3e e179 f53d 7ecf 91bd a237 96be
00000060: 0318 e6bc 72d2 9e3d 8b6f 66be 2371 603e
00000070: 3233 b6bc 5dac 933d 3d11 7d3e 426c fa3d
00000080: e8dc 2ebe 25f9 db3d 70e8 253e 56b4 023e
00000090: 62ae 08be 38d4 653c 0053 63be cd18 6ebd
000000a0: 8e9f 59be 29d9 313e 160d 843e 831a 92be
000000b0: 068d 09be 5234 0abe 6326 4ebe bd81 723e
000000c0: 14bb 77be 4a8f 37be a563 84be edfc 07bc
000000d0: 98a7 5fbe 8aba 39be ed04 8c3e c3e3 e33d
000000e0: 916c d73d 95c8 453e b1de 0a3d 7135 223d
000000f0: 8f2e 68be 606a a53d 8b02 66be dd2b acbc
00000100: 9b68 2dbe 990b 0fbe c2ff 15be 16ac 1abe
00000110: af1b 2dbe e937 2dbe 2524 e0bd aa37 8fbe
00000120: fca7 6b3e d2b8 c13d 356b 92be 27c4 9abe
00000130: 69ab 1abe 267a d53d 63cf 753e e190 8cbd
00000140: 7e5c 333e 83cb 1ebe 45cc 98bd f8db 8dbd
00000150: 3251 8fbe d0c8 d5bc bed6 903d 6644 513e
00000160: 92cb 63be 0bf6 ccbd 73c4 583c ffd7 f93c
00000170: c1cc f83c 18f0 70be d6ce 7a3e 60ba 8dbe
00000180: a615 d8bd d404 023e 22bc d1bd d6f7 27be
00000190: 88b8 96be f4d9 403e ca89 d3bb 79d5 073e
000001a0: e4d3 8c3d 388c 6cbe 361e babd 7fd4 4a3e
000001b0: 9cf2 f6bd 67a6 07be 439b 373e c57e 13be
000001c0: 623d 093d 60d4 22be 35f5 9a3d 4c37 e33a
000001d0: 008f 80be 570e 65be 7697 cb3d 20d5 c0bd
000001e0: 93d9 1c3e 01a2 943c 935b c9bd d702 9abd
000001f0: dade 14be ae2d 1b3e e747 5b3e 54eb f0bb
00000200: 0088 45be 1c38 593e c3eb 6a3e 8e55 3b3e
00000210: 4980 d6bb 715e 753d cf1d ceba 5615 e9bd
00000220: a4c1 91be 8311 19bd 0faa fe3d 57bf 2f3e
00000230: edf9 7e3d b3dd f73d 7e49 383e b74b 8fbd
00000240: d0b2 433e b2fe 8fbc a519 ecbd cca6 e4bd
00000250: 4088 4abe dd25 75be 5cb7 3f3d f610 843e
00000260: df55 0e3d e728 1f3d cd4e e7bd 751b e8bd
00000270: 0b1c c9bd da68 ca3d af88 1f3d 1abf f4bd
00000280: aba2 513d 0075 3ebd 877d 59bd 4f5f 413e
00000290: fc03 febd b8f3 813e 074a 38be 5d93 7a3e
000002a0: bdab ec3d 6834 ba3d 6080 76bd 3c5f d0bd
000002b0: 0159 57be e729 8dbe f9fb 323e 21a9 8e3e
000002c0: fe3a 963d ea50 e6bd eb9d 383d 23e5 a7bc
000002d0: ac30 82be 4d82 70be 1d10 a33d 6fda bebd
000002e0: fe46 8abd 6619 3ebe 913e 003e 3ab6 38be
000002f0: b63d e6bd 5659 193e d56d 853e 1631 703e
00000300: b574 f03d 8d54 273c 17c2 4f3e 721a 7b3e
00000310: eafc 073e 5e41 8f3d 81d8 483d 97a8 ad3b
00000320: d811 283e 6a9c aa3d 7967 81be ac9e 3fbe
00000330: 3284 85be 64f6 b0bd 9f89 86b9 7e4e f4bd
00000340: 3528 8fbe 2861 48be f04d 083e d0e8 a5bc
00000350: f1f8 55bd ffa8 3e3d 5ca2 5bbd 6c8a 23be
00000360: 48bd 19be 62be 05be db71 8ebe 8eda 8abe
00000370: 2d5a 05be 660b ae3d e7d7 823e d99c a8bc
00000380: 230d 493e 1d4d a63d e97a 6abe 7d25 1cbe
00000390: 0b38 babd 45a7 72be 2530 0a3d 6a1a 5c3d
000003a0: 1750 75be c7a7 7bbd 0da8 8ebe 2c62 8d3e
000003b0: 6fee 0e3e 391d debd 9c6e 853e fb74 41be
000003c0: f4a3 683e 9c99 e2bd e8ab a83d 79d9 503e
000003d0: 11a6 033e 4f64 9d3d b366 5cbd 6134 9bbb
000003e0: b661 7b3e 6fee e8bd afbb c4bd be3c fc3c
000003f0: dad8 0ebe 83e5 e7bd 6f27 303c 4a1b 563e

layer2.weight f4 [256, 512]
0.046466805 0.021552887 0.020346098 -0.03029236 0.039069843 0.0016032864 -0.033280935 0.041793767
-0.008234286 0.0011500899 0.029037999 0.020673145 0.03194603 -0.047665972 0.03646114 0.01072137
0.0076870318 -0.026228316 -0.027261404 0.05197364 0.025552945 0.027972778 -0.010605204 -0.03171463
0.0029238104 -0.011809459 -0.02865154 0.006527081 0.027308812 -0.024308681 -0.046251405 -0.004057886
-0.02286782 -0.031433232 -0.00406859 -0.009663124 -0.0023408583 0.025374493 0.017684478 0.013844036
-0.020426378 -0.008785983 0.02106131 0.011078648 -0.04246311 0.011780817 0.023047928 -0.018529404
-0.008216863 -0.012831618 0.01976769 0.024649255 -0.041173004 0.019299962 0.024683869 0.024486693
-0.03175959 -0.016400903 0.03648217 0.01928088 -0.016843319 -0.00891499 0.02946867 -0.017943328
0.023103928 -0.020853309 0.0053886757 0.0048165913 -0.014184013 -0.0059894077 0.0016452576 -0.03503721
-0.008668476 0.0041906415 0.036252204 0.009746873 -0.03741091 -0.0042099273 0.03637461 -0.013313421
0.04250697 0.005049983 0.020252245 -0.026257424 0.04324038 0.0015660148 -0.01588607 0.03896809
0.021705478 -0.029585885 0.005970741 0.031546906 0.004326687 -0.021134442 -0.03692081 -0.037915695
0.033488773 0.012526789 -0.04575323 -0.01623401 0.0045378543 -0.030509168 0.03793255 -0.000322127
-0.021616647 0.01328928 0.025229108 0.009780905 0.04069427 0.02477829 -0.00957167 0.015331253
0.003568023 -0.024381552 -0.029148964 -0.011533311 -0.023767905 -0.05003074 0.00939861 -0.018467922
0.034146164 0.015741521 0.01874449 0.005936745 0.009918065 0.026576603 0.040447596 0.0018195745
-0.00426494 0.02110961 -0.01985993 -0.008923721 0.021542042 0.013134559 -0.05025725 0.010724049
-0.017041685 -0.038422644 -0.018744899 0.008376665 0.015692102 -0.04551249 0.0119557185 0.032975946
-0.015566044 0.019471297 -0.017695146 0.010821247 0.011763207 -0.034486413 0.0032091255 0.03731868
0.003088276 -0.031243533 0.00055055326 0.009706532 0.022552952 0.0026816737 -0.016237445 -0.029230868
0.021891518 -0.031677723 -0.022266954 0.02224135 -0.027902158 -0.0123301055 -0.024724305 -0.04648884
0.022721514 -0.026569217 -0.011081009 -0.016724994 0.012059513 0.038647465 0.033824574 0.009762967
-0.037750058 0.0032479267 0.001017066 0.037172962 -0.015064647 -0.033828516 0.008759499 -0.016353875
0.024508027 0.02101444 0.008700408 0.01714855 -0.036127828 -0.025274295 0.033762213 0.033143178
-0.008255562 0.042144146 0.0019771308 -0.01963971 -0.014616552 -0.023423554 0.02817355 -0.034216434
-0.02539086 0.053121533 -0.028467068 0.036813516 0.014379983 0.021835964 0.0025746152 0.0013772071
0.012445692 0.020913078 -0.014673789 -0.03625939 -0.027089698 -0.0053269365 0.02106202 -0.03269525
0.008109334 0.025355203 0.018975727 -0.016447395 0.0035060078 -0.04659765 0.02416402 -0.041810535
0.0024429928 -0.021792589 -0.036495265 -0.042160194 -0.028276335 -0.031953756 0.026355926 -0.013823337
-0.036723517 0.00015875972 -0.026913418 0.0026388385 0.030568378 -0.038845368 -0.049057715 0.017993422
0.023622155 -0.041817456 0.0230538 0.05246059 -0.0131858215 -0.016681423 0.013329663 0.01731485
-0.004569432 -0.043256234 0.0017070182 -0.02850426 -0.037576348 0.02049213 0.038539458 0.009852825
00000000: fa53 3e3d ae8f b03c dcac a63c af27 f8bc
00000010: b307 203d 5d25 d23a 9751 08bd f12f 2b3d
00000020: 19e9 06bc 9dbe 963a 19e1 ed3c ba5a a93c
00000030: d7d9 023d 653d 43bd 4758 153d afa8 2f3c
00000040: 7fe3 fb3b c4dc d6bc 4f53 dfbc 50e2 543d
00000050: 6954 d13c 2b27 e53c 73c1 2dbc 33e7 01bd
00000060: 669d 3f3b 767c 41bc a2b6 eabc 20e1 d53b
00000070: bbb6 df3c 0023 c7bc 1d72 3dbd 04f8 84bb
00000080: 4b55 bbbc 22c0 00bd ce51 85bb 1452 1ebc
00000090: 1669 19bb 2bde cf3c 0adf 903c 18d2 623c
000000a0: 3855 a7bc 15f3 0fbc c588 ac3c 3883 353c
000000b0: cced 2dbd 5404 413c 02cf bc3c faca 97bc
000000c0: 05a0 06bc b53b 52bc daef a13c 3ced c93c
000000d0: 06a5 28bd f41a 9e3c d335 ca3c 5198 c83c
000000e0: 5816 02bd 305b 86bc 546e 153d f0f2 9d3c
000000f0: 00fb 89bc 2e10 12bc 4868 f13c e3fd 92bc
00000100: 7344 bd3c 8fd4 aabc 7d93 b03b 7fd4 9d3b
00000110: 1064 68bc cb42 c4bb afa5 d73a 2d83 0fbd
00000120: 3906 0ebc a651 893b 317d 143d 59b1 1f3c
00000130: 2f3c 19bd 6ef3 89bb 8bfd 143d 8920 5abc
00000140: ca1b 2e3d 547a a53b 09e8 a53c cf19 d7bc
00000150: d31c 313d bd42 cd3a 8123 82bc 019d 1f3d
00000160: b0cf b13c 195e f2bc 35a6 c33b 5437 013d
00000170: e2c6 8d3b 2322 adbc 463a 17bd 7d4d 1bbd
00000180: 862b 093d 293d 4d3c bd67 3bbd 30fd 84bc
00000190: 48b2 943b 5dee f9bc 295f 1b3d 27e3 a8b9
000001a0: 6515 b1bc 48bb 593c 46ad ce3c 1740 203c
000001b0: 09af 263d d7fb ca3c 7ed2 1cbc f02f 7b3c
000001c0: 7ed5 693b d2bb c7bc cfc9 eebc 36f6 3cbc
000001d0: e9b4 c2bc 09ed 4cbd a1fc 193c 0a4a 97bc
000001e0: d9dc 0b3d 5df4 803c 0b8e 993c 0789 c23b
000001f0: 617f 223c 2db7 d93c 61ac 253d ca7e ee3a
00000200: e9c0 8bbb 10ee ac3c 4bb1 a2bc cc34 12bc
00000210: f078 b03c 5532 573c 8cda 4dbd ecb3 2f3c
00000220: 019b 8bbc 1061 1dbd e78e 99bc 483e 093c
00000230: b98c 803c 4e6b 3abd ebe1 433c c911 073d
00000240: b808 7fbc 4582 9f3c 69f5 90bc 994b 313c
00000250: 77ba 403c a041 0dbd 3150 523b 79db 183d
00000260: ac64 4a3b 70f2 ffbc 0153 103a 2508 1f3c
00000270: f8c0 b83c 05bf 2f3b 6404 85bc 9375 efbc
00000280: d755 b33c 80c0 01bd 3069 b6bc 7e33 b63c
00000290: 1193 e4bc 3604 4abc a08a cabc 156b 3ebd
000002a0: 7822 ba3c b0a7 d9bc 1f8d 35bc db02 89bc
000002b0: 4395 453c ce4c 1e3d a38b 0a3d daf4 1f3c
000002c0: ce9f 1abd 2bdb 543b 124f 853a ad42 183d
000002d0: b6d1 76bc c58f 0abd 0084 0f3c 90f8 85bc
000002e0: 0fc5 c83c 7a26 ac3c 288c 0e3c 1e7b 8c3c
000002f0: c6fa 13bd 0a0c cfbc 3f4a 0a3d 24c1 073d
00000300: 5642 07bc 579f 2c3d c092 013b 75e3 a0bc
00000310: 437a 6fbc c1e2 bfbc 37cc e63c 8826 0cbd
00000320: 7e00 d0bc f795 593d c533 e9bc c5c9 163d
00000330: 059a 6b3c 56e1 b23c e0ba 283b 6783 b43a
00000340: 04e9 4b3c e751 ab3c 556a 70bc ba84 14bd
00000350: 37eb ddbc 958d aebb 428a ac3c 74eb 05bd
00000360: 03dd 043c b7b5 cf3c fc72 9b3c b0bc 86bc
00000370: 0dc5 653b 2ddd 3ebd 9ff3 c53c 8641 2bbd
00000380: 9e1a 203b 5f86 b2bc 0f7c 15bd 2bb0 2cbd
00000390: c6a3 e7bc f1e1 02bd 62e8 d73c 477b 62bc
000003a0: 666b 16bd bd78 2639 8779 dcbc 5df0 2c3b
000003b0: 896a fa3c 521c 1fbd bef0 48bd f166 933c
000003c0: 4083 c13c c848 2bbd 53db bc3c eae0 563d
000003d0: 5809 58bc 7ba7 88bc a964 5a3c dfd7 8d3c
000003e0: 2dbb 95bb 732d 31bd 07be df3a c481 e9bc
000003f0: a8e9 19bd 1ddf a73c 8ddb 1d3d be6d 213c

layer2.bias f4 [256]
-0.019849405 0.015542471 0.010955329 -0.014950261 -0.045470584 0.034789972 0.008315759 0.016174732
0.043449346 -0.024811499 0.01095269 0.039531708 0.036469664 0.037263177 0.027600696 -0.03549908
-0.020620553 -0.0026494607 -0.0039412286 -0.051726058 -0.006746957 0.011867252 0.018567923 0.020251889
0.031697936 -0.03309499 -0.015691709 -0.039507635 -0.02991545 0.0020519472 -0.019538112 -0.014179274
-0.026185457 0.034095727 -0.027562406 0.026081355 -0.017762464 0.0190089 -0.035932556 -0.043439098
0.035470214 -0.04957481 -0.02190431 -0.021696664 0.018440768 -0.023381917 -0.04683145 0.016538845
0.030616617 -0.0032230814 -0.039383862 -0.026563508 0.02787454 -0.010850367 -0.014980273 0.022737272
0.002764262 -0.02184955 -0.009992549 -0.0015882121 0.022166481 -0.027241187 -0.034681495 0.024556836
0.030752098 0.0066325422 -0.030838242 -0.022545852 0.04023779 -0.029993277 -0.045420546 0.021640534
-0.0015786623 -0.006246489 -0.02773945 -0.050815478 -0.013639529 0.015867295 0.0059300945 0.029112283
-0.04136274 0.0030556684 -0.032509416 -0.04421549 -0.012199984 0.014246073 -0.015843883 -0.02273195
0.008539629 -0.0039881794 -0.024173934 -0.0019057597 -0.020823585 0.029944053 -0.033151876 -0.027840827
-0.03958532 -0.043099973 0.03187024 0.019509383 0.0027178149 -0.045924786 0.023488348 0.0260977
-0.012895845 -0.028613405 0.031515464 -0.029130988 0.011961229 0.035734545 -0.040159494 -0.015823355
0.030637449 -0.023283362 -0.010968255 -0.006754654 0.023395048 -0.031875778 0.0053654863 -0.029108506
0.041798644 0.030944021 0.0016461009 0.0376337 -0.010191034 -0.024764046 -0.03175012 -0.0039403834
-0.0075986837 -0.005196989 -0.04176401 -0.046305176 0.0021017343 0.042037386 -0.037267547 0.008201368
0.029134968 0.019029988 -0.013473571 -0.015325279 -0.03020648 -0.049845908 -0.041588437 -0.045053083
-0.021416614 -0.03598725 -0.043448564 0.013746185 -0.0058578653 0.012635088 0.026678521 0.012926545
0.016525134 -0.020717612 0.030489258 -0.046669062 -0.012735276 0.0034443052 0.003906381 0.023635067
-0.013235276 -0.0101975845 -0.009312888 0.031474095 -0.048653424 0.016881755 0.026152926 0.026622865
0.032856774 -0.019619867 0.033081368 -0.037327014 0.014470719 0.039427176 -0.009927401 -0.015001986
0.008258373 0.009626635 -0.03505156 -0.00084725657 -0.020693209 -0.011945172 -0.006906006 -0.020359935
0.018416308 -0.026725475 -0.023944281 -0.043677583 -0.009999329 -0.039278354 -0.033211928 0.014988307
0.032297526 -0.02135681 0.0044221403 0.028728211 -0.017184522 -0.007503408 -0.011554755 0.00093284977
-0.007787948 0.036807865 -0.03947037 0.012006697 -0.024415063 -0.034951635 -0.01414454 0.010118208
-0.048050232 -0.0034460064 -0.041742943 0.01838378 -0.020420795 0.0044687106 -0.010751928 -0.021053782
-0.0006706641 -0.033965338 0.029433751 0.027131565 -0.022157654 0.041895956 0.03515364 -0.04117591
0.009159432 0.009049711 0.013253249 0.0066334857 -0.03821577 -0.010530575 -0.03232453 -0.03966772
-0.045345295 -0.018367762 0.0119638145 -0.028746944 0.034675226 0.03335647 0.033144116 -0.032972228
0.01759868 0.035485346 -0.0029472688 0.037643608 0.027553383 -0.0039073187 0.015115221 0.041449383
-0.036410086 0.012324292 -0.028884592 0.034636445 0.0055856607 -0.013098593 -0.03808575 -0.037655078
00000000: 389b a2bc d9a5 7e3c fb7d 333c f1f1 74bc
00000010: 5d3f 3abd ee7f 0e3d d23e 083c df80 843c
00000020: f1f7 313d 7c41 cbbc e972 333c 00ec 213d
00000030: 3761 153d 46a1 183d db1a e23c 7c67 11bd
00000040: 6fec a8bc 93a2 2dbb 6c25 81bb b4de 53bd
00000050: 9415 ddbb dd6e 423c c21b 983c 4ae7 a53c
00000060: b2d5 013d 9d8e 07bd e68b 80bc c2d2 21bd
00000070: 3f11 f5bc f679 063b 640e a0bc 3050 68bc
00000080: e282 d6bc f6a7 0b3d 8eca e1bc 91a8 d53c
00000090: 9682 91bc 8db8 9b3c 042e 13bd 32ed 31bd
000000a0: 3749 113d f50e 4bbd ab70 b3bc 34bd b1bc
000000b0: 1811 973c 6f8b bfbc 56d2 3fbd 797c 873c
000000c0: b3cf fa3c 553a 53bb f950 21bd b79b d9bc
000000d0: 2659 e43c bdc5 31bc d26f 75bc 8443 ba3c
000000e0: 9f28 353b d4fd b2bc cab7 23bc 8e2b d0ba
000000f0: 7b96 b53c e928 dfbc 2f0e 0ebd 6b2b c93c
00000100: d3eb fb3c cc55 d93b 7ba0 fcbc 14b2 b8bc
00000110: 62d0 243d 76b4 f5bc e50a 3abd 7d47 b13c
00000120: 1eeb ceba 59af ccbb d83d e3bc e423 50bd
00000130: 5578 5fbc 21fc 813c 3d51 c23b e27c ee3c
00000140: fa6b 29bd 9c41 483b 9828 05bd 4d1b 35bd
00000150: 71e2 47bc 5c68 693c 08cb 81bc 5b38 babc
00000160: cde9 0b3c 46af 82bb 6a08 c6bc afca f9ba
00000170: 3996 aabc 3b4d f53c 43ca 07bd 7212 e4bc
00000180: 3724 22bd 9989 30bd 5e8a 023d 24d2 9f3c
00000190: 5e1d 323b a11b 3cbd a36a c03c d8ca d53c
000001a0: 1849 53bc a966 eabc 5c16 013d 1ca4 eebc
000001b0: 08f9 433c 635e 123d 487e 24bd fb9f 81bc
000001c0: 63fb fa3c c0bc bebc 32b4 33bc 2556 ddbb
000001d0: f9a6 bf3c 2d90 02bd f6d0 af3b f674 eebc
000001e0: 0e35 2b3d 517e fd3c fbc1 d73a cb25 1a3d
000001f0: 4bf8 26bc f8dd cabc 6a0c 02bd 551e 81bb
00000200: 61fe f8bb 814b aabb bd10 2bbd 7faa 3dbd
00000210: 40bd 093b 652f 2c3d dba5 18bd 085f 063c
00000220: 75ac ee3c c7e4 9b3c 41c0 5cbc e116 7bbc
00000230: 9473 f7bc 392b 4cbd a358 2abd 9589 38bd
00000240: e571 afbc 5e67 13bd 1ff7 31bd ae37 613c
00000250: 56f3 bfbb 6603 4f3c ea8c da3c dcc9 533c
00000260: b85f 873c fbb7 a9bc 9cc4 f93c 0f28 3fbd
00000270: 9ea7 50bc dab9 613b 1901 803b 549e c13c
00000280: c5d8 58bc c513 27bc 1595 18bc fbea 003d
00000290: d048 47bd 9b4b 8a3c a93e d63c 3218 da3c
000002a0: d394 063d d8b9 a0bc 5480 073d 36e4 18bd
000002b0: 9816 6d3c 647e 213d 8aa6 22bc e4ca 75bc
000002c0: 204e 073c 09b9 1d3c 3992 0fbd 6d1a 5eba
000002d0: ce84 a9bc afb5 43bc c74b e2bb e1c9 a6bc
000002e0: ccdd 963c 62ef dabc cc26 c4bc 44e7 32bd
000002f0: 3ad4 23bc 57e2 20bd 3b09 08bd 8491 753c
00000300: 694a 043d 7af4 aebc 9ae7 903b 6d57 eb3c
00000310: 8ec6 8cbc 26df f5bb 2850 3dbc 7d8a 743a
00000320: 0b32 ffbb d8c3 163d afab 21bd bdb7 443c
00000330: 1902 c8bc 7229 0fbd 80be 67bc d7c6 253c
00000340: 52d0 44bd 65d6 61bb a6fa 2abd 9599 963c
00000350: 8349 a7bc 436e 923b db28 30bc fb78 acbc
00000360: 82cf 2fba 3d1f 0bbd 0d1f f13c 0443 de3c
00000370: f883 b5bc 189b 2b3d 43fd 0f3d 12a8 28bd
00000380: 7111 163c 3d45 143c 2824 593c b65d d93b
00000390: 2488 1cbd 6f88 2cbc ba66 04bd 9f7a 22bd
000003a0: fdbb 39bd fd77 96bc e003 443c b67e ebbc
000003b0: 9c07 0e3d cba0 083d 20c2 073d e30d 07bd
000003c0: 1b2b 903c 1559 113d f726 41bb 2f30 1a3d
000003d0: a2b7 e13c f708 80bb d5a5 773c d4c6 293d
000003e0: be22 15bd d4eb 493c 619f ecbc f2de 0d3d
000003f0: eb07 b73b 7b9b 56bc ceff 1bbd 363c 1abd

layer3.weight f4 [57, 256]
0.019053608 -0.013237585 -0.053014297 -0.012335255 -0.025477717 0.04820323 -0.06516592 0.03564256
-0.019012745 0.03825972 0.016808802 0.04643156 0.020370308 -0.029722316 -0.057797264 -0.0080804415
0.004029824 -0.00730356 0.018257305 -0.047527373 0.0009973759 -0.023805954 0.05561746 -0.026197476
0.0110000195 0.0051557743 -0.056425527 -0.04921098 -0.049913634 -0.041291907 -0.017833963 -0.028063001
-0.001007605 -0.007079171 -0.01620168 -0.043659613 -0.022973465 -0.06530893 0.04437317 -0.013642171
0.042387307 0.038709894 0.030272136 0.051021136 -0.015759252 -0.017362202 -0.05523872 -0.023106426
-0.05387438 -0.06020551 -0.055735677 -0.054188386 -0.026703885 -0.031658027 -0.019109117 -0.059369955
-0.01876105 -0.051844448 0.014354909 0.056213606 0.03400251 0.050901048 -0.04808299 -0.04892303
-0.010500091 0.015258743 -0.022273555 0.026770024 0.041520238 -0.057372745 -0.0148379505 0.026472934
0.02825501 0.060488377 -0.03056572 0.024970047 0.026025161 0.051972333 0.0112668555 -0.041348707
-0.014478657 -0.020412888 -0.06378497 0.022164272 0.014274792 -0.04593932 -0.029846221 -0.053824123
-0.001479512 -0.014915299 -0.062365174 -0.013623933 0.016288988 0.026684038 -0.047370583 0.00035252262
0.014757347 0.0424617 -0.052908074 -0.0097767785 0.0022594936 -0.04025201 -0.029524647 -0.008047891
-0.030063387 -0.0017748097 -0.040631916 -0.016585806 -0.012230951 -0.03298051 -0.027443608 0.033557057
-0.048641138 -0.04069023 -0.06778201 -0.048929393 0.023936711 0.022774557 0.018962216 0.048646133
0.0168376 0.037724607 0.020329911 0.0025181563 -0.041633934 -0.032503143 -0.028612804 -0.026675181
-0.050908048 0.06183563 0.0033364196 -0.025263563 -0.034743596 0.033322793 0.01862141 0.029798152
0.038751774 0.029294198 -0.034263715 0.045410004 -0.059400342 -0.009977485 0.051509883 -0.028523473
0.029648025 0.012879105 -0.027176991 0.02468968 0.034351315 -0.060967788 -0.004959108 0.03747837
-0.03670017 -0.037845805 0.02951668 -0.04061773 -0.045357317 -0.013927986 0.059684105 0.025802815
-0.060184024 -0.08835307 -0.01381501 -0.036153555 -0.008887798 -0.027108409 0.05574371 0.03357402
-0.015301103 0.020162938 -0.06606513 -0.016256195 0.050405957 -0.005236042 -0.040332865 0.028962692
0.050728824 0.022627413 -0.018201847 0.025665259 -0.053231146 0.004914305 0.03091215 0.015744133
0.04059606 -0.044766285 -0.02185133 -0.06918858 -0.038606826 0.032894842 -0.056312513 -0.012133717
0.02881462 -0.060977645 -0.025753846 -0.013600226 -0.040312883 -0.062158175 0.0039046733 0.020617213
-0.024157543 0.0363262 -0.0077911518 0.028438823 -0.04605761 0.06747179 0.04381939 -0.05717075
-0.052697223 -0.025507012 -0.01410383 0.042792518 -0.0063627674 0.0024703832 -0.03092383 -0.05720163
-0.012739217 0.022650609 0.011698275 0.01182867 -0.08474725 -0.044237632 -0.017633252 0.018977221
0.022880046 -0.04174645 0.012927862 -0.062561534 -0.047272254 0.033357322 0.004904249 -0.0008720127
0.04584378 -0.050641116 -0.030607363 0.00088241 0.054251432 -0.05732024 -0.040887035 0.0023937118
0.051588103 -0.016342662 -0.028511677 0.0535394 0.005053851 -0.03969821 0.041369535 0.054621402
0.01780177 0.012206451 -0.004499761 0.01679351 0.048004076 -0.04844884 -0.020682417 -0.013517628
00000000: 5016 9c3c 75e2 58bc 8525 59bd cf19 4abc
00000010: a5b6 d0bc c070 453d b675 85bd effd 113d
00000020: 9ec0 9bbc 39b6 1c3d 9db2 893c 052f 3e3d
00000030: a2df a63c 377c f3bc d3bc 6cbd d463 04bc
00000040: 9d0c 843b b452 efbb 5890 953c 10ac 42bd
00000050: 62ba 823a b404 c3bc 22cf 633d 179c d6bc
00000060: 6d39 343c c5f1 a83b 741e 67bd 7491 49bd
00000070: 3d72 4cbd b421 29bd 8818 92bc 61e4 e5bc
00000080: 9d11 84ba 64f8 e7bb 63b9 84bc 6cd4 32bd
00000090: d932 bcbc b0c0 85bd a4c0 353d 6a83 5fbc
000000a0: 509e 2d3d 448e 1e3d 45fd f73c 8afb 503d
000000b0: 8c19 81bc 2d3b 8ebc ff41 62bd b049 bdbc
000000c0: 62ab 5cbd 0e9a 76bd 184b 64bd a4f4 5dbd
000000d0: 1bc2 dabc d9ab 01bd b98a 9cbc e92d 73bd
000000e0: c6b0 99bc d85a 54bd da30 6b3c 3d40 663d
000000f0: 3746 0b3d 9e7d 503d abf2 44bd 8463 48bd
00000100: 9308 2cbc cfff 793c 0877 b6bc cf4c db3c
00000110: 2011 2a3d afff 6abd e01a 73bc c4dd d83c
00000120: 0d77 e73c a9c2 773d f664 fabc fc8d cc3c
00000130: b832 d53c f1e0 543d 9e98 383c 435d 29bd
00000140: e437 6dbc ee38 a7bc b2a1 82bd d991 b53c
00000150: d1e0 693c de2a 3cbd 1080 f4bc af76 5cbd
00000160: 2fec c1ba 4c5f 74bc a072 7fbd eb36 5fbc
00000170: 7c70 853c 7c98 da3c a807 42bd c9d2 b839
00000180: cdc8 713c 52ec 2d3d 23b6 58bd c82e 20bc
00000190: 0314 143b 4bdf 24bd acdd f1bc 4ddb 03bc
000001a0: 7e47 f6bc bba0 e8ba a76d 26bd f5de 87bc
000001b0: 5464 48bc 9216 07bd 6bd1 e0bc 2073 093d
000001c0: ee3b 47bd ccaa 26bd 4bd1 8abd 306a 48bd
000001d0: ec16 c43c b591 ba3c a656 9b3c 2b41 473d
000001e0: 02ef 893c 1e85 1a3d ea8a a63c a707 253b
000001f0: 5888 2abd 0422 05bd 6665 eabc e985 dabc
00000200: f584 50bd 5c47 7d3d d5a7 5a3b 88f5 cebc
00000210: 4d4f 0ebd 7b7d 083d ed8b 983c 411b f43c
00000220: 2eba 1e3d 63fa ef3c 1c58 0cbd d7ff 393d
00000230: c64d 73bd 9b78 23bc 07fc 523d 0faa e9bc
00000240: 6ae0 f23c e202 533c 48a2 debc 0342 ca3c
00000250: f7b3 0c3d 5cb9 79bd 0380 a2bb eb82 193d
00000260: eb52 16bd 3404 1bbd f7cc f13c c75e 26bd
00000270: 98c8 39bd 3532 64bc 5277 743d 6d60 d33c
00000280: 8683 76bd 74f2 b4bd 5a58 62bc c015 14bd
00000290: 209e 11bc 7412 debc 8453 643d e984 093d
000002a0: 7ab1 7abc bf2c a53c 284d 87bd b62b 85bc
000002b0: 7a76 4e3d 1b93 abbb 1334 25bd 2b43 ed3c
000002c0: 07c9 4f3d 205d b93c 0a1c 95bc f33f d23c
000002d0: e708 5abd 2e08 a13b 7a3b fd3c d7f9 803c
000002e0: 0e48 263d da5c 37bd 8f01 b3bc beb2 8dbd
000002f0: 3122 1ebd bebc 063d f3a7 66bd 7fcc 46bc
00000300: a30c ec3c b2c3 79bd bbf9 d2bc 7bd3 5ebc
00000310: 1f1f 25bd 9299 7ebd 8ce5 7f3b 6ee5 a83c
00000320: 0ae6 c5bc c8ca 143d eb4c ffbb 89f8 e83c
00000330: e8a6 3cbd a62e 8a3d f67b 333d e02b 6abd
00000340: 0bd9 57bd 15f4 d0bc c013 67bc 3547 2f3d
00000350: c37e d0bb 27e6 213b f953 fdbc 424c 6abd
00000360: 26b8 50bc c58d b93c 1faa 3f3c 0acd 413c
00000370: f78f adbd 8532 35bd 9c73 90bc 1e76 9b3c
00000380: ef6e bb3c 53fe 2abd 62cf 533c 4320 80bd
00000390: 8da0 41bd b0a1 083d d3b3 a03b c897 64ba
000003a0: b0c6 3b3d 0f6d 4fbd 4bbc fabc 8851 673a
000003b0: c036 5e3d a1c8 6abd 2a79 27bd d2df 1c3b
000003c0: 0c4e 533d 0ce1 85bc 5291 e9bc 214c 5b3d
000003d0: c69a a53b 979a 22bd 1a73 293d b1ba 5f3d
000003e0: 04d5 913c 91fd 473c bb72 93bb 8b92 893c
000003f0: ec9f 443d 4a72 46bd 2c6e a9bc 0b79 5dbc

layer3.bias f4 [57]
-0.09146211 -0.07978218 -0.084811784 -0.035455357 0.040318485 -0.029626707 -0.0101267435 0.026511878
0.019063514 0.02572994 0.006117146 0.03497282 0.019804638 0.030706672 -0.017627437 -0.07585631
-0.06286941 0.051581804 -0.0505212 0.014716666 0.022827215 -0.04651209 0.007989017 -0.001530427
-0.012876875 0.00825352 -0.016472328 0.0029213822 -0.00072374847 -0.022441948 0.014376173 0.02079724
0.04674945 -0.026799586 -0.02317392 0.04719721 0.05413833 0.031081486 -0.018239079 0.018368056
-0.035833955 -0.016142305 -0.0034429561 -0.03467312 0.050240725 0.009221136 0.025305295 -0.03660172
0.03030671 0.03295037 0.01105838 -0.01877095 0.051204756 0.050553743 -0.04899361 -0.023851847
0.16231538
00000000: 7d50 bbbd d764 a3bd cdb1 adbd a339 11bd
00000010: ff24 253d b5b3 f2bc a4ea 25bc 702f d93c
00000020: 162b 9c3c 98c7 d23c 5772 c83b a93f 0f3d
00000030: 563d a23c 8f8c fb3c 6a67 90bc 8e5a 9bbd
00000040: adc1 80bd 7147 533d 51ef 4ebd 2c1e 713c
00000050: 2400 bb3c 7683 3ebd 5ee4 023c 9c98 c8ba
00000060: 87f9 52bc c639 073c faf0 86bc a974 3f3b
00000070: f0b9 3dba 2dd8 b7bc 0a8a 6b3c f95e aa3c
00000080: 5a7c 3f3d ce8a dbbc 3cd7 bdbc dd51 413d
00000090: 27c0 5d3d 9a9e fe3c 1f6a 95bc 9b78 963c
000000a0: a0c6 12bd de3c 84bc 38a3 61bb 6705 0ebd
000000b0: 38c9 4d3d 3f14 173c 0d4d cf3c afeb 15bd
000000c0: c745 f83c f8f6 063d 352e 353c 89c5 99bc
000000d0: 14bc 513d 7111 4f3d 86ad 48bd f364 c3bc
000000e0: 0136 263e
