results/models/dqn/best_model_ep2_2024-11-20_23-48-44.pt (torch, 613462 bytes, 6 tensors)

layer1.weight f4 [512, 12]
000000 cf d2 64 3e 66 3e 73 3e c4 79 8f bd 89 de 87 3e
       0.22346042 0.23754272 -0.07005647 0.26536968
000010 6c 30 76 bd d9 88 78 3d 20 5e 12 be df 1e 2e 3e
       -0.060104772 0.060677383 -0.14293718 0.17003964
000020 4c f3 83 3e 47 49 5b be 28 ef 81 3e 0f bc 69 3d
       0.25771558 -0.21414672 0.25377774 0.057064112
000030 80 30 59 3e 0e e0 18 3d 44 bb 0f 3e e3 7a 22 bd
       0.21209908 0.03732305 0.1403628 -0.039667975
000040 6e 25 63 3e 2c f7 29 3d 00 b7 08 be 7f 0f 99 3d
       0.22182247 0.041495487 -0.13351059 0.07473659
000050 5e 29 08 be 4b a6 05 bd c8 d2 f0 bd 36 c6 43 3e
       -0.1329703 -0.032629292 -0.11758953 0.1911858
000060 28 50 66 be 93 32 05 be b6 b1 a6 bd 48 78 30 be
       -0.22491515 -0.13007574 -0.081393644 -0.17233384
000070 79 bb f4 3c 13 db 90 be 38 4d 86 3e 39 e8 79 be
       0.02987455 -0.2829214 0.26230788 -0.24404992
000080 78 c0 66 3e 88 21 01 3d aa 71 bb bd 97 d1 38 3e
       0.22534359 0.03152612 -0.09152539 0.18048702
000090 ad 4f 3d 3d 9d 8b 6c 3e ac 81 fd 3c 82 0b b8 bd
       0.046218563 0.23100133 0.030945621 -0.0898657
0000a0 87 96 a2 3d d4 08 9f bd 28 7d f7 3d bd a6 84 3e
       0.07938867 -0.07765356 0.120844185 0.2590846
0000b0 ec cb 2d 3e 9c c9 01 be 60 5f 2c 3e 65 e3 5b 3d
       0.16972321 -0.12674564 0.16833258 0.053683657
0000c0 77 b1 15 3e 53 a4 33 be 3b b9 91 be 1c 00 e8 bd
       0.14618479 -0.17543153 -0.28461632 -0.11328146
0000d0 2c 61 62 be 14 68 71 3e f6 50 ac 3d 26 c9 f1 3d
       -0.2210738 0.23574859 0.084138796 0.11805944
0000e0 c4 a0 bb 3d da eb 82 bb 07 dc 66 3e 77 33 52 be
       0.09161523 -0.003995401 0.22544871 -0.20527445
0000f0 69 8a 94 3c 1b cf 49 be dc e0 b6 3d 7e 6d ca bd
       0.018132405 -0.1970791 0.08929607 -0.09884165
000100 a9 de b4 3d 5d b6 74 bd 38 73 75 3e c5 58 2e be
       0.088315316 -0.059744228 0.23969734 -0.1702605
000110 25 54 30 be 54 b1 29 be 25 f6 84 3e 34 42 c5 3d
       -0.17219599 -0.16571552 0.25969043 0.09631768
000120 82 51 8e 3e 01 d1 71 be d3 34 92 be bc 0a 6a be
       0.2779656 -0.23614885 -0.28555927 -0.22855657
000130 0a 72 46 be 66 08 ee 3d d1 f0 d4 3d 71 1a 73 3e
       -0.1937944 0.116226956 0.103974946 0.23740555
000140 a0 d6 18 be 5d c5 48 be 62 2e 1c 3e 46 0a f0 bd
       -0.14925623 -0.19606538 0.15252069 -0.117207095
000150 55 cf 34 3e 73 58 89 bd cd 71 2a 3e f3 27 64 be
       0.17657216 -0.067063235 0.16644974 -0.22280864
000160 f2 9a 13 be f3 33 b7 3d 74 93 7f 3d f1 d7 93 bd
       -0.14414576 0.089454554 0.06239648 -0.07218922
000170 14 9c 31 3e cd 5d 4a 3e d3 ce 54 be 4b 48 1c be
       0.17344695 0.19762345 -0.20782022 -0.15261953
000180 a7 ae 88 3e 5d 0f c1 bd d9 76 ce bd 87 f1 8d be
       0.2669575 -0.094267584 -0.10081262 -0.27723333
000190 87 4e 26 be 9c 56 98 3d c2 19 11 bd 56 78 54 be
       -0.16240893 0.074383944 -0.035424955 -0.2074903
0001a0 03 d5 1b 3c a7 54 55 be 19 15 78 be c6 19 20 be
       0.009511235 -0.20833074 -0.24226798 -0.15634832
0001b0 21 8b 7f be a4 e9 38 be 0f 05 95 3e 9e 36 6a 3d
       -0.24955417 -0.18057877 0.29105422 0.057180993
0001c0 14 6b bc 3d 33 58 88 be 2e 04 3f be ac 32 bf bd
       0.09200111 -0.2662979 -0.18653938 -0.09335837
0001d0 4f 65 45 3d 9b e6 82 be 6a c7 f8 bd d3 f5 2d be
       0.04819232 -0.25566563 -0.1214741 -0.16988306
0001e0 a1 c2 8f 3a d1 4a dc bd 66 d1 a9 bc da af 48 be
       0.0010968038 -0.107564576 -0.020729732 -0.19598332
0001f0 2f da 4a be e1 58 2c be 1d d2 ca bd 75 a3 69 be
       -0.19809793 -0.1683078 -0.09903357 -0.2281626
000200 36 bb 77 3e de 38 77 bd cf 05 7e 3e 82 bb b7 3d
       0.24192509 -0.060356967 0.24806903 0.08971311
000210 2f f8 7a be b8 d7 4b 3e 77 ec 9e bd 9c 0d e1 bd
       -0.24508737 0.19906509 -0.07759946 -0.10988924
000220 a0 e2 75 be c4 df 92 be df 18 a9 3d b1 e2 7e bd
       -0.24012232 -0.28686345 0.08256697 -0.06222791
000230 17 f4 e4 3d cb 05 61 be 7e 34 5b 3e 0f 13 59 be
       0.11179369 -0.21974866 0.21406743 -0.21198677
000240 3d a0 47 bd 60 f8 7b 3d da d0 19 3e 35 4e 70 3e
       -0.0487368 0.061516166 0.15021077 0.23467334
000250 62 21 87 3e 7d 7e 68 be f8 88 97 3d 50 8d fa bd
       0.26392657 -0.22704501 0.073991716 -0.122339845
000260 bb cf f9 bc fd 40 59 be f7 3f 87 3e 43 81 57 be
       -0.030494561 -0.21216197 0.2641599 -0.21045403
000270 a8 0b 1c 3e b6 f3 cb 3d c3 70 b9 3d 5e 9a 22 be
       0.15238822 0.099585935 0.09054711 -0.15879199
000280 fb 40 85 3e de b3 7a 3d 6f a3 0e 3d 9d 9f 83 be
       0.2602614 0.06120669 0.03482383 -0.25707713
000290 72 c4 f3 3d 7f 8d 55 bd 12 b8 09 be 9a 73 7b 3e
       0.11902703 -0.052136894 -0.13449124 0.24555817
0002a0 bb 30 8a 3d c2 28 21 be 5f e9 12 be e5 60 32 bc
       0.06747576 -0.15738204 -0.14346837 -0.010887359
0002b0 f0 83 27 3e 94 ff 90 bd 28 44 26 be bd 85 c4 bd
       0.16358924 -0.07079998 -0.16236937 -0.09595821
0002c0 c9 25 5a be 5a 54 e0 3d 52 6e 67 3e 7c be 89 be
       -0.21303476 0.10953589 0.22600678 -0.2690314
0002d0 14 3b 88 3d 7e fe 17 3e f6 9f 58 3d 0c 75 d1 bd
       0.06651893 0.14843175 0.052886926 -0.10227403
0002e0 2f 3d 1a 3e f6 d3 1a 3e 2e fd dd 3d 95 c4 4d bd
       0.15062402 0.15119919 0.10839306 -0.050236303
0002f0 41 ed 98 bd 11 92 00 3d a0 cc 4d bd 44 94 ad bd
       -0.074671276 0.0313893 -0.050243974 -0.08475545
000300 28 0b 3d 3e 1a fe 7e 3e de cf e4 bc 71 c1 88 bd
       0.18461287 0.2490162 -0.02793115 -0.06677521
000310 12 24 99 3b 86 58 92 bc 9f 5f 8f 3d 95 f7 a1 3d
       0.0046734894 -0.017864477 0.0700066 0.07908551
000320 3a 1a 86 be 0f ca d8 bd 79 7d 78 3e 92 a5 e5 3d
       -0.26191884 -0.105854146 0.24266614 0.11213221
000330 13 1f 76 bc 3b 11 31 be d8 c5 33 be 5e a5 85 be
       -0.015022057 -0.17291729 -0.1755594 -0.26102728
000340 f5 ca c0 bd 8d 92 c5 3d e2 67 3d 3e cb 16 06 3e
       -0.09413711 0.09647093 0.1849666 0.13094632
000350 9c 58 82 be d6 af 30 be ed cf 3a bd 73 fa 8e 3e
       -0.2545823 -0.17254576 -0.04560845 0.27925453
000360 78 2d 30 3d 0a 3d 96 bd c9 fa f8 3d 70 64 dd bd
       0.043012112 -0.07335861 0.121572085 -0.108101726
000370 61 ce 3d be d9 2e 59 3e d3 5e 04 be 57 72 65 bd
       -0.18535759 0.21209277 -0.12926798 -0.056017246
000380 52 47 92 be 38 9e 49 3e c2 7b 61 3e a2 9e da 3d
       -0.28570038 0.19689262 0.22019866 0.10674788
000390 d0 d1 4d be 37 0b 93 be 7a 95 70 be ae dc 5f 3e
       -0.20099568 -0.28719494 -0.23494521 0.21861526
0003a0 1b fd 0d 3e 9d 3e 79 3e 50 32 1a 3e b3 fa 9b 3d
       0.13866083 0.24340291 0.15058255 0.076161765
0003b0 13 f9 25 bb a7 50 61 be e7 aa 7c be 08 f4 89 be
       -0.0025325462 -0.22003423 -0.24674569 -0.26943994
0003c0 84 23 f3 3d 06 f0 0f be 07 21 61 bd a5 6a 27 be
       0.118720084 -0.14056405 -0.054963138 -0.16349275
0003d0 92 68 52 bd 36 77 4e be b0 ce 3e be 99 55 c9 3d
       -0.051369257 -0.20162663 -0.18633533 0.098307796
0003e0 3f 0c ad bd c3 87 45 3e 1e 1e ba bd 03 07 57 be
       -0.084496014 0.1929007 -0.09087776 -0.20998769
0003f0 94 0e 63 bd 88 bd 13 be 94 f9 c1 bd 8a 42 8f be
       -0.055433825 -0.14427769 -0.094714314 -0.27980453

layer1.bias f4 [512]
000000 65 56 67 be e2 43 58 3d 3d af 73 bd 53 23 60 3e
       -0.2259155 0.052799113 -0.059493292 0.21888475
000010 87 5a 93 be b2 2a 1c 3c 7d a1 01 3e 6c 91 13 3d
       -0.28780004 0.009531664 0.12659259 0.036027357
000020 08 28 a6 bd 9a 16 89 3e a0 2a 65 be ce b4 89 3e
       -0.08113104 0.26775056 -0.22379541 0.26895756
000030 33 1c 9e 3d b3 12 0f 3e e0 ab 4d 3e 1f e9 e6 3c
       0.07720222 0.13971977 0.20085096 0.028187333
000040 4b 73 f5 3c 48 ac 73 bd fc d5 86 be 25 24 fa 3d
       0.029962203 -0.059490472 -0.26335132 0.12213925
000050 e4 44 5b 3e 2d 4b 00 3e 87 57 3c bd bb ba 85 be
       0.21412998 0.12528677 -0.04598191 -0.26119027
000060 c4 18 f1 bb 32 56 95 3d 92 47 67 be 1d 5a 7a 3e
       -0.0073576886 0.07291831 -0.22585896 0.24448438
000070 2f a1 2f bc ea 36 a1 3d 2c ae 80 3e e3 90 04 3e
       -0.0107195815 0.07871802 0.25132883 0.12945895
000080 7a 6f 23 be b4 e9 e2 3d 40 00 2b 3e 4d 9f 11 3e
       -0.15960494 0.110797316 0.16699314 0.14220925
000090 69 c2 0c be ea 68 e5 3c 00 4f 54 be 06 39 06 bd
       -0.13746037 0.028004128 -0.20733261 -0.032769226
0000a0 4c 1e 4b be f8 44 32 3e 0d f0 8f 3e 9b 1a 90 be
       -0.19835776 0.17409122 0.28112832 -0.28145298
0000b0 bf 0d 0a be 2a f9 fd bd c7 e6 4e be d5 2f 85 3e
       -0.13481806 -0.1240104 -0.20205222 0.26013055
0000c0 65 bd 63 be 39 9f 1b be c7 f0 77 be 3e f1 56 3b
       -0.22240217 -0.15197457 -0.24212943 0.00327976
0000d0 ff bf 5c be 97 aa 47 be dc 0c 93 3e f0 7d 03 3e
       -0.21557616 -0.19498669 0.28720748 0.1284101
0000e0 13 a1 fd 3d c2 fd 4f 3e de 8a 4f 3d f1 d4 3a 3d
       0.12384238 0.20311645 0.050669543 0.045613233
0000f0 95 7c 5b be 6a 05 a6 3d d9 d9 66 be 21 28 20 bb
       -0.21434243 0.081065014 -0.2254404 -0.0024437981
000100 e5 30 1f be 69 61 25 be f1 33 2b be 1e 7f 11 be
       -0.15545996 -0.1615044 -0.16719033 -0.14208648
000110 fa 91 2e be f3 63 21 be d2 0e d7 bd ff ef 87 be
       -0.17047873 -0.15760784 -0.105008736 -0.2655029
000120 e3 83 6c 3e 03 23 ca 3d 43 f3 92 be cc 9c 94 be
       0.23097186 0.09869959 -0.2870122 -0.29025877
000130 34 ed 14 be bb 35 ef 3d 1e b3 85 3e cb b1 38 bd
       -0.14543611 0.1168017 0.26113218 -0.04509143
000140 f3 95 31 3e 22 5f 1f be 5d fd 73 bd cb 7b 36 bd
       0.17342357 -0.15563634 -0.059567798 -0.044551652
000150 16 d6 8f be 9f ef 31 39 5c db 9c 3d 31 16 33 3e
       -0.28093022 0.00016969301 0.07659027 0.17488934
000160 1f a1 64 be 0c ef ae bd e4 3a 63 3c db c0 fa 3c
       -0.22327088 -0.08541688 0.013869021 0.030609539
000170 75 bc 41 3d b1 86 5d be 8b f2 65 3e f3 87 85 be
       0.047298867 -0.21633412 0.22455804 -0.26080284
000180 1b 63 d4 bd 2d 17 14 3e 2a 35 93 bd 34 7e 11 be
       -0.10370465 0.14461966 -0.071878746 -0.14208299
000190 cc 2c 90 be 37 99 4a 3e 8b 4f d4 bb 58 19 0f 3e
       -0.28159177 0.1978501 -0.006479209 0.13974512
0001a0 19 2b 65 3d 85 52 5c be 05 dd cf bd a5 e6 50 3e
       0.055949304 -0.21515854 -0.10149578 0.20400484
0001b0 32 5c 07 be f7 24 08 be d2 8b 2b 3e 3b af 01 be
       -0.13218763 -0.13295351 0.16752556 -0.12664501
0001c0 c4 83 35 3d 9d 1c 12 be d4 9a b2 3d 43 20 f4 3c
       0.044315115 -0.14268728 0.08720937 0.02980054
0001d0 b2 61 6d be 06 b2 5f be 2d 58 d4 3d 7a 89 c1 bd
       -0.23181799 -0.21845254 0.10368381 -0.0945005
0001e0 21 56 20 3e 0e 93 91 3c 5c 18 ca bd 8e 6c 55 bd
       0.15657856 0.017770316 -0.098679274 -0.05210548
0001f0 aa 2a 05 be 33 98 0c 3e 44 0c 6c 3e 47 3e f4 bb
       -0.13004556 0.13729934 0.23051554 -0.007453713
000200 37 ff 3e be de 91 56 3e 2d 7e 73 3e f0 c7 45 3e
       -0.18652044 0.20954081 0.23778601 0.19314551
000210 07 3d 10 bc 4a 54 8c 3d fd 2b 38 3c 23 dd de bd
       -0.008803613 0.06852014 0.011240956 -0.10882022
000220 b2 49 92 be 14 fb 05 bd 11 98 ff 3d ba 68 2f 3e
       -0.2857185 -0.03271015 0.12480176 0.17129794
000230 0c 4a 8d 3d d4 5c 07 3e ef f5 38 3e 87 0e 69 bd
       0.06898889 0.13219005 0.18062566 -0.05689862
000240 49 5e 42 3e 88 b8 f7 bb e8 47 ce bd cb 7c e5 bd
       0.1898128 -0.0075598396 -0.10072309 -0.11205443
000250 f8 15 2c be d6 1c 62 be ee 99 8a 3d 38 94 8f 3e
       -0.16805255 -0.22081313 0.06767641 0.2804277
000260 b7 11 2c 3d 6c bd 1f 3d 0b 20 da bd 51 f5 e8 bd
       0.04200908 0.038999006 -0.10650643 -0.113749154
000270 7f 18 b4 bd 0c 8d d0 3d aa bf 4f 3d 39 a5 d8 bd
       -0.08793735 0.101831526 0.050719894 -0.10578389
000280 82 68 76 3d 06 c2 29 bd 49 97 b2 bc 60 4c 52 3e
       0.06015826 -0.0414448 -0.021800654 0.20536947
000290 ab f1 f7 bd 4f 0e 88 3e d5 57 20 be 77 cb 87 3e
       -0.121066414 0.26573417 -0.15658505 0.2652242
0002a0 a1 f1 e2 3d 57 77 ea 3d 15 8c 86 bd 0c 68 a5 bd
       0.11081243 0.114485435 -0.06569687 -0.08076486
0002b0 03 23 58 be cb ae 8d be ec de 49 3e ed 75 8f 3e
       -0.21107106 -0.2767242 0.19713944 0.28019658
0002c0 81 7f a7 3d bd 28 e7 bd 5c 90 85 3d fc 63 48 bc
       0.08178616 -0.11287067 0.06521675 -0.012230869
0002d0 8a 71 80 be fd 00 66 be c4 6b ca 3d 00 db ac bd
       -0.25086623 -0.22461314 0.09883836 -0.084402084
0002e0 b0 01 88 bd 61 cc 34 be fb db 01 3e 60 28 18 be
       -0.06640947 -0.1765609 0.12681572 -0.14859152
0002f0 94 35 ba bd f1 be 20 3e 26 97 8c 3e 4a 45 82 3e
       -0.090922505 0.15697838 0.27459067 0.25443488
000300 d5 ec e9 3d 2c f1 27 3c 62 cc 5e 3e 1b 32 82 3e
       0.11422125 0.010250371 0.21757653 0.25428852
000310 41 b4 05 3e 9e b6 b0 3d f9 29 8d 3d 10 c2 da 3c
       0.13057043 0.086285815 0.06892771 0.026703864
000320 45 82 42 3e d9 46 ab 3d fa b7 76 be e0 77 2f be
       0.18995006 0.083631225 -0.24093619 -0.17135572
000330 f0 1e 86 be 44 9b b1 bd bf 2c 92 3c 98 f3 f4 bd
       -0.26195478 -0.08672193 0.017843602 -0.11960524
000340 2b 9a 87 be 64 2e 41 be e5 ba ff 3d da 83 a6 bc
       -0.26484808 -0.18865353 0.12486819 -0.020326544
000350 01 c8 4c bd 95 5a 3f 3d 05 90 72 bd 78 a5 1b be
       -0.049995426 0.046717245 -0.05921938 -0.1519984
000360 2b cc 06 be 4d e3 f3 bd a1 f2 8a be ea 59 87 be
       -0.13163821 -0.119085886 -0.27138236 -0.26435786
000370 ba a1 e6 bd c9 cd db 3d 33 a8 8e 3e 4a bc 11 bc
       -0.11261316 0.1073261 0.278627 -0.008894989
000380 66 c9 49 3e 62 2c c6 3d 3d 55 6b be b9 ff 11 be
       0.19705734 0.09676434 -0.22981735 -0.14257707
000390 3e 78 a7 bd 73 8a 73 be ad 66 26 3d 14 94 87 3d
       -0.08177231 -0.23783283 0.040625263 0.066200405
0003a0 ab ee 67 be 06 41 70 bd 40 a6 82 be f6 72 92 3e
       -0.22649638 -0.05865576 -0.25517464 0.28603333
0003b0 bd d7 2b 3e 78 ec de bd f9 e9 7c 3e 96 2f 3a be
       0.16781516 -0.108849466 0.24698628 -0.18182215
0003c0 5e 71 75 3e 9a 6d e3 bd a7 2c ac 3d f1 59 4f 3e
       0.23969027 -0.11104889 0.08406954 0.20249154
0003d0 8f 10 0a 3e af c0 8f 3d cc b7 0a bd a6 6a 05 3a
       0.13482879 0.07019173 -0.03386669 0.0005089439
0003e0 2e 4c 7c 3e b1 df c6 bd e1 a8 b9 bd f2 9f 13 3d
       0.24638435 -0.097106345 -0.09065414 0.036041208
0003f0 be 5d 0f be e6 a9 db bd 3c 26 b1 3c dd b2 60 3e
       -0.14000604 -0.10725765 0.021624677 0.21943231

layer2.weight f4 [256, 512]
000000 1b 32 1e 3d 36 34 b1 3c a7 31 cf 3c 9a 4a 1c bd
       0.038622003 0.021631341 0.02529223 -0.038157083
000010 ab 8e 00 3d ca 44 a7 3b cf ca 29 bd c2 d0 2b 3d
       0.03138606 0.005104636 -0.04145318 0.041947134
000020 4c 25 6a bb 83 67 be 3b 68 d6 0a 3d 14 3a d3 3c
       -0.0035727797 0.0058106794 0.03389588 0.02578453
000030 75 66 15 3d 3a e1 33 bd 00 3a 28 3d 75 4c 30 3c
       0.036474664 -0.043915965 0.041070938 0.010760416
000040 77 fc e7 3a 3c 22 09 bd aa b2 d4 bc 42 c2 34 3d
       0.0017699142 -0.033479914 -0.0259641 0.04413057
000050 ff be f7 3c c6 ae 08 3d 6c 1f cf bb 08 3f df bc
       0.030242441 0.033369802 -0.0063208845 -0.027251735
000060 1d 05 fb 3b a4 42 a2 bc 59 91 eb bc ad f5 3d 3c
       0.0076605217 -0.019807167 -0.02875583 0.011594218
000070 db 1b 03 3d 52 33 12 bd a3 8e 2a bd e9 31 71 3b
       0.032008987 -0.035693474 -0.041639935 0.003680343
000080 1a d6 94 bc 30 8b d5 bc 96 ba 16 bc 18 a3 a8 bb
       -0.018168498 -0.026067346 -0.009199759 -0.0051463954
000090 15 39 48 bc f9 6d f6 3c 42 d7 b1 3c 16 a6 63 3c
       -0.012220641 0.030081736 0.021709088 0.013894578
0000a0 0c 67 78 bc 9c 9d a0 bb 5c c0 d4 3c 23 3c 9f 3b
       -0.015161287 -0.004901601 0.02597063 0.004859464
0000b0 85 8f 2e bd fd e3 b1 3b 9d 7e bd 3c 88 98 64 bc
       -0.04261734 0.0054287896 0.023131663 -0.013952382
0000c0 e9 1d 07 bc be f7 0d bc 36 11 c9 3c eb e0 08 3d
       -0.008246877 -0.008665023 0.02454434 0.033417623
0000d0 22 70 18 bd 81 76 dd 3c 07 25 9e 3c 52 d2 88 3c
       -0.037216313 0.027034046 0.019304765 0.016701851
0000e0 59 23 e3 bc f4 82 c4 bc e1 9b 28 3d 3b 46 4d 3c
       -0.027726816 -0.023988225 0.041164283 0.012528951
0000f0 cf c5 4d bc 3c 98 12 bc 53 4a f2 3c 1f db 5e bc
       -0.012559368 -0.008947428 0.029576456 -0.013602047
000100 1b e6 de 3c d7 81 68 bc 43 98 07 3c 05 ed 13 3c
       0.027209332 -0.0141911125 0.008276048 0.009028678
000110 1e 0c af bc 06 4c cb ba b0 09 cd 3b 99 ed 2b bd
       -0.021368083 -0.0015510328 0.0062572584 -0.041974638
000120 74 8b 0e bc cb d1 89 3b 32 08 15 3d 26 4f 1a 3c
       -0.00870024 0.0042059175 0.03638477 0.0094182845
000130 26 cc 19 bd 2c 5c 40 bc ce 70 28 3d dc 85 09 bc
       -0.037548207 -0.0117407255 0.041123204 -0.008393731
000140 f7 99 0d 3d 5e 15 a6 3b 9e 04 d6 3c 5e 63 b1 bc
       0.03457066 0.005068465 0.026125249 -0.021653827
000150 08 c2 31 3d 65 16 da 3b ea e6 3d bc de a9 0c 3d
       0.043397933 0.0066555017 -0.011590699 0.034341685
000160 cd 75 b2 3c d1 40 f3 bc 86 66 fd ba 90 af 01 3d
       0.021784687 -0.029693993 -0.0019332923 0.03166157
000170 b8 84 0a 3c 2d 4b 89 bc 61 9b f9 bc f1 7a 09 bd
       0.008454494 -0.01675948 -0.030469598 -0.03356451
000180 ac 50 d3 3c b2 29 8e 3c 0f 27 2b bd 40 0e 40 bc
       0.025795303 0.017353866 -0.041785296 -0.011722147
000190 dd 79 28 3c 25 0e 1b bd b5 f0 1b 3d 2e 89 67 bb
       0.010282961 -0.037855286 0.038071353 -0.0035329568
0001a0 d3 35 9d bc e8 95 c9 3b 87 f2 8c 3c 23 d5 20 3c
       -0.019190704 0.0061519034 0.01720549 0.009816441
0001b0 18 dd 27 3d d4 b8 cb 3c 42 1a c7 bb bb 65 0f 3c
       0.040982336 0.024868406 -0.006076128 0.008752282
0001c0 31 9b 04 3c e9 50 a5 bc 9e fe 15 bd 53 c9 f1 bb
       0.008093641 -0.020180183 -0.036619775 -0.007378736
0001d0 bc 98 9f bc a5 f3 35 bd 68 ed 58 3c 92 d7 97 bc
       -0.01948201 -0.04442181 0.013240196 -0.01853541
0001e0 d3 47 22 3d 99 6c 81 3c 02 1e 9a 3c db 11 28 3c
       0.03961928 0.015798854 0.018813137 0.010258163
0001f0 ab 1e 6f 3c 47 3c e2 3c 00 f5 09 3d 04 26 87 ba
       0.014594714 0.027616633 0.033680916 -0.0010311012
000200 3b 07 39 bc f6 7d 58 3c 2b 49 a3 bc 25 11 9d bb
       -0.011293228 0.013213625 -0.01993235 -0.0047933036
000210 cb 93 67 3c d9 17 8d 3c 89 6d 3a bd 44 66 6e 3c
       0.014134358 0.017223286 -0.045514617 0.014550749
000220 50 1e 8c bc 32 6c 0a bd de 1e 9a bc 5d 6b 97 39
       -0.017104298 -0.03379459 -0.018813547 0.00028880956
000230 e3 98 9d 3c 72 58 2b bd 6f 99 44 3c 7a 83 18 3d
       0.019237941 -0.041832395 0.011999472 0.03723476
000240 58 45 c2 bc 9c 36 41 3c f2 7b 91 bc 35 f1 31 3c
       -0.023714706 0.011792805 -0.017759297 0.010860731
000250 93 22 87 3c 97 78 f4 bc d8 44 01 3c 41 43 2b 3d
       0.016495978 -0.029842658 0.007889949 0.041812185
000260 84 22 4b 3b df 6f 00 bd 7a d9 10 3a 5a 9c 1f 3c
       0.0030995915 -0.03135669 0.00055255706 0.009741867
000270 b9 1c 73 3c 1e 24 f8 ba 95 1b 46 bc c9 aa c9 bc
       0.014838391 -0.0018931662 -0.012091537 -0.02461757
000280 ee 96 d5 3c dd b7 d0 bc 9d d3 90 bc b4 4c da 3c
       0.026072945 -0.025478298 -0.01767903 0.026647903
000290 cb f5 bf bc 37 3d 09 bc 68 d5 a5 bc 8a 53 2b bd
       -0.023432633 -0.008376411 -0.020243362 -0.041827716
0002a0 2f 18 a5 3c d5 ad b6 bc 5c cb 9c bc df 23 4a bc
       0.020153133 -0.022299686 -0.019139938 -0.012337654
0002b0 5c 4e 46 3c ef df 1e 3d b8 ed 15 3d d6 2e f2 3a
       0.012103643 0.03878778 0.03660366 0.0018477093
0002c0 3f 31 1b bd 81 a2 55 3b fb cb 85 3a 0f d1 18 3d
       -0.03788876 0.003259808 0.0010207886 0.03730875
0002d0 9e 4c 3f bc 80 aa 2d bd c3 8c 5b 3c 3a a1 49 bc
       -0.011675982 -0.04239893 0.013400259 -0.012306506
0002e0 e5 77 88 3c bb f0 6d 3c ff 4a 57 3c 02 88 b2 3c
       0.016658733 0.014522727 0.013140439 0.02179337
0002f0 e0 0e 05 bd fb 55 0e bd 1e e7 1e 3d 25 a7 1a 3d
       -0.03248489 -0.034749966 0.03879463 0.037757058
000300 cc a0 84 bc f6 3f 2d 3d 73 02 cb 3b 9e 26 67 bc
       -0.016189955 0.042297326 0.0061953603 -0.014108328
000310 b8 cb b9 bc 86 95 c0 bc b2 85 06 3d 81 e8 f3 bc
       -0.022680148 -0.023508798 0.032842346 -0.029773952
000320 51 e9 a9 bc 90 37 39 3d 17 1b c6 bc 76 e6 26 3d
       -0.020741137 0.045219004 -0.02418284 0.04074713
000330 53 cd 8d 3c ab 88 b3 3c 59 4d f3 3b ae 71 da bb
       0.01730982 0.021915754 0.007424992 -0.0066663837
000340 87 5b 8b 3c ee a6 6b 3c 90 40 bb bc cf 0f 15 bd
       0.017011417 0.014383061 -0.022857934 -0.03639203
000350 88 ff 0d bd 88 30 af bb 44 fc 63 3c 1b 16 fa bc
       -0.03466752 -0.0053463615 0.013915125 -0.030528119
000360 9c 58 05 3c c3 77 d0 3c 9e a5 bf 3c e7 3a 87 bc
       0.008138802 0.025447732 0.023394402 -0.016507579
000370 55 2b f6 3b 89 4c 2b bd 1c 51 ee 3c 9e 0c 1b bd
       0.00751249 -0.041821036 0.02909141 -0.03785383
000380 54 af 20 3b 32 94 88 bc 47 07 16 bd f0 b6 20 bd
       0.0024518566 -0.016672228 -0.036628034 -0.039236963
000390 d9 7c e8 bc c2 5b 03 bd 0a 4c fe 3c 15 2a 1a bc
       -0.028379845 -0.03206993 0.031042118 -0.009409447
0003a0 3d bb 03 bd 75 14 27 39 87 3f b9 bc 44 17 a9 bb
       -0.032160986 0.00015933982 -0.0226133 -0.005160244
0003b0 c9 c1 10 3d b8 b0 1f bd 62 8b 26 bd d8 21 45 3c
       0.035341058 -0.03898689 -0.04066027 0.012031995
0003c0 96 47 e7 3c d2 e9 2b bd 77 b0 77 3c 55 69 38 3d
       0.028232377 -0.041971035 0.015117756 0.045022327
0003d0 ec 89 1d bc a7 56 cb bc de b2 9a 3c e2 ac b6 3c
       -0.009615403 -0.024821592 0.018884119 0.022299234
0003e0 07 47 96 bb b5 2d 1e bd db 8e e0 3a 6c 5b ea bc
       -0.004586104 -0.03861781 0.0017132418 -0.028608046
0003f0 9f 79 1a bd 7c f6 cc 3c 5b 51 01 3d 1e 9c 78 3c
       -0.037713643 0.025019877 0.031571727 0.01517394

layer2.bias f4 [256]
000000 3c 69 7d bc 9f e7 a6 3c f7 ba c5 3c 97 92 a8 bb
       -0.015466984 0.020374117 0.024137003 -0.005144428
000010 c0 d6 10 bd a4 53 2b 3d a5 b8 57 3c ff 79 97 3c
       -0.03536105 0.041827813 0.013166581 0.01849079
000020 0e 9e 32 3d e1 ea 9c bc a6 4d 6f 3c b2 53 28 3d
       0.043607764 -0.019154968 0.014605915 0.041095443
000030 62 c7 1f 3d b0 45 28 3d b6 fe 18 3d 8d f4 0f bd
       0.039008506 0.041082084 0.037352286 -0.03514533
000040 51 7c 76 bc 70 f2 b3 3a 77 08 75 3b 94 66 1e bd
       -0.015044288 0.0013728868 0.0037389079 -0.038672045
000050 3a f5 72 bc 2b f1 6f 3c 5b 1f bd 3c 54 82 a6 3c
       -0.014828974 0.014644901 0.02308624 0.020325817
000060 07 65 16 3d 2d 0d 08 bd 1d 0f 1a bc 91 5f 0c bd
       0.03671744 -0.03321569 -0.009403017 -0.034270827
000070 05 00 14 bd 69 41 7d bb 6f 22 6d bc f7 02 15 bc
       -0.03613283 -0.0038643724 -0.014473542 -0.009094945
000080 5e 12 7e bc c3 5c 29 3d fb 0c b4 bc 6d 6a e7 3c
       -0.015507309 0.04134823 -0.021978846 0.02824899
000090 94 ed 2c bc 16 0d bf 3c a7 b7 13 bd 6b 19 20 bd
       -0.01055469 0.02332167 -0.036063816 -0.03908674
0000a0 7e d2 1d 3d b8 08 3b bd 5d 18 b4 bc 51 63 b2 bc
       0.03853082 -0.04566261 -0.021984274 -0.021775873
0000b0 89 c5 c0 3c b8 d1 8d bc 9a 6b 2e bd 2f ca a7 3c
       0.023531692 -0.017311916 -0.042583086 0.02048215
0000c0 5e 69 ba 3c a8 a4 0c 3b 44 e7 21 bd 37 66 da bc
       0.022755321 0.0021460447 -0.039527193 -0.026660068
0000d0 a9 4d 11 3d d2 1d 0d bc 07 39 24 bc be 01 e8 3c
       0.035474453 -0.008613067 -0.010023362 0.028321143
0000e0 03 53 c2 3b 67 a5 b3 bc 2a 30 10 bc 6c 8b 56 3b
       0.005930306 -0.021929456 -0.008800546 0.003273691
0000f0 e0 2b ed 3c 96 ab cb bc 9c 13 f2 bc 10 72 f8 3c
       0.028951585 -0.024862092 -0.029550366 0.030327827
000100 c3 e9 17 3d c4 7e 1a 3c c0 40 ca bc 25 e9 85 bc
       0.037088167 0.009429637 -0.024689078 -0.016346524
000110 31 6a 25 3d 1c 34 c3 bc 9f 27 1f bd 99 4f d2 3c
       0.040384475 -0.023828559 -0.038856145 0.02567272
000120 20 ac cf ba fe c2 ed 38 1e ba cb bc f0 cb 36 bd
       -0.0015844144 0.00011337361 -0.024869021 -0.044628084
000130 29 49 60 bc 1d 4a c3 3c 62 cf 31 3c f3 5b ef 3c
       -0.013689318 0.02383905 0.010852667 0.02921865
000140 50 d7 16 bd ca 98 19 3c 65 94 f7 bc c3 cb 1a bd
       -0.03682643 0.009374807 -0.030222127 -0.03779198
000150 7c 9e c4 bb 8d 6c af 3c 5e 43 82 bc a0 02 95 bc
       -0.006000338 0.021414066 -0.015901264 -0.018189728
000160 cc e4 5d 3c 17 29 83 bb c5 3f a8 bc 76 b3 fa ba
       0.013543319 -0.004002701 -0.02053822 -0.001912697
000170 76 64 8c bc aa 22 10 3d c0 9e ef bc 95 c4 af bc
       -0.017137747 0.03518931 -0.029250503 -0.021456042
000180 be bb 22 bd 21 2e 31 bd f5 c9 02 3d 95 a1 f2 3c
       -0.039729826 -0.043256883 0.031930882 0.029618064
000190 a6 fe 1c 3c 45 e4 29 bd 2c 6d f6 3c fa 4d 0a 3d
       0.009582197 -0.04147746 0.030081354 0.03376577
0001a0 7b 0f b5 bb 3c e3 b9 bc 16 a2 17 3d c4 63 c1 bc
       -0.005525527 -0.022691362 0.03701981 -0.023607142
0001b0 8c b0 44 3c 10 b8 ea 3c 6c b2 08 bd a3 63 31 bc
       0.012004983 0.028652221 -0.03337328 -0.010826978
0001c0 4b 46 0c 3d dc bb 9a bc c8 86 e4 ba 85 b6 ef ba
       0.034246724 -0.018888406 -0.0017435187 -0.0018288648
0001d0 7d af e5 3c e2 d4 d3 bc 16 10 20 3c a5 a7 c1 bc
       0.02803778 -0.025858346 0.00976946 -0.02363951
0001e0 06 9d 2c 3d 48 5a 2a 3d 8c fd a1 3b b1 bf 2f 3d
       0.042141937 0.041590005 0.004943555 0.04290742
0001f0 a6 23 d2 bb 0c 6f c2 bc 16 27 b1 bc 83 86 0b 3a
       -0.006412941 -0.023734592 -0.021625083 0.0005322473
000200 17 d6 65 bc 4a eb aa bb e8 f4 11 bd 8e be 28 bd
       -0.014028094 -0.005216037 -0.03563395 -0.041197352
000210 82 3e 0a 3b 74 16 02 3d 8e 34 19 bd af 9d 96 3c
       0.0021094386 0.031759694 -0.037403636 0.018385736
000220 d7 a5 19 3d 29 85 c0 3c eb 8d 5d bc ec fd 29 bc
       0.037511673 0.023500996 -0.013522605 -0.010375481
000230 1b 90 c1 bc 12 1f 37 bd 5e 71 0d bd d7 78 1d bd
       -0.023628285 -0.044707365 -0.034531944 -0.03844532
000240 90 f0 78 bc 01 f1 13 bd 3c 9d 32 bd 1b c1 8d 3c
       -0.015194073 -0.03611851 -0.04360698 0.017303994
000250 38 26 39 bb 3d 96 97 3c cf 58 f1 3c 31 a5 8d 3c
       -0.002825154 0.018504256 0.029461293 0.017290683
000260 09 15 44 3c 2e 26 7a bc 35 ed 16 3d 41 2f 2d bd
       0.011967906 -0.015267892 0.036847312 -0.042281393
000270 55 fb ea bb c1 06 00 3c c0 77 80 3b bc 1b 0b 3d
       -0.0071710744 0.00781411 0.0039205253 0.033961996
000280 dc 1e 0a bc 63 67 a2 bc 07 3f c4 bb 37 63 01 3d
       -0.008430209 -0.01982469 -0.0059889588 0.03158876
000290 da 82 34 bd eb 0c ea ba 9a 7d c4 3c da ba 02 3d
       -0.044070102 -0.0017856633 0.023985673 0.031916477
0002a0 72 b9 24 3d 0d 50 a1 bc 22 64 11 3d 89 73 19 bd
       0.040215917 -0.019691491 0.035495885 -0.0374637
0002b0 79 d2 a8 3c af 14 22 3d ea ec a1 bb a9 be 35 bc
       0.020608174 0.039570507 -0.0049415724 -0.01109282
0002c0 d5 01 63 3c c8 3c b0 3c 88 17 10 bd 18 52 68 3b
       0.013855417 0.021513358 -0.03517869 0.0035449322
0002d0 69 62 6c bc 5c 1f b5 bb 52 9c 3c bb 3e 53 8d bc
       -0.01442776 -0.00552742 -0.0028779698 -0.017251607
0002e0 cc 4a be 3c f0 12 c3 bc cf 27 b9 bc 16 19 21 bd
       0.023229025 -0.023812741 -0.02260199 -0.039330564
0002f0 9b 4a 12 bc a2 78 21 bd c3 75 da bc 21 34 b4 3c
       -0.00892892 -0.039421685 -0.026667481 0.021997513
000300 32 28 1f 3d 61 10 8e bc 61 84 15 3c ad af f9 3c
       0.038856693 -0.017341794 0.0091258 0.030479277
000310 f5 4a 8d bc c5 c5 f6 bb cd 75 ee bb fc cc d2 3b
       -0.017247656 -0.0075309 -0.0072772265 0.0064331274
000320 a0 46 43 bb 7a 5a 2d 3d 12 3f 09 bd cc ac 88 3c
       -0.0029796734 0.042322613 -0.033507414 0.016683958
000330 ca aa 9e bc 39 10 f0 bc e8 24 21 bc f1 6b 7e 3c
       -0.019368548 -0.02930461 -0.009835459 0.015528665
000340 a2 c0 28 bd f5 f4 8b ba da c3 0f bd de 9b c4 3c
       -0.041199334 -0.0010677861 -0.035098888 0.024000105
000350 de 0a 28 bc f8 5f 06 3c ed a2 de bb d8 1a ad bc
       -0.010256497 0.008201592 -0.0067943246 -0.021130964
000360 98 78 87 3b 91 90 e8 bc 7d e8 04 3d 01 83 05 3d
       0.004134249 -0.028389247 0.03244828 0.03259564
000370 3c e6 00 bd a7 af 27 3d 81 03 19 3d 18 69 fa bc
       -0.03146957 0.040939 0.037356857 -0.03056769
000380 65 12 6d 3c 20 ae 78 3c 5c ff 9f 3c 9d 6e 25 3c
       0.014469718 0.015178233 0.019530945 0.010097173
000390 6b c1 0a bd 36 29 2d bc 20 e2 04 bd 75 83 19 bd
       -0.033875864 -0.0105689075 -0.032442212 -0.037478883
0003a0 d9 8d 00 bd c5 3f 67 bc 83 b1 f3 3b f7 2d cd bc
       -0.031385276 -0.014114325 0.0074369325 -0.025046332
0003b0 ca 14 16 3d f7 79 15 3d 06 43 1c 3d b8 a0 e5 bc
       0.03664092 0.036493268 0.038149856 -0.028030738
0003c0 92 23 c3 3c aa e0 11 3d b9 89 3c 3b 71 8f 2b 3d
       0.023820672 0.035614647 0.0028768613 0.041884843
0003d0 a1 16 01 3d 9e 7f 80 bb a0 af e8 3c 52 66 2a 3d
       0.03151572 -0.003921463 0.028404057 0.041601487
0003e0 b0 0c fe bc 0d 48 8c 3c 52 7c ed bc c3 b2 24 3d
       -0.03101191 0.0171242 -0.028989945 0.040209543
0003f0 23 da 2f 3c 1c 76 e8 bb 75 92 1c bd 51 48 01 bd
       0.01073316 -0.007094158 -0.03822561 -0.031563107

layer3.weight f4 [57, 256]
000000 52 b2 ed 3c 99 f1 e0 bb 9a f1 59 bd 45 c6 5b b9
       0.029015694 -0.006864738 -0.053208925 -0.00020959329
000010 4e 79 d1 bc d9 29 46 3d 1a 12 70 bd b4 15 31 3d
       -0.025570538 0.048379753 -0.058611013 0.04323359
000020 a6 52 9c bc 1a b0 32 3d bc 45 cd 3c 35 e0 3e 3d
       -0.019082379 0.043624975 0.025057666 0.04660054
000030 41 7c a7 3c ef cf ba bc 0d f7 58 bd 5f 2f 51 bc
       0.020444991 -0.022804229 -0.05296998 -0.012767642
000040 ea 79 8a 3b a0 bb b9 bb c2 1b 96 3c ff 61 43 bd
       0.004225959 -0.0056681186 0.018323783 -0.04770088
000050 9c 05 56 3d 5b 86 8c bc db 0b 66 3d 02 65 d7 bc
       0.052251443 -0.01715391 0.05616365 -0.026293281
000060 6d c3 22 3c f9 8f a9 3b de 6b 53 bd a5 4e 4a bd
       0.009934288 0.0051746336 -0.051616542 -0.049391408
000070 a1 49 ef bc 08 35 06 bd 59 f3 96 bc 89 bb e6 bc
       -0.029209914 -0.03276542 -0.018426584 -0.028165596
000080 03 8d 84 ba 57 75 ce bb c7 c2 1c bc da 04 09 bd
       -0.0010112826 -0.006300609 -0.009567923 -0.033451892
000090 a4 14 9f bc 8b 87 75 bd c4 6a 36 3d f7 b8 51 3b
       -0.019419022 -0.059943717 0.044535413 0.0032001117
0000a0 d9 2b 40 3d 65 21 1f 3d 3f e4 f8 3c b4 be 51 3d
       0.046916816 0.038850207 0.030382274 0.05120726
0000b0 97 86 27 bc 20 13 5b bc f1 15 63 bd 67 b9 89 bc
       -0.01022496 -0.013371259 -0.055440847 -0.01681204
0000c0 95 aa 26 bd 08 81 77 bd ab 20 65 bd e3 c3 5e bd
       -0.040690023 -0.06042579 -0.055939358 -0.05438603
0000d0 48 5f b0 bc 46 6e dd bc da 1d 9d bc 3d 1d 5c bd
       -0.021529809 -0.027030122 -0.019179273 -0.05373882
0000e0 60 ab 4a bc c8 21 55 bd f3 84 b4 3c f3 17 67 3d
       -0.012369961 -0.05203417 0.022036051 0.056419324
0000f0 32 e4 0f 3d e8 4d 73 3d 4c bb 30 bd a6 e4 4c bd
       0.035129733 0.05940047 -0.04314737 -0.050022744
000100 f1 a9 2c bc 32 db be 3c e4 21 b7 bc 7c fa 03 3d
       -0.010538564 0.02329788 -0.022355027 0.032221302
000110 e9 b0 2a 3d e0 da 6b bd 7c 23 11 bc e6 89 07 3d
       0.04167262 -0.057581782 -0.008858558 0.033090495
000120 d5 4f e8 3c d0 a1 73 3d a5 49 a7 bc e4 5e f0 3c
       0.02835838 0.05948049 -0.020420859 0.029342122
000130 0e fa d5 3c cb b0 3d 3d 6c f1 39 3c cd fb 29 bd
       0.026120212 0.04631118 0.011349063 -0.0414999
000140 ae 73 6a bc fc 28 a9 bc 16 1e 5f bd 94 3b b6 3c
       -0.014309807 -0.020649426 -0.05447205 0.022245206
000150 c6 2d 68 3c 2d 12 1d bd 58 65 f5 bc c9 d5 56 bd
       0.0141710695 -0.038347412 -0.029955551 -0.052449975
000160 b0 41 63 3b 60 44 75 bc a1 f2 60 bd b5 07 60 bc
       0.0034676604 -0.014969915 -0.05491889 -0.0136737125
000170 45 13 ce 3c 71 64 db 3c 13 bd 42 bd ae 50 0d 3d
       0.025155673 0.026781293 -0.047543596 0.03450077
000180 08 ab 72 3c 08 8e 2e 3d 35 c4 3d bd 4e 87 13 3b
       0.014811285 0.04261592 -0.046329696 0.0022511068
000190 d4 fe b2 b8 2e ef 3f bd 35 7d 1e bd b3 56 04 bc
       -8.535167e-05 -0.04685896 -0.038693625 -0.008077311
0001a0 4c 88 03 bd df ea 4c 3c 80 63 2a bd 4d 1f ab bc
       -0.032112405 0.0125071695 -0.041598797 -0.020888949
0001b0 97 20 49 bc 21 0a 90 bc 3f 8a 42 bc 8f f3 09 3d
       -0.012275836 -0.017582955 -0.011873781 0.03367954
0001c0 9e fb 6f bd f9 46 27 bd 54 bf 51 bd ac da 30 bd
       -0.05858957 -0.04083917 -0.051207855 -0.04317729
0001d0 2a 82 e6 3c 9e 10 b4 3c c1 2d 9a 3c a1 ea 3e 3d
       0.028138239 0.02198058 0.018820645 0.04661048
0001e0 53 98 88 3c 6c 09 54 3d 59 05 3c 3d f9 a1 25 3b
       0.016674196 0.051766798 0.045903537 0.0025273545
0001f0 25 e8 0d bd 69 9e 05 bd b8 3f eb bc bd 51 db bc
       -0.03464522 -0.032621775 -0.028716907 -0.026772374
000200 7b 9a fa bc ff 33 7e 3d e5 73 5b 3b 5a 41 d7 bc
       -0.03059124 0.062061306 0.0033485827 -0.02627628
000210 51 d5 0e bd 93 b6 72 3d 5e 1a 99 3c 0b 57 c6 3c
       -0.034871403 0.059256148 0.01868933 0.024211427
000220 44 ec 10 3d e3 cd 10 3d 6b db 0c bd 0c ae 3a 3d
       0.03538157 0.0353526 -0.03438894 0.04557614
000230 e9 24 65 bd f0 ef 67 bc 13 52 5f 3d b4 30 ce bc
       -0.055943403 -0.014156327 0.05452163 -0.025169708
000240 f4 c3 f3 3c 92 c8 53 3c 0d 72 df bc 53 c1 f8 3c
       0.029756524 0.012926238 -0.027276063 0.030365622
000250 8d a5 11 3d f9 40 5e bd e8 99 06 3b 2d ec 20 3d
       0.035558272 -0.05426118 0.0020538513 0.039287735
000260 b8 df 16 bd 51 c9 0f bd ba e9 e5 3c 86 a7 10 bd
       -0.03683445 -0.0351041 0.028065551 -0.035316013
000270 50 d5 3c bd f3 cb af bb 8c 5c 75 3d 2e 26 d4 3c
       -0.04610187 -0.005364889 0.059902713 0.025897112
000280 69 95 79 bd 77 75 80 bd 0b 08 f7 bb b0 9f 14 bd
       -0.060933504 -0.06272405 -0.0075388006 -0.036285102
000290 94 b3 0f bc 4a 33 d7 bc 40 d8 4e 3d 21 4c 1d 3d
       -0.008770842 -0.026269574 0.0504992 0.03840268
0002a0 b6 74 25 bc 69 c7 a5 3c 7e 0a 75 bd 37 a8 85 bc
       -0.010098627 0.020236688 -0.05982446 -0.016315563
0002b0 0c 8f 4c 3d 79 34 ac bb f9 ee 27 bd a7 07 07 3d
       0.049941108 -0.0052552787 -0.040999386 0.032966282
0002c0 9f 39 5f 3d cb 5e 00 3c 42 a7 95 bc 8b dd c5 3c
       0.05449831 0.0078351 -0.018268231 0.024153491
0002d0 36 8f 5e bd 25 87 7d 3b f3 e9 fe 3c 13 72 81 3c
       -0.054335795 0.0038685289 0.031117415 0.015801465
0002e0 be e2 48 3d c0 08 38 bd 62 35 92 bc 2f 19 82 bd
       0.049044363 -0.04493022 -0.01784772 -0.0635246
0002f0 d3 9d f1 bc f5 3a 07 3d fa c4 67 bd 34 e7 5e bb
       -0.029494202 0.03301521 -0.056584336 -0.003401232
000300 3d 87 05 3d 9f 47 5b bd 69 61 d4 bc 46 d8 32 bc
       0.032599676 -0.0535351 -0.025925355 -0.010915821
000310 a9 b9 25 bd 7b 87 7f bd ef d8 eb 3b 7a 50 c9 3c
       -0.040460262 -0.062385064 0.0071974914 0.024574507
000320 05 86 cd bc 00 56 15 3d 8e bf e6 bb 1f a7 03 3d
       -0.02508832 0.03645897 -0.007041878 0.0321418
000330 83 56 3d bd 12 31 38 3d a8 23 34 3d 32 06 6b bd
       -0.046225082 0.044968672 0.043979317 -0.057378955
000340 28 70 55 bd 72 39 93 bc d9 70 94 bc 28 ea 2f 3d
       -0.052108914 -0.017971728 -0.018120216 0.04294792
000350 5a 41 d1 bb e5 f4 d8 3b fe 04 f5 bc 94 26 6b bd
       -0.0063859643 0.0066209906 -0.029909607 -0.057409838
000360 17 b9 5a bc 69 9f d3 3c a3 4d 2f 3d bb 4a ac 3c
       -0.013349793 0.025832849 0.04279865 0.021031728
000370 74 e7 67 bd d2 05 1a bd 87 9e a8 bc aa 07 9c 3c
       -0.056617215 -0.037603207 -0.020583404 0.019046623
000380 8c 1e bc 3c b3 9e 2b bd 52 95 54 3c 78 8f 70 bd
       0.022963785 -0.041899394 0.012975054 -0.058730572
000390 72 55 45 bd d5 21 09 3d f9 49 a1 3b 9d a4 8f 3b
       -0.04817719 0.03347953 0.0049221483 0.004383637
0003a0 71 1a 69 3d 6c 16 2c bd 6f a6 fb bc 8f ba 11 ba
       0.056909982 -0.04201357 -0.03071901 -0.00055591104
0003b0 d4 71 77 3d 76 a3 6b bd c9 15 28 bd c1 d9 23 3c
       0.06041129 -0.057528935 -0.0410364 0.010000647
0003c0 52 39 56 3d 07 5e 86 bc 14 6b ea bc 35 63 6b 3d
       0.05230076 -0.016402258 -0.028615512 0.057467658
0003d0 fa b9 70 3c 77 32 23 bd d7 11 2a 3d 85 8b 60 3d
       0.014692778 -0.03984305 0.04152092 0.054820556
0003e0 12 5d 92 3c 2e 37 86 3c 5e fc 93 bb d5 a9 b6 3c
       0.017866645 0.016383734 -0.0045161685 0.02229778
0003f0 93 28 5b 3d 78 c9 38 bd dd 0c aa bc dd 47 5e bc
       0.05350549 -0.04511401 -0.020758087 -0.013566938

layer3.bias f4 [57]
000000 34 37 8a bc 67 f8 50 bd ce 94 b2 bc 07 a7 63 3b
       -0.016872026 -0.051018145 -0.021799471 0.0034737007
000010 00 f5 37 3d 52 85 4e 3c c2 c5 fc 3b 16 5a 4b 3d
       0.044911385 0.012605028 0.0077140043 0.04964646
000020 26 9f 85 3c 08 ba 0c 3d 5f b8 0a 3d af 75 48 3d
       0.01631124 0.0343571 0.033867236 0.048940357
000030 44 0a 7c 3a 6c 0d 30 3d ff 2d 17 3d 7b e0 5c bd
       0.0009614567 0.04298155 0.0369091 -0.05392502
000040 67 1a 66 bd cb 23 68 3d 7e 89 e3 bc 12 00 fd 3c
       -0.056177523 0.05667476 -0.027775522 0.030883823
000050 2e 11 52 3d fc 6a 33 bd 78 99 61 3c 4c 5d 65 bc
       0.051285915 -0.0438032 0.0137695 -0.0139992945
000060 f4 85 7e bc f9 a8 01 bc 22 29 e1 bc 31 58 82 ba
       -0.015534867 -0.007913821 -0.027485434 -0.0009944496
000070 0b 52 4b bb 8a ee aa bc dc e6 3e 3d dc 9f f1 3c
       -0.0031024243 -0.020865697 0.046606883 0.029495172
000080 79 e9 6e 3d d1 2c 3d bd c7 ee 87 bc 58 f4 5c 3d
       0.058328126 -0.04618532 -0.01659335 0.05394396
000090 9d b1 1d 3d 32 d8 17 3d 15 09 87 bc 0b e9 d9 ba
       0.038499463 0.037071414 -0.016483823 -0.0016625238
0000a0 76 2d 75 bd f2 1d 04 bd cf 91 92 ba fb d9 e0 bc
       -0.059857808 -0.03225512 -0.001118237 -0.027447691
0000b0 ed a4 75 3d be 8a ce 3b 4f af f7 3c 1a e3 55 bd
       0.05997174 0.0063031605 0.03023496 -0.052218534
0000c0 08 13 11 3d b0 39 5d 3d f7 e4 ab 3c e6 b3 c1 bc
       0.03541854 0.054010093 0.020983202 -0.023645353
0000d0 3d 11 5c 3d 15 75 4b 3d 65 f1 2b bd a2 94 69 bc
       0.053727377 0.049672205 -0.04197826 -0.014256628
0000e0 2f 99 49 3d
       0.049218353
