results/models/dqn/best_model_ep1_2024-11-21_00-03-50.pt (torch, 613462 bytes, 6 tensors)

layer1.weight f4 [512, 12]
000000 a3 e7 40 3e 35 45 8e 3e 15 06 33 bd 63 da 81 3e
       0.18838362 0.27787176 -0.043706972 0.25361928
000010 16 ac e9 bd d8 41 0d 3d 71 d2 ed bd 28 d0 21 3e
       -0.11409776 0.03448662 -0.11612404 0.15802062
000020 87 7a 6a 3e 2b 51 3f be 09 5a 67 3e 6c b0 fb 3c
       0.22898303 -0.18683307 0.2259294 0.030723773
000030 3f ba 3b 3e 0c 1e 87 3d 72 da 2f 3e 53 6b 39 bd
       0.18332766 0.06597528 0.17173174 -0.045268368
000040 bb 55 44 3e 7f 8f 13 3c df 70 cd bd 50 b8 8b 3d
       0.19173329 0.00900638 -0.10031294 0.06822264
000050 96 db 0e be f8 b8 d3 b8 7f f3 14 be af c8 25 3e
       -0.13950953 -0.00010095717 -0.14546011 0.16189836
000060 24 ce 30 be 5e cb a9 bd c6 c9 94 bd 54 52 11 be
       -0.17266136 -0.08290742 -0.07265048 -0.14191562
000070 5b 88 90 3d 02 61 81 be f7 1c 93 3e 5c 1a 5e be
       0.07057258 -0.25269324 0.28733036 -0.21689743
000080 bb 2e 89 3e 60 2c a1 3b 28 58 68 bd ba 41 5a 3e
       0.26793465 0.00491862 -0.056724697 0.21314135
000090 f5 fd a6 3c 6b 60 82 3e c1 74 72 3d 2d a1 c4 bd
       0.020384768 0.25464186 0.059193376 -0.09601054
0000a0 db c0 49 3d 38 0b d8 bd 5b 02 18 3e 53 05 7c 3e
       0.049256187 -0.10549015 0.14844649 0.24611406
0000b0 b5 cd 1b 3e 03 90 c7 bd cf a2 0f 3e f4 d1 11 3d
       0.1521519 -0.09744265 0.1402695 0.035600618
0000c0 77 02 0c 3e bd 7f 1d be 28 74 8e be 06 8a ff bd
       0.13672815 -0.1538076 -0.27822995 -0.12477498
0000d0 07 44 57 be f6 25 6b 3e 0b 4a b4 3d 46 e3 e0 3d
       -0.21022044 0.229637 0.08803185 0.10980849
0000e0 ad f7 a5 3d 76 b5 00 3a 89 9e 58 3e fc 7b 5d be
       0.08103881 0.0004909852 0.21154226 -0.21629328
0000f0 c5 e7 99 3d 76 ae 18 be 92 d6 83 3d ea 58 aa bd
       0.0751491 -0.14910302 0.064374104 -0.0831774
000100 a7 32 00 3e 7e d8 2f bd 45 b5 7e 3e 7f 82 26 be
       0.12519322 -0.042931072 0.24873836 -0.16260718
000110 29 81 03 be 3c d5 b7 be 95 09 91 3e ab fb f6 3d
       -0.1284224 -0.35904872 0.28327623 0.120597206
000120 e8 1d 84 3e 13 e6 6c be db 3f 8e be 62 e9 89 be
       0.25804067 -0.23134641 -0.27783093 -0.2693587
000130 cc 3a 39 be cb 31 e0 3d 19 77 df 3d 75 ba 45 3e
       -0.18088835 0.10946997 0.10911388 0.19309409
000140 78 fd 36 be 6a 70 41 be 43 f2 0b 3e 46 c7 0f be
       -0.17870128 -0.18890539 0.13666634 -0.1404086
000150 5a 45 39 3e 06 e5 79 bd 3a 10 2f 3e 14 d5 5c be
       0.18092862 -0.06100943 0.17096034 -0.21565658
000160 23 f2 0c be 58 11 c2 3d 1e d8 89 3d 84 28 87 bd
       -0.13764243 0.09475964 0.06730674 -0.065995246
000170 c8 17 36 3e 9b ef 4d 3e 75 bc 4d be 18 96 15 be
       0.1778251 0.20110933 -0.20091422 -0.14608037
000180 25 9f a5 3e 36 e8 1c bd b2 42 d2 bd 80 a9 7e be
       0.3234798 -0.03830739 -0.10266627 -0.24869347
000190 13 69 ed bd a6 01 cb 3d 8e 21 51 bc 74 60 3e be
       -0.11592307 0.09912424 -0.012764348 -0.18591481
0001a0 fc 8c 73 3d 5e 8a 8d be 3e d9 51 be e3 c4 f5 bd
       0.059460625 -0.27644628 -0.20493028 -0.12000444
0001b0 a2 ec 58 be 78 57 16 be 72 bc 96 3e a3 72 9e 3d
       -0.21184018 -0.14681804 0.29440647 0.07736709
0001c0 77 6e f9 3d e4 07 7c be 6c 02 2e be 3e 03 9b bd
       0.121792726 -0.24612385 -0.16993111 -0.07568978
0001d0 b9 5b a6 3d 28 c1 91 be 3c 69 c3 bd 97 4b 13 be
       0.081229635 -0.2846768 -0.09541556 -0.14384304
0001e0 7f 72 05 3d cc b0 a2 bd 9b d1 3f bd 89 12 45 be
       0.032579895 -0.079438776 -0.046830755 -0.19245352
0001f0 20 05 35 be f5 26 2c be 98 e1 cd bd 55 a8 6c be
       -0.17677736 -0.16811736 -0.10052794 -0.23111089
000200 59 a5 87 3e eb 9e 30 be 7e 3e 83 3e d3 02 ca 3d
       0.26493338 -0.17248122 0.25633615 0.0986382
000210 bc 86 75 be f8 2f 51 3e 81 c3 30 bd e9 5d b7 bd
       -0.23977178 0.20428455 -0.043155197 -0.08953459
000220 1a 86 68 be 63 b5 87 be 89 f6 d3 3d 65 31 1d bd
       -0.22707406 -0.26505575 0.10349757 -0.038377184
000230 d7 10 f7 3d ab 7d 01 be b4 cf 69 3e e1 54 47 be
       0.12063759 -0.12645595 0.22833139 -0.19465972
000240 7b db e7 bb 68 61 c2 3d 48 01 07 3e 3b 39 78 3e
       -0.0070757247 0.09491235 0.13184083 0.24240582
000250 2f 0d 93 3e f0 eb 61 be be 48 a0 3d 04 d2 ee bd
       0.28720996 -0.2206266 0.078263745 -0.11661151
000260 f6 2f 33 3a 60 94 74 be ff 86 8e 3e 8f ef 45 be
       0.0006835455 -0.23884726 0.2783737 -0.19329666
000270 35 ad 42 3e 25 39 06 3e a9 38 94 3d d5 a1 18 be
       0.19011386 0.13107736 0.072373696 -0.14905484
000280 01 d7 90 3e eb f6 7d 3d 53 32 1c 3d 76 ed 80 be
       0.28289035 0.062003057 0.03813393 -0.25181168
000290 c7 19 18 3e c1 47 90 bd 2f b8 f1 bd 29 a2 84 3e
       0.14853583 -0.07044936 -0.11802708 0.25904968
0002a0 ba 3e 5c 3d 60 64 26 be ae 5c c0 bd 31 7c fd 3b
       0.05377076 -0.16249228 -0.09392677 0.007735752
0002b0 d6 27 2a 3e 0f 09 57 bd 57 8a 10 be 19 ea 91 bd
       0.16616759 -0.052498873 -0.14115272 -0.07124729
0002c0 a4 db 58 be a5 56 7a 3e ef 01 72 3e 12 92 82 be
       -0.21177536 0.24447115 0.2363355 -0.25502068
0002d0 52 cc 80 3d c8 79 0d 3e ef e3 7c 3d bf 28 bd bd
       0.06288971 0.13815987 0.061740812 -0.09236287
0002e0 5e 58 0f 3e e6 5e 10 3e 03 62 ef 3d 57 a9 26 bd
       0.13998553 0.14098701 0.11688616 -0.04068884
0002f0 44 b9 87 bd 3e 80 25 3d 2e 44 6f bd e9 c2 b7 bd
       -0.066271335 0.040405504 -0.05841463 -0.08972723
000300 86 c7 2c 3e 3f 23 73 3e ec e8 a6 3a d3 62 4c bd
       0.16872987 0.23743914 0.0012734211 -0.049898934
000310 79 c1 41 3c 00 ff 3e bd c6 ba c9 3d a1 f8 bf 3d
       0.011825913 -0.046629906 0.09850077 0.09373594
000320 b2 a7 74 be d4 ef 9b bd e4 fd 62 3e 0b 52 c4 3d
       -0.23892096 -0.07614103 0.22167164 0.09585961
000330 62 f8 39 bd e4 ef 22 be 05 d9 20 be c4 bd 85 be
       -0.045402892 -0.15911824 -0.15707786 -0.26121342
000340 0b fe b0 bd 3b bc a0 3d 1b d5 4d 3e da c1 06 3e
       -0.08642205 0.07848402 0.20100825 0.13159886
000350 20 03 83 be 6a c6 1d be ad c5 90 bd 2a 8a 7a 3e
       -0.25588322 -0.1540772 -0.07068954 0.24466768
000360 e7 74 4a bc 59 1b f5 bd 09 33 18 3e 20 58 ed bd
       -0.012356973 -0.11968107 0.14863218 -0.11589074
000370 de 54 60 be 06 69 4d 3e 03 30 07 be 6c e0 61 bd
       -0.21907374 0.20059595 -0.13201909 -0.055145666
000380 9a 0e a6 be 5f 9c b4 3e c0 22 4a 3e 66 79 ae 3d
       -0.32433015 0.35275552 0.19739819 0.08519249
000390 57 17 4d be 55 d0 93 be 88 4c 6d be 87 2c 56 3e
       -0.20028435 -0.28869882 -0.23173726 0.20915423
0003a0 ee 3d 06 3e d9 bd 75 3e 03 d8 1a 3e c0 b2 9b 3d
       0.13109562 0.23998202 0.15121464 0.07602453
0003b0 c3 50 ab 3b a5 1a 5e be c7 0c 82 be f8 ac 88 be
       0.0052281334 -0.21689852 -0.25400373 -0.26694465
0003c0 3a 08 e6 3d 33 29 10 be d4 bf 8c bc 21 93 12 be
       0.11232038 -0.14078216 -0.017181315 -0.14313938
0003d0 23 ec 37 bd d1 7f 36 be 02 28 25 be 3e 53 f9 3d
       -0.044902932 -0.17822196 -0.16128543 0.1217408
0003e0 cb 87 a7 bd ac 0a 8d 3e 61 4d 9e bd 0a 06 48 be
       -0.08180197 0.27547204 -0.077296026 -0.19533554
0003f0 1d 8e 32 bc 1b a5 ea bd 45 b3 03 be ce 2e 88 be
       -0.01089814 -0.114572726 -0.12861355 -0.2659821

layer1.bias f4 [512]
000000 a1 1e 80 be f9 e0 a4 3c 96 07 be bd 6f 7b 41 3e
       -0.25023368 0.020126807 -0.09278791 0.18894742
000010 dd a1 94 be c2 d3 81 bc 38 9a f5 3d ec c3 f7 3c
       -0.29029742 -0.015848044 0.119923055 0.03024479
000020 42 40 eb bd f0 da 77 3e b1 6b 6c be f0 95 80 3e
       -0.114868656 0.24204612 -0.23087956 0.25114393
000030 e1 a4 78 3d fa 81 fe 3d de d3 3f 3e a8 bf 99 3c
       0.060704116 0.12427135 0.18733165 0.018768147
000040 82 25 47 3a a6 6a 9c bd bc e9 75 be a0 1b f5 3d
       0.00075968367 -0.07637529 -0.24014944 0.1196816
000050 c4 f9 4b 3e 41 94 e7 3d 30 24 7e bd 40 cc 96 be
       0.19919497 0.11307574 -0.06204623 -0.29452705
000060 ca c1 04 bd ed 01 8d 3d 62 b3 65 be ee b0 5e 3e
       -0.032411374 0.06885133 -0.2243171 0.21747181
000070 a8 66 37 bd aa db 92 3d 38 10 63 3e e4 55 fe 3d
       -0.044775635 0.07170804 0.22174156 0.12418726
000080 2b 79 36 be 4b c7 c5 3d 28 80 22 3e 66 ff e9 3d
       -0.1781966 0.09657153 0.158692 0.114256665
000090 24 46 2a be 59 2a cb 3b 83 ed 5e be 8a a7 ab bc
       -0.16628319 0.0062001166 -0.21770291 -0.020953912
0000a0 41 eb 6c be d6 44 35 3e e9 fa 75 3e 03 56 8b be
       -0.23136617 0.1770204 0.24021496 -0.2721406
0000b0 36 86 18 be 5c 95 05 be 2a 7e 4d be 54 79 79 3e
       -0.14894947 -0.13045257 -0.20067659 0.2436269
0000c0 b4 d5 73 be 4b a0 33 be 50 f8 8f be 3a 14 cc 3c
       -0.2381199 -0.17541616 -0.28119135 0.024911989
0000d0 29 82 6d be ea 33 53 be ef b7 89 3e d5 da ec 3d
       -0.23194183 -0.20625272 0.26898143 0.115651764
0000e0 ec 8c c3 3d f5 42 4b 3e 7b d4 c0 3c a1 3d c6 3c
       0.09548363 0.19849761 0.023538819 0.024199309
0000f0 9d 37 66 be 87 dd 34 3d 34 2f 6e be a9 47 28 bd
       -0.22482152 0.044156577 -0.23260194 -0.041083965
000100 8b 04 41 be 99 90 02 be 47 1a 13 be 28 8b 18 be
       -0.1884939 -0.12750472 -0.14365493 -0.14896834
000110 2c b0 46 be 6e 17 38 be ce c5 d4 bd 14 2b 82 be
       -0.19403142 -0.17977688 -0.10389291 -0.2542349
000120 eb d4 75 3e 0f 45 b2 3d 82 f3 8e be a0 fb 96 be
       0.24007003 0.08704578 -0.27920157 -0.2948885
000130 42 e0 e3 bd 4d 0e e1 3d a5 f9 60 3e e1 d7 88 bd
       -0.11126758 0.10989056 0.21970232 -0.06681801
000140 61 6a 2c 3e fa 3c 27 be 66 d8 95 bd 6d 4a 9e bd
       0.16837455 -0.16331854 -0.07316665 -0.07729039
000150 6e 98 96 be 8a 55 e4 bc 34 d2 a2 3d 09 3b 21 3e
       -0.2941317 -0.02787282 0.07950249 0.15745176
000160 5b 8a 6e be 41 b2 d6 bd 15 39 8e 3c c9 0b f9 3c
       -0.23294966 -0.10483218 0.017361203 0.030401127
000170 54 e3 1f 3d 61 1c 77 be 3f 14 70 3e 67 16 88 be
       0.039035156 -0.2413192 0.23445223 -0.26579592
000180 0a 77 f5 bd fb 59 06 3e 46 42 f3 bd 52 31 38 be
       -0.119855955 0.13120262 -0.11877875 -0.17987564
000190 f0 82 80 be 26 4e 42 3e 56 6c ed bb 6b 67 1b 3e
       -0.25099897 0.18975124 -0.0072455807 0.1517617
0001a0 93 9f a7 3d d6 ed 5f be 93 e4 fb bd 5a 14 4d 3e
       0.08184733 -0.21868071 -0.122994564 0.20027295
0001b0 72 95 ea bd 80 37 07 be 86 cb 3b 3e 1b 85 19 be
       -0.11454286 -0.13204765 0.18339357 -0.14992182
0001c0 7a cb 9c 3b bc 4f 2a be d6 dd 90 3d da 61 1b 3c
       0.0047849985 -0.16631979 0.07073562 0.009483779
0001d0 17 11 7b be bd bf 64 be 6a c5 cb 3d f9 37 c0 bd
       -0.24518238 -0.22338767 0.09949763 -0.09385676
0001e0 ff bb 02 3e c3 56 b7 bb d2 85 e2 bd 10 9a a4 bd
       0.12767027 -0.0055950596 -0.110606804 -0.080371976
0001f0 51 7f 19 be 2b 0b 32 3e 62 47 44 3e ed 5a c1 bc
       -0.14989974 0.17387073 0.19167855 -0.023602927
000200 42 f9 31 be 42 7e 42 3e 8b b8 7a 3e e2 ad 30 3e
       -0.1738024 0.18993476 0.2448446 0.17253831
000210 10 b6 a9 3c b6 7f 4a 3d a8 04 c0 3a 1f 7e f2 bd
       0.020716697 0.0494382 0.0014649825 -0.11840462
000220 3c f3 95 be 7c 3f 85 bd e3 01 ed 3d d1 8d 17 3e
       -0.29287136 -0.06506249 0.115726255 0.14800192
000230 f1 89 3b 3d 15 3b fd 3d 82 63 3c 3e 8d 15 91 bd
       0.045785848 0.12364785 0.18397334 -0.070841886
000240 df 4b 41 3e 85 10 e4 bc 02 ee d6 bd 9a 86 ff bd
       0.18876599 -0.027839908 -0.10494615 -0.12476845
000250 74 ef 4c be dd b1 7c be 7f 82 34 3d 49 9f 98 3e
       -0.20013219 -0.24677224 0.044069763 0.29809025
000260 48 14 2b 3d fd 7d c8 3c 6b 4c c3 bd 9b 69 e9 bd
       0.04176739 0.024474138 -0.0953606 -0.11397096
000270 0d 06 f9 bd f8 ca d2 3d a1 bf 27 3d ce 94 06 be
       -0.12159357 0.102926195 0.040954236 -0.13142702
000280 b7 78 8b 3d e0 75 46 bd 6b 41 5d bd e8 74 30 3e
       0.06810134 -0.048452258 -0.054017466 0.17232096
000290 37 b6 04 be 8f da 7b 3e 6e f1 34 be c3 8f 74 3e
       -0.12960134 0.24595092 -0.17670223 0.23882966
0002a0 a7 fa c4 3d a7 82 b2 3d db d2 80 bd d1 38 be bd
       0.09618121 0.08716326 -0.062902175 -0.092881806
0002b0 83 20 66 be ae b6 8c be a7 bb 3a 3e 16 ea 88 3e
       -0.2247334 -0.27483124 0.18235646 0.26741093
0002c0 8a 6a 81 3d cd a3 e1 bd 0c db 4c 3d ef d9 2f bc
       0.06319149 -0.11017571 0.050013587 -0.010733112
0002d0 10 94 7e be 06 cb 4a be ca 6f 82 3d b8 ca e8 bd
       -0.24861169 -0.1980401 0.06368978 -0.113667905
0002e0 c0 01 9c bd 41 bb 27 be 02 70 a9 3d 1e a8 32 be
       -0.07617521 -0.16380025 0.08273317 -0.17446944
0002f0 b6 36 d6 bd 23 b4 32 3e 2e 33 82 3e 9e 2b 63 3e
       -0.10459654 0.17451529 0.25429672 0.22184607
000300 7a bc c1 3d f3 ab 7c 3b 2f 55 4b 3e e2 99 7c 3e
       0.09459777 0.0038554638 0.19856714 0.24668077
000310 86 54 10 3e 94 bc 47 3d 4e 60 1f 3d 51 33 26 bc
       0.14094743 0.048763826 0.038910203 -0.010144071
000320 b0 14 2c 3e ca 63 94 3d 8e 3b 81 be 0b 99 3c be
       0.16804767 0.07245596 -0.2524075 -0.18417756
000330 57 a3 83 be d8 65 b0 bd ec dd 2f bc 57 46 fc bd
       -0.25710556 -0.08613175 -0.010734063 -0.12318104
000340 2b 7c 95 be 3f 57 4b be 7a 84 0b 3e 5e 63 0e bd
       -0.29196295 -0.198575 0.13624755 -0.034762733
000350 07 5f 80 bd 13 6c 32 3d 32 89 92 bd 53 19 29 be
       -0.06268125 0.0435601 -0.07155074 -0.16513567
000360 fa b1 03 be 38 d6 0c be 96 33 8d be 96 e4 8f be
       -0.12860861 -0.13753593 -0.2757842 -0.28104085
000370 13 36 13 be 21 49 a5 3d 06 84 7f 3e 71 94 87 bc
       -0.14376096 0.08070589 0.24952707 -0.016550275
000380 a7 68 48 3e a5 8e a1 3d 4d bb 69 be 5b b2 e3 bd
       0.19571172 0.078885354 -0.22825356 -0.11118003
000390 82 0b a1 bd 24 e1 71 be bd 84 21 3d 32 f4 d5 3c
       -0.07863523 -0.2362104 0.03943323 0.026117418
0003a0 30 e4 90 be fb fc 88 bd 57 eb 90 be 81 0c 91 3e
       -0.28299093 -0.06688877 -0.2830455 0.28329852
0003b0 fc 67 11 3e 47 4a e3 bd 16 a0 82 3e 59 93 37 be
       0.14199823 -0.11098152 0.2551276 -0.17927302
0003c0 51 a5 49 3e df 86 c4 bd 81 46 8c 3d 70 53 4d 3e
       0.1969197 -0.09596037 0.06849385 0.2005136
0003d0 4e 21 f1 3d 4e da 96 3d ec 3c 57 bd 52 fe ab bc
       0.117739305 0.07365857 -0.052548334 -0.020995293
0003e0 3e 94 7a 3e 67 78 03 be ab fe df bd 1a 32 b6 3c
       0.24470612 -0.12838899 -0.10937246 0.022240687
0003f0 f4 63 0e be fd d7 fb bd 89 da 1b 3c e1 3e 5a 3e
       -0.13905317 -0.12297056 0.009512552 0.21313049

layer2.weight f4 [256, 512]
000000 b2 b3 37 3d bb 79 a3 3c ed 71 c7 3c 29 f9 e4 bc
       0.044849105 0.019955507 0.024346316 -0.02795084
000010 fd 01 c6 3c 24 e4 49 3b 61 80 31 bd 61 a4 2a 3d
       0.02417087 0.0030806148 -0.043335322 0.04166067
000020 37 c1 8d bb bc 00 ae 3b 40 6c 07 3d fc 49 cf 3c
       -0.0043260115 0.005310146 0.03306222 0.025303833
000030 76 36 14 3d a2 81 34 bd 55 b3 23 3d 9c 6a 9f 3c
       0.03618475 -0.04406894 0.039965946 0.019460015
000040 1d 8e e9 3b 32 c0 07 bd 4c 76 ec bc bc b3 13 3d
       0.007127537 -0.033142276 -0.028865002 0.03606008
000050 d1 08 ef 3c c0 dd 8a 3c 75 98 e2 bb 0a 28 e2 bc
       0.029179009 0.016951442 -0.006915147 -0.027606983
000060 3e 44 de 3b 27 0a 96 bc bc f6 e9 bc 12 50 2a 3c
       0.0067830374 -0.018315388 -0.028560035 0.010395067
000070 ae 22 00 3d d3 9f 28 bd 3c d4 2e bd d6 61 03 3a
       0.031283073 -0.041168045 -0.04268287 0.0005011832
000080 1e 67 98 bc 19 51 d2 bc 77 7f 05 bc a4 bd c4 bb
       -0.018603858 -0.025673436 -0.008148066 -0.0060040522
000090 28 41 2b 3c e4 35 ed 3c f1 15 ad 3c cc 1c 0f 3d
       0.010452546 0.028956361 0.021128627 0.034939572
0000a0 81 34 e7 bc 03 2a c2 bb 0f 62 ce 3c 12 37 97 bc
       -0.028223278 -0.0059254183 0.025193242 -0.018458877
0000b0 48 69 32 bd 50 19 31 bb 7e 34 bc 3c ae 0e 6f bc
       -0.043557435 -0.0027023144 0.022974249 -0.014590902
0000c0 0d f0 cd bb 60 0f 11 bc 36 50 c2 3c ee e6 3d 3d
       -0.00628472 -0.008853763 0.023719888 0.04636281
0000d0 04 00 1a bd 57 ce ba 3c 39 0f 8a 3c cc be 93 3c
       -0.03759767 0.022803469 0.016852962 0.018035315
0000e0 d0 89 e4 bc 34 04 f5 bb a3 86 26 3d f7 64 81 3c
       -0.027897745 -0.0074773077 0.040655743 0.015795214
0000f0 8c 12 45 bc 8c a3 14 3c 50 14 aa 3c 65 c4 65 bc
       -0.012028348 0.009072196 0.020761639 -0.014023875
000100 c8 f3 db 3c 3c 29 42 bc 26 65 2e 3b ff 8f 04 3c
       0.026849642 -0.011850651 0.0026610582 0.008090972
000110 09 8a 2c bb b0 20 02 bb be ee a0 3b c7 cd 0a bd
       -0.0026327393 -0.001985591 0.004911273 -0.03388765
000120 b7 01 a3 3b ff b3 4e bc 8c ca e2 3c be 56 86 3c
       0.0049745697 -0.012616157 0.027684473 0.016398784
000130 2a f5 1d bd 25 b7 96 bc da 10 25 3d e2 66 15 bc
       -0.038563885 -0.018397877 0.040299274 -0.009118767
000140 24 eb 0b 3d 9b 02 72 bb ff c8 d2 3c 6d e1 b3 bc
       0.034159794 -0.0036927823 0.025730608 -0.021958077
000150 7c 91 29 3d a1 cb be 3b 8e 7d 4c bc 57 1e eb 3c
       0.04139851 0.0058226143 -0.012481106 0.02870099
000160 24 2c a0 3c 92 10 34 bc 6f 6b 16 bb 69 cd 00 3d
       0.019552298 -0.010990279 -0.002295222 0.031445894
000170 33 67 fc 3b 19 5b 88 bc 49 0c 09 bd e2 88 0a bd
       0.007702732 -0.016645001 -0.03345898 -0.033821948
000180 87 ce b7 3c ba ab 8b 3c 38 09 2b bd d7 3a 44 bc
       0.022437347 0.017049659 -0.04175684 -0.011976919
000190 e6 7e 0d 3c e5 50 a9 bc ee 39 ac 3c 0d 96 88 3b
       0.008636212 -0.020668456 0.021023717 0.004168278
0001a0 9e 76 ac bc 3f de 0d 3c 8b f1 c3 3c bd 4a 92 3c
       -0.021052655 0.008658945 0.023918888 0.017857904
0001b0 c6 bb 1c 3d 1c 56 ca 3c 23 60 67 bb c5 12 76 3c
       0.038265012 0.024699263 -0.0035305105 0.015019123
0001c0 00 8c dd 3b d7 08 a4 bc 65 44 f3 bc ce f8 00 bc
       0.006761074 -0.020023746 -0.029695699 -0.00787182
0001d0 67 ab a1 bc bd f3 35 bd 0a f8 4a 3c ad ce 96 bc
       -0.019735051 -0.0444219 0.012388239 -0.018409098
0001e0 f9 ad 1d 3d 93 65 95 3c 63 10 99 3c 79 79 1e 3c
       0.03849599 0.01823691 0.018684572 0.009672516
0001f0 f2 0a 64 3c 5b c1 f3 3c a6 06 11 3d fe 74 ae 3b
       0.013918625 0.029755285 0.03540673 0.005324005
000200 d9 c6 a5 bc ee 64 4e bb 23 8d 91 bc b4 dc c1 bb
       -0.02023642 -0.0031493264 -0.017767495 -0.0059162024
000210 2e ca 98 3c 1d d9 84 3c 66 87 3c bd 28 1a 60 3c
       0.018651094 0.016216809 -0.046027564 0.013678111
000220 65 93 a9 bc f8 70 0b bd 40 4a a7 bc c9 a6 76 bb
       -0.020700166 -0.034043282 -0.020421147 -0.0037636033
000230 8e fa 97 3c 1b 55 2d bd 53 9f cc 3c 8d 88 14 3d
       0.018552091 -0.04231749 0.024978315 0.036263037
000240 06 89 0d bd 53 1a 2e 3c 10 ff 77 3b 0d bb 30 3c
       -0.034554504 0.010626393 0.0037841238 0.010786784
000250 6f 53 7e 3c 27 0b f9 bc b2 06 f6 3b b0 78 89 3d
       0.015522822 -0.030400826 0.0075081224 0.067124724
000260 a3 4f dd 3a cf 1c 05 bd 23 06 55 bb 61 67 ce ba
       0.0016884696 -0.032498177 -0.0032504878 -0.0015747362
000270 cc 3f 8c 3c c8 c4 0b bc 78 10 4b bc a6 52 cc bc
       0.017120264 -0.008530803 -0.012394063 -0.024941754
000280 fc b6 ca 3c 23 69 ed bc c7 7d 93 bc bb 47 d8 3c
       0.024745457 -0.028980797 -0.018004311 0.026401391
000290 df 3e c1 bc a5 36 0d bc 04 63 ad bc 69 72 2d bd
       -0.02358955 -0.008618985 -0.021165378 -0.04234544
0002a0 87 c5 23 3c 90 94 b8 bc 17 58 10 bd 64 01 58 bc
       0.009995825 -0.022531778 -0.03524026 -0.013183925
0002b0 87 12 38 3c 36 cb 1d 3d 0e e3 0f 3d 52 d7 8c 39
       0.011234886 0.038523875 0.035128646 0.00026863307
0002c0 b7 99 f4 bc 33 fe 9b 3a 05 7f 84 bc 11 c6 17 3d
       -0.029858453 0.0011901319 -0.016173849 0.037054125
0002d0 af 95 45 bc 3e 32 2d bd 41 5b 52 3c f3 e7 4d bc
       -0.012059613 -0.042284243 0.012839139 -0.012567508
0002e0 4e 73 87 3c 42 93 43 3c 5e eb 49 3c 6c 9f aa 3c
       0.016534474 0.0119369645 0.012324182 0.020827971
0002f0 58 67 15 bd ab a0 eb bc ee c7 17 3d 97 38 17 3d
       -0.03647551 -0.028763136 0.037055902 0.036919203
000300 44 ff a8 bc 6d 70 37 3d 68 2b 8d 3b 7c 80 8c bc
       -0.020629533 0.044784952 0.004308153 -0.01715111
000310 a5 92 9b bc c5 28 e0 3b b8 33 03 3d 55 e0 f7 bc
       -0.018990824 0.0068407976 0.032031745 -0.030258337
000320 ed b9 b0 bc ec 7d 35 3d 1e 71 ca bc 6a 8e 24 3d
       -0.021573031 0.04430954 -0.024712142 0.04017488
000330 6a 6a 85 3c 8b 4f b2 3c 53 33 de 3b 57 15 89 bc
       0.016286094 0.021766445 0.0067810207 -0.016733808
000340 ca fe 88 3c e9 50 2d 3a 07 0e 0d bd db 0b 14 bd
       0.016723055 0.0006611483 -0.034437206 -0.03614412
000350 2b 1f 5c bd 40 19 85 bb 3b 1b c0 3c 32 4a d4 bc
       -0.05374066 -0.004061848 0.023450484 -0.025914285
000360 27 5f eb 3b 3d 22 3c 3d 52 4b b8 3c 31 f0 f9 bc
       0.007182974 0.04593109 0.022496853 -0.03051004
000370 ef ae e6 3b 81 83 2d bd fd e5 d6 3c 62 da 1d bd
       0.0070398967 -0.04236174 0.026232714 -0.038538344
000380 c7 97 1f 3b bc f4 8f bc f1 01 15 bd 87 bd 32 bd
       0.002435194 -0.017572753 -0.036378805 -0.04363778
000390 5e e6 e6 bc c7 76 02 bd d2 64 fc 3c 28 0c 22 bc
       -0.02818602 -0.031851556 0.030809794 -0.009890594
0003a0 1b 04 04 bd 5d 17 e0 3b 6e d1 bb bc 17 c5 e5 bc
       -0.032230478 0.0068387226 -0.022927012 -0.028048081
0003b0 84 0b 0e 3d 34 95 42 bd 29 c5 40 bd 38 0e d4 bb
       0.03467895 -0.047505572 -0.047063027 -0.0064714216
0003c0 d5 68 dc 3c 38 bd 2a bd b8 90 25 3c cf 4f 84 3d
       0.026905457 -0.04168436 0.010105304 0.06460535
0003d0 57 8b 1d bc 96 bd 9f bc af 6c 93 3c eb 11 af 3c
       -0.009615741 -0.019499581 0.01799616 0.021370849
0003e0 0f 41 95 bb 8a 00 21 bd b5 2d f5 3b aa 60 ae bc
       -0.0045548747 -0.039307155 0.0074822553 -0.021286327
0003f0 cd 6b 19 bd 7b 69 c5 3c e6 a6 53 3c 9c 77 6c 3c
       -0.037456322 0.024098149 0.01291821 0.014432814

layer2.bias f4 [256]
000000 58 60 8a bc 73 ae 61 3c 3e 26 6f 3c c3 7c 58 bc
       -0.016891643 0.013774502 0.01459652 -0.013213339
000010 1e 7e 13 bd 94 6b 11 3d 02 59 0a 3c 65 b3 e0 3b
       -0.036008947 0.035502985 0.008444073 0.006857323
000020 6b 66 31 3d 81 c2 c5 bc 14 0f 12 3d f6 b1 03 3d
       0.043310564 -0.024140598 0.03565891 0.03215214
000030 6d 78 ff 3c 6c 0c 19 3d 2a 43 03 3d 0c 23 23 bd
       0.031185353 0.037365362 0.032046475 -0.039828345
000040 43 1d 9f bc 24 8d 73 bb 4f 26 16 bc 17 c1 32 bd
       -0.019423133 -0.0037162984 -0.009164407 -0.043641176
000050 ba 18 bc bc e4 51 1c 3c 33 9f 97 3c 77 5f a5 3c
       -0.02296101 0.009541009 0.01850853 0.020187123
000060 8a 51 12 3d a0 05 24 bd 42 20 8a bc 3d 67 21 bd
       0.035722293 -0.040044427 -0.016861085 -0.039405096
000070 ce 0c 1f bd bc ac 22 bc 24 99 86 bc a2 c0 36 bc
       -0.03883057 -0.009928878 -0.016430445 -0.011154326
000080 cc dd 68 bc 1d 81 0e 3d c7 c5 d5 bc de 3c a4 3c
       -0.014213037 0.0347911 -0.026095284 0.020048555
000090 c7 e1 68 bc c3 11 a5 3c 0a b6 12 bd 51 59 2c bd
       -0.014213986 0.020150071 -0.035818137 -0.042077366
0000a0 e5 e7 fc 3c 72 a0 47 bd 43 b8 c2 bc 87 12 12 bd
       0.030872295 -0.048736997 -0.023769503 -0.0356622
0000b0 68 22 99 3c c7 aa 9f bc d7 c4 3f bd 56 da 80 3c
       0.018693164 -0.019490613 -0.04681858 0.01572911
0000c0 ab 44 91 3c d2 2d 06 3b e3 cc 20 bd 42 20 08 bd
       0.017732939 0.0020474088 -0.039257895 -0.03323389
0000d0 b4 2c f0 3c 95 af 34 bc 11 e2 78 bc 99 34 db 3c
       0.029318191 -0.01102819 -0.015190617 0.026758479
0000e0 0f bf 50 3b 4e 1b 17 bd 32 f8 63 bc d7 3d d7 bb
       0.003185216 -0.036891274 -0.013914155 -0.006568651
0000f0 6f 79 bc 3c c8 6c cf bc f5 2f 11 bd e6 4e c8 3c
       0.023007123 -0.025320426 -0.035446126 0.024451684
000100 d2 9c af 3c 3e 4a 95 3b 1d dd 21 bd 4c 4c a1 bc
       0.021437082 0.0045559695 -0.03951751 -0.019689701
000110 ce 49 24 3d f3 96 ed bc f6 31 2b bd cd 85 b4 3c
       0.040109448 -0.029002642 -0.041795693 0.022036457
000120 0f 42 ce ba 85 ed 62 bb 47 75 e1 bc 11 8f 57 bd
       -0.001573624 -0.0034626436 -0.027521743 -0.052626673
000130 f4 c1 7f bc 8d 87 74 3c 73 8e cd 3b 79 ba ed 3c
       -0.015610207 0.014924896 0.006273085 0.029019581
000140 a9 e1 28 bd e8 63 d4 3b 48 5a 0a bd 16 57 50 bd
       -0.04123083 0.0064816363 -0.033777505 -0.0508643
000150 f1 0c 35 bc d9 95 8e 3c 1d 61 81 bc 94 30 c7 bc
       -0.011050449 0.017405437 -0.015793378 -0.024315156
000160 d3 c7 cf 3b b6 f9 76 bc c0 53 bc bc 16 e8 8f bb
       0.0063409596 -0.015074184 -0.022989154 -0.0043916805
000170 31 ab cb bc 85 66 ee 3c 8c b2 da bc 1e 01 db bc
       -0.024861904 0.02910162 -0.026696466 -0.026733931
000180 c4 7b 63 bd 1c f9 2f bd b7 6b 01 3d eb 38 bd 3c
       -0.055537954 -0.04296218 0.031596866 0.02309843
000190 39 88 31 3b d3 72 37 bd 7a be f4 3c 77 37 62 3c
       0.0027089252 -0.04478724 0.029875983 0.013807169
0001a0 c1 9c 52 bc 46 9d d0 bc 5b 74 0b 3d b1 11 e0 bc
       -0.012854756 -0.025465619 0.034046512 -0.027352186
0001b0 17 28 c4 3b af 38 c2 3c 1b 8f 3b bd d5 34 47 bc
       0.0059862244 0.02370867 -0.045790773 -0.012158592
0001c0 89 b7 e0 3c 73 f6 a7 bc b7 dc 15 bc 69 bb 65 bb
       0.027431266 -0.020503258 -0.009146861 -0.0035054332
0001d0 74 e4 ba 3c 74 7b f3 bc e2 56 8a 3b a4 b1 18 bd
       0.022814013 -0.029721953 0.004221783 -0.037278786
0001e0 17 21 ad 3c 72 1d 0f 3d 16 46 fa b9 a0 a9 19 3d
       0.021133943 0.03494019 -0.00047735934 0.037515283
0001f0 36 70 26 bc 0b d7 f6 bc 70 aa d8 bc 26 82 cb bb
       -0.010158589 -0.030131837 -0.026448458 -0.0062105833
000200 cf 52 92 bc 3d 88 c1 bc 1d 84 2a bd 8d 6a 3d bd
       -0.017861752 -0.023624534 -0.0416299 -0.046244193
000210 1a 4d 09 3b b6 e8 c9 3c 70 69 42 bd d0 ec 04 3c
       0.0020950497 0.024647098 -0.047463834 0.008113101
000220 a5 89 01 3d 66 37 a8 3c d6 5b fb bc fe 94 a2 bc
       0.03162541 0.020534229 -0.03068344 -0.019846436
000230 55 90 e3 bc 12 51 4b bd ba b2 3b bd a9 55 41 bd
       -0.027778784 -0.04963786 -0.045824744 -0.047200833
000240 e9 c7 d3 bc 2d ae 3f bd 8e 74 4c bd 28 5c 58 3c
       -0.02585216 -0.046796966 -0.049915843 0.0132055655
000250 8b a7 f9 bb 73 22 57 3c 64 95 ed 3c b6 bf 52 3c
       -0.0076188496 0.013130772 0.029001899 0.01286309
000260 38 d4 2b 3c a6 e3 8d bc 66 bb f2 3c 45 58 50 bd
       0.010487609 -0.017320465 0.029630374 -0.05086543
000270 73 25 4e bc 70 e2 85 3a 8b e3 5a bc 2d 57 f0 3c
       -0.012582171 0.0010214578 -0.0133599145 0.029338444
000280 4c 28 58 bc 0b 37 c5 bc 99 9d 45 bc d6 81 00 3d
       -0.013193201 -0.024074098 -0.0120615 0.03137382
000290 f5 a5 46 bd 99 0b 56 bb f6 d7 5a 3c ad e0 cd 3c
       -0.048498113 -0.0032660721 0.013357153 0.025131548
0002a0 69 6e 0d 3d 78 a1 f9 bc 56 a2 9d 3c ca 81 2a bd
       0.034529123 -0.030472502 0.019242447 -0.041627683
0002b0 96 b0 64 3c 5e 4d 8e 3c 9b 21 22 bc d6 63 70 bc
       0.013958117 0.017370876 -0.0098957075 -0.01467224
0002c0 3f eb 38 3c 65 7a 58 3c 17 1d 0f bd 15 b5 56 bb
       0.011286556 0.013212775 -0.03493985 -0.0032761742
0002d0 39 0b b5 bc 0e 4c 35 bc 5f 9a 28 bc 64 8a a2 bc
       -0.022100078 -0.011065496 -0.010290711 -0.01984138
0002e0 bf e0 82 3c 69 e1 de bc 1f bd c0 bc 2f 3d 7f bd
       0.015976308 -0.027207093 -0.02352768 -0.06231421
0002f0 df e0 34 bc 34 5f 20 bd 8f dd 04 bd e7 dd 96 3c
       -0.011039942 -0.039153293 -0.032437857 0.018416358
000300 12 3e 0f 3d 03 84 b3 bc d6 90 92 3b ea 33 c5 3c
       0.034971304 -0.021913534 0.004472832 0.024072606
000310 d3 55 12 bd 87 16 f5 bb 90 40 48 bc 7c 20 7b 3b
       -0.03572638 -0.007479492 -0.012222424 0.0038318923
000320 a4 3b f7 bb 75 a3 1f 3d cc 97 12 bd 05 33 18 3c
       -0.0075449515 0.038974244 -0.035789296 0.009289508
000330 e5 89 af bc 67 b8 1e bd fd b8 90 bb f5 b4 30 3c
       -0.021428058 -0.03875008 -0.0044165836 0.010785331
000340 45 e2 2e bd 90 b4 c4 bb 1d af 1b bd ba 62 97 3c
       -0.042696256 -0.00600297 -0.038008798 0.018479694
000350 4f c0 20 bc d3 21 37 3b 5e 91 6a bc 16 8e f3 bc
       -0.009811475 0.0027943745 -0.014316885 -0.029730838
000360 6e 41 2f ba 85 3f 08 bd 6a 4f ed 3c 41 78 f9 3c
       -0.000668547 -0.033263702 0.028968532 0.03045285
000370 91 57 16 bd 65 61 af 3c c7 bc fb 3c 81 ac a2 bc
       -0.036704604 0.021408746 0.030729664 -0.019857647
000380 d8 07 a5 3b ca 34 20 3c 84 13 2b 3c 5d ea b0 3b
       0.0050363354 0.009778211 0.010441665 0.005399032
000390 ff aa 29 bd cf e3 80 bc 8f b0 1e bd 56 58 2b bd
       -0.04142284 -0.015733628 -0.0387426 -0.04183229
0003a0 b0 86 09 bd a2 be 8c bc 90 e7 83 3b b2 29 db bc
       -0.033575714 -0.017180745 0.004025407 -0.02675328
0003b0 ba ff 09 3d 21 80 ef 3c 32 59 fe 3c 6a 9a f4 bc
       0.033691145 0.029235901 0.031048391 -0.029858787
0003c0 4f dd 8a 3c 21 37 99 3c 6d 93 48 bb a0 fe 14 3d
       0.016951231 0.018703045 -0.003060545 0.03637564
0003d0 c1 20 e8 3c 21 3d ad bc a1 71 35 3c 83 3c 29 3d
       0.02833593 -0.021147313 0.0110744545 0.041317474
0003e0 36 c9 17 bd 07 02 05 3c 3c de eb bc 7d 30 0d 3d
       -0.037057124 0.008118159 -0.028792493 0.03447007
0003f0 5e aa 98 3b 67 b3 5b bc b4 80 1b bd 3f 7e 1c bd
       0.004658981 -0.013409472 -0.037964538 -0.038206335

layer3.weight f4 [57, 256]
000000 51 5a e3 3c d4 bd a2 bb 91 74 58 bd 71 47 5a b9
       0.027753027 -0.004966477 -0.05284554 -0.00020816714
000010 f3 3d a1 bc cb cf 44 3d 09 89 76 bd e5 e0 2f 3d
       -0.01968286 0.04804973 -0.06018928 0.042939086
000020 84 41 9b bc d5 2d 4a 3d b8 20 fe bc 8a 93 3d 3d
       -0.018952139 0.049360115 -0.03102146 0.046283282
000030 52 76 29 3d 86 b0 cb bc cb 1e 69 bd 44 39 58 bc
       0.041372605 -0.024864446 -0.056914132 -0.013197247
000040 a0 96 2c bb fe 33 31 bc 3a 16 95 3c 09 0d 42 bd
       -0.0026334897 -0.010815619 0.018199075 -0.047375713
000050 cc df 48 3d 58 fe 89 bc 0f 68 7b 3d b3 ec d5 bc
       0.049041554 -0.016844913 0.061378535 -0.026113844
000060 e2 de fe 3b 74 67 a8 3b 12 3c 30 bd 96 9b 30 bd
       0.0077780345 0.0051392857 -0.043026038 -0.04311713
000070 7e 63 0d bd ad 4d 1c bd 11 79 b8 bc 6b f8 da bc
       -0.03451871 -0.038160015 -0.022518666 -0.026729783
000080 af a5 83 ba 43 ce d7 ba 8e a8 83 bb fb c5 22 bd
       -0.0010043884 -0.0016464669 -0.004017896 -0.03973959
000090 f5 ff 6e bc 9a 27 7f bd 5b 2c 35 3d 3c f9 94 ba
       -0.014587392 -0.062293626 0.044231754 -0.0011365782
0000a0 52 a7 26 3d ac 0c 1e 3d 13 d4 eb 3c 08 a1 86 3d
       0.040686913 0.038586304 0.028787648 0.06573683
0000b0 e5 ba 8c bb ee 55 c6 bb da 37 49 bd 8b 09 b6 bc
       -0.0042947405 -0.006052724 -0.04912553 -0.022221347
0000c0 7a 27 2f bd e2 bb 70 bd 99 90 63 bd 88 3f 5d bd
       -0.042762257 -0.05877293 -0.05555782 -0.054015666
0000d0 34 ce a7 bc be 21 e8 bc bf 0a 9c bc 8f 61 84 bd
       -0.020484067 -0.028336402 -0.019048093 -0.0646392
0000e0 87 af 8c bc a3 ad 53 bd fe ce f2 3c 14 84 65 3d
       -0.017173542 -0.051679265 0.029639717 0.056034163
0000f0 47 47 fe 3c 50 39 78 3d 21 89 3a bd ae 6d 2f bd
       0.031039847 0.060601532 -0.045540933 -0.042829208
000100 e0 0e e2 3b a5 c5 bb 3c f5 e1 b5 bc b1 8b ea 3c
       0.006898746 0.022921393 -0.022202471 0.028631063
000110 70 86 29 3d c9 3f 6a bd 29 ef 60 bc 8b 8b cd 3c
       0.041387975 -0.057189737 -0.013728895 0.025090953
000120 dd b9 e6 3c 4c 51 65 3d bd 22 6e bc 5f ae f7 3c
       0.028164798 0.055985734 -0.014534649 0.030234514
000130 d2 88 4d 3d 8e 66 3c 3d bc a5 8c 3c f2 d2 28 bd
       0.05017931 0.04599624 0.017168872 -0.041216798
000140 49 2d 0b bc 61 1f b6 bc 3e 5b 63 bd 90 fd b4 3c
       -0.008494684 -0.02223176 -0.055506937 0.022093564
000150 20 36 a5 3c a3 88 22 bd b0 b8 f3 bc 9e 13 50 bd
       0.02016741 -0.03968109 -0.029751152 -0.05079996
000160 be f0 d2 3b 54 38 cf 39 e0 53 7d bd 68 5c de 3b
       0.00643739 0.00039524084 -0.061847568 0.006785918
000170 5d 4d af 3c 4b e6 d9 3c 67 69 41 bd 7e 96 2e 3d
       0.021399194 0.02659907 -0.04721966 0.04262399
000180 7f 03 71 3c 44 5e 2d 3d 97 9c 27 bd 31 86 12 3b
       0.014710306 0.042326227 -0.04092082 0.0022357816
000190 0b 30 06 3c 90 76 3e bd 3c 69 1d bd ff 6f 03 bc
       0.008190165 -0.04649979 -0.038430437 -0.008022307
0001a0 b7 d9 c4 bc 7d d3 c1 3b 00 53 2d bd 24 b5 a6 bc
       -0.024029596 0.005915104 -0.042315483 -0.020350046
0001b0 11 c1 47 bc ef 60 79 bc f8 36 41 bc c8 84 b5 3c
       -0.012192027 -0.015220865 -0.011792891 0.022158042
0001c0 a2 8f 7b bd 44 61 14 bd 72 51 50 bd 08 27 33 bd
       -0.061416276 -0.036225572 -0.050858922 -0.043738395
0001d0 1d e0 c2 3c 24 06 84 3c d2 8c c9 3c 55 86 05 3d
       0.023788506 0.01611621 0.024603281 0.032598812
0001e0 17 aa 87 3c 95 b5 6d 3d 4a 77 28 3d 13 81 24 3b
       0.016560597 0.0580345 0.041129388 0.0025101348
0001f0 8d b9 0f bd 9b b5 04 bd ed a5 e9 bc b8 d3 d9 bc
       -0.035089064 -0.032399755 -0.028521502 -0.026590213
000200 0d 57 0a bd 82 78 7c 3d a4 f5 59 3b 8c f5 f4 bc
       -0.033774424 0.061638363 0.0033257985 -0.029902242
000210 6a db 0d bd 84 6f 67 3d eb b1 0c 3d 1b 1a ab 3c
       -0.034633078 0.056502834 0.034349363 0.020886471
000220 59 95 18 3d bb d5 dd 3c 78 e5 0b bd 45 e7 22 3d
       0.037251804 0.027079454 -0.034154385 0.039771337
000230 1e 39 5d bd c1 31 69 bc 66 1c 32 3d 87 b9 df bc
       -0.05400955 -0.014233054 0.043484114 -0.027310146
000240 49 1a f2 3c ec 56 52 3c 5a ec dd bc 92 a2 d5 3c
       0.02955355 0.012838107 -0.02709024 0.026078496
000250 ea da f8 3c 35 66 42 bd 36 bd 30 3d 67 e9 12 3d
       0.030377824 -0.047460753 0.043149196 0.03586712
000260 35 d8 15 bd 0a 92 e9 bc 9a 47 04 3d 8a 4e 1b bd
       -0.036583144 -0.02851202 0.032294847 -0.037916698
000270 e7 73 2d bd ee c7 aa bb f2 af 73 3d eb 5c 06 3d
       -0.04234686 -0.0052118218 0.059493966 0.032803457
000280 e9 67 5d bd 31 ed 6c bd fc 3e b3 39 e1 9c 13 bd
       -0.054054175 -0.05784339 0.00034188468 -0.036038283
000290 6f 77 3f bb a1 26 ef bc be 6f 4d 3d 4a c7 10 3d
       -0.0029215475 -0.029193224 0.050155394 0.035346307
0002a0 54 15 f3 bb 2b a6 a4 3c 66 5e 73 bd e9 bc b1 bc
       -0.007418314 0.020098766 -0.059416197 -0.021696525
0002b0 96 20 66 3d 36 07 ab bb 35 5b 0c bd 19 b5 07 3d
       0.05618342 -0.0052193655 -0.03426667 0.033131693
0002c0 f1 81 57 3d 4e ff fe 3b ec a1 94 bc 36 a5 fe 3c
       0.052614156 0.0077818995 -0.018143617 0.031084638
0002d0 9d 04 41 bd a3 8b 31 3c 6e 7d de 3c 43 09 44 3c
       -0.04712354 0.010836515 0.027159419 0.011965099
0002e0 3c c5 68 3d 52 c7 36 bd 8d 02 b4 bc 2b c9 7a bd
       0.056828722 -0.04462368 -0.021973873 -0.061227005
0002f0 1b ae ec bc 16 4f 06 3d d5 55 4f bd f2 3d e4 ba
       -0.028891614 0.032790266 -0.050618965 -0.0017413481
000300 ed 49 0d 3d db d7 63 bd bb a8 a1 bc ee dc 31 bc
       0.03449433 -0.055625778 -0.019733777 -0.010855896
000310 8b 98 24 bd 79 c9 7d bd d8 01 04 3c be a6 a7 3c
       -0.04018454 -0.061959717 0.00805708 0.020465251
000320 ce 9e 94 bc 8e e4 e5 3c 09 47 3c bb ec eb c7 3c
       -0.01814213 0.028063085 -0.0028728864 0.024404489
000330 31 9e 1a bd 4f ef 36 3d 38 e9 32 3d d2 40 80 bd
       -0.03774852 0.044661816 0.043679446 -0.062623635
000340 77 dd db bc 22 39 92 bc 1c 64 96 bc 9a 09 47 3d
       -0.026839001 -0.017849509 -0.018358283 0.04859314
000350 5e d4 cf bb 41 ea 51 3b 77 c3 fc bc f3 8c 69 bd
       -0.006342455 0.0032030495 -0.030854924 -0.057019185
000360 97 89 dd bb 1a af 9a 3c d7 75 1b 3d 62 15 f4 3c
       -0.0067607868 0.018882323 0.037954178 0.029795352
000370 03 d1 61 bd fc 6e bd bc 1d 37 51 bc 74 df 04 3b
       -0.05513097 -0.02312421 -0.012769488 0.002027479
000380 cc b4 56 3c 80 8f 4a bd 53 bd c3 3c 38 2f 4f bd
       0.013104629 -0.04945326 0.023893988 -0.05058214
000390 29 83 57 bd 12 32 08 3d 6c dd cc 3c 94 7e 4f 3b
       -0.05261532 0.033250876 0.025007926 0.003166114
0003a0 0c f4 4a 3d a2 be 4d bd cc f8 0b bd 8b 6a 87 bb
       0.049549147 -0.05023063 -0.034172818 -0.004132574
0003b0 33 ae 66 3d bb 08 6a bd 18 f0 26 bd 53 42 ac 3b
       0.056318473 -0.057137232 -0.040756315 0.00525693
0003c0 01 a6 35 3d a0 e3 9b 3b e4 cd 0c bd 30 ee 57 3d
       0.044347767 0.0047573596 -0.03437604 0.052717388
0003d0 cb b1 4e 3c be 15 22 bd c9 e8 28 3d e8 03 5f 3d
       0.012615631 -0.039571516 0.041237626 0.054447085
0003e0 d0 5d 91 3c d0 af 90 3b 0c fa 92 bb 4b 48 de 3c
       0.017744929 0.0044154897 -0.0044853743 0.027134081
0003f0 bc 50 76 3d e3 66 19 bd db e3 a8 bc 5c c4 5c bc
       0.060135588 -0.037451636 -0.020616462 -0.01347455

layer3.bias f4 [57]
000000 a4 81 ab bc ae b8 46 bd be 57 ad bc c4 de f6 3c
       -0.02093584 -0.048515968 -0.021160003 0.03013552
000010 31 da 31 3d 98 d4 a6 3b 34 af 07 3c 9b 4f 8a 3d
       0.043420974 0.005091261 0.008281518 0.06753465
000020 aa 27 c0 3c d8 3f 33 3d e4 7a 1e 3d 1f 85 27 3d
       0.023456413 0.043762058 0.038691416 0.04089844
000030 ee 19 2a bc 61 7f 0d 3d b4 b7 ba 3c 7f 69 7b bd
       -0.010382159 0.034545306 0.022792675 -0.061379906
000040 fa e6 74 bd e9 ff 52 3d c0 fe 3a bd a4 2e 05 3c
       -0.05979059 0.051513586 -0.045653105 0.008128796
000050 bf d8 00 3d 4f 50 04 bd 6f 3d 81 3c 41 fa cf bb
       0.031456705 -0.03230315 0.015776364 -0.0063469713
000060 25 54 a4 3c 30 cb 66 3c f8 be 84 3b e8 19 11 3c
       0.020059654 0.01408653 0.0040510856 0.008856274
000070 fe fc ae bc b6 a6 29 bd 2a 11 15 3d 06 9c 3e 3c
       -0.02136087 -0.041418754 0.036393322 0.011633879
000080 82 15 0e 3d e0 2d 3d bd 7c d3 e2 bc d7 aa 1b 3d
       0.03468848 -0.046186328 -0.027688734 0.038004722
000090 63 63 d5 3c 5d 82 0d 3d 35 8e f7 3c fd 2d 27 3d
       0.026048368 0.034548152 0.030219177 0.040815342
0000a0 77 15 6d bd cd fd d2 bc b0 e3 38 bc 04 c5 1f bd
       -0.0578818 -0.025755787 -0.011284754 -0.039006248
0000b0 f8 08 17 3d 3c 7f 9d 3b 72 ca 5a 3d f1 c6 52 bd
       0.036873788 0.0048064273 0.053415723 -0.051459257
0000c0 7e 87 0a 3d 04 6f 44 3d 4c 28 df 3c 19 9e 4e bd
       0.03382062 0.047957435 0.027240895 -0.050443742
0000d0 ac 7e 4a 3d 49 52 2d 3d 1c 03 b3 bd da a2 5a bd
       0.04943721 0.0423148 -0.087408274 -0.053377964
0000e0 db 2c 81 3d
       0.063073836
