results/models/dqn/best_model_ep5_2024-11-20_23-51-43.pt (torch, 613462 bytes, 6 tensors)

layer1.weight f4 [512, 12]
000000 2b 8f 65 3e 24 9e 75 3e 7f ee 91 bd 75 38 87 3e
       0.22417895 0.23986107 -0.07125568 0.2641026
000010 21 24 74 bd 45 72 7d 3d f4 8b 13 be 9d b5 2c 3e
       -0.059604768 0.061876554 -0.14408857 0.16866155
000020 24 bb 83 3e 80 6b 5c be ad 03 82 3e df 3b 6a 3d
       0.25728714 -0.21525383 0.2539343 0.057186004
000030 c7 1c 5b 3e 82 65 20 3d 01 9c 0d 3e 1b ae 2a bd
       0.21397696 0.039159305 0.13829042 -0.041669946
000040 4a 56 65 3e 94 e8 31 3d fa a8 0a be fd ea 94 3d
       0.22396198 0.043434694 -0.13541022 0.07271383
000050 21 62 09 be 2d b2 0d bd 4f de ed bd 34 1e 43 3e
       -0.1341634 -0.03459375 -0.116146676 0.1905449
000060 dd da 63 be b0 e3 02 be a0 6a b1 bd 28 c0 2f be
       -0.22251458 -0.12782168 -0.08662915 -0.17163146
000070 ea 89 01 3d 76 60 90 be ee 5d 86 3e 38 62 79 be
       0.031625666 -0.28198594 0.26243538 -0.24353874
000080 44 09 69 3e 06 ff a8 3c 81 d5 b8 bd 5a f0 39 3e
       0.22757441 0.020629417 -0.09025098 0.18158093
000090 01 bc 43 3d 1f cc 6e 3e 6c 27 f1 3c 69 a7 ba bd
       0.047786716 0.23320054 0.029437743 -0.09113962
0000a0 22 ef a1 3d ea ee 9b bd 3b 4e f4 3d 5f d4 83 3e
       0.07906939 -0.076139286 0.11928984 0.25747964
0000b0 8f ff 29 3e 8f 39 03 be 72 a5 2a 3e 54 d4 51 3d
       0.16601394 -0.12814926 0.16664675 0.051227883
0000c0 ec 75 14 3e c6 f7 34 be d6 5c 91 be 37 50 e6 bd
       0.14498109 -0.17672643 -0.2839114 -0.112457685
0000d0 df f1 62 be 4c b9 70 3e 28 48 ad 3d 0a 02 f3 3d
       -0.22162579 0.23508185 0.08461028 0.11865623
0000e0 b9 e6 ba 3d de 67 63 bb 06 54 66 3e 5a 6e 52 be
       0.09126038 -0.003469936 0.2249299 -0.20549908
0000f0 0c 12 95 3c dd 60 4a be c2 35 b3 3d 91 b8 ca bd
       0.018197082 -0.19763513 0.08750488 -0.098984845
000100 9e 28 b3 3d e6 19 72 bd 06 81 73 3e f5 4d 2e be
       0.087479815 -0.05910673 0.23779687 -0.17021926
000110 81 b2 30 be 1f c9 27 be 40 95 84 3e c1 ee c3 3d
       -0.17255594 -0.16385315 0.2589512 0.09567023
000120 56 cb 8d 3e fe ab 72 be c6 bd 91 be 1d 29 69 be
       0.27694196 -0.23698422 -0.28465098 -0.2276959
000130 f0 9f 46 be 67 66 ec 3d 59 4c d6 3d c5 7f 73 3e
       -0.19396949 0.11542969 0.10463781 0.23779209
000140 56 1b 18 be ec e7 47 be c6 3e 1c 3e c0 39 ef bd
       -0.14854178 -0.19522065 0.15258321 -0.11680937
000150 f2 9e 32 3e 37 44 8d bd e6 fe 27 3e e5 8f 66 be
       0.17443445 -0.068977766 0.1640583 -0.22515829
000160 cc ef 15 be a1 bc b1 3d bc d3 78 3d ad b0 98 bd
       -0.14642256 0.08678556 0.0607488 -0.07455573
000170 85 25 2f 3e d5 f8 48 3e a1 1d 57 be 4c 9e 1e be
       0.17104156 0.19626172 -0.21007396 -0.15490073
000180 23 88 89 3e 8a 16 bd bd 23 f4 d3 bd 52 b4 8d be
       0.26861677 -0.092328146 -0.103493 -0.27676636
000190 a9 bf 24 be 01 1f 98 3d 7b b2 0d bd 1e 96 54 be
       -0.16088738 0.074277885 -0.03459404 -0.2076039
0001a0 53 1f 39 3c bc 9c 5b be 1f fe 76 be 80 16 1f be
       0.011298972 -0.21446508 -0.24120377 -0.15535927
0001b0 5e 0d 7d be 1e bb 35 be 44 de 95 3e e5 0e 71 3d
       -0.2471213 -0.17747161 0.29271138 0.058852095
0001c0 a5 d5 c1 3d db 87 87 be 19 d0 3b be bd d3 bb bd
       0.094645776 -0.26470837 -0.18341102 -0.09171245
0001d0 77 ba 4f 3d 6e b1 84 be 38 e0 f3 bd b0 78 2b be
       0.050714936 -0.25916618 -0.11908001 -0.16745257
0001e0 21 33 62 3b e8 91 d7 bd b5 25 af bc d3 93 46 be
       0.0034515338 -0.10525876 -0.021380285 -0.19392328
0001f0 30 9a 48 be 42 c3 2a be 4e 5a c6 bd 4c ab 67 be
       -0.19590068 -0.16676047 -0.09685193 -0.22623938
000200 ba 10 7a 3e 6f f4 7f bd 19 e8 7f 3e a8 ad bb 3d
       0.24420443 -0.06248897 0.24990882 0.09163982
000210 96 5a 7c be 1b 3a 4a 3e 9f d0 91 bd 0a 66 e0 bd
       -0.24643931 0.19748728 -0.071198694 -0.109569624
000220 a4 d0 76 be d6 f9 92 be dd ce a7 3d 49 85 7e bd
       -0.24103028 -0.28706235 0.08193753 -0.06213883
000230 14 83 e1 3d 54 0c 58 be 68 71 5a 3e 7d 93 59 be
       0.11011329 -0.21098453 0.21332324 -0.21247669
000240 32 9e 41 bd 3b 7d 80 3d 35 f5 17 3e 68 81 70 3e
       -0.047270007 0.06273886 0.14839633 0.23486865
000250 d1 82 87 3e 36 b5 67 be 33 08 99 3d 90 de f9 bd
       0.26466992 -0.2262772 0.07472267 -0.122006536
000260 c1 63 f0 bc 7d a1 5b be 6b 81 87 3e f8 b3 56 be
       -0.029344441 -0.21448322 0.26465926 -0.2096709
000270 0c 26 1f 3e ac 26 d4 3d d1 28 b3 3d f7 1a 21 be
       0.15541857 0.103589386 0.087480195 -0.15732943
000280 74 b2 86 3e 0c 24 80 3d 2d e3 13 3d 5a 28 83 be
       0.26308024 0.062568754 0.036105324 -0.25616723
000290 d8 c0 fa 3d 30 19 72 bd 96 60 07 be d9 82 7d 3e
       0.12243813 -0.059106052 -0.13220438 0.24756946
0002a0 cd f7 82 3d 95 fc 22 be 64 45 14 be cb 6f 3f bc
       0.063949205 -0.15916665 -0.14479595 -0.011684368
0002b0 dc 82 25 3e 0d b0 91 bd 41 f9 28 be b4 da c4 bd
       0.161632 -0.07113657 -0.16501333 -0.09612027
0002c0 f6 cb 5b be d9 49 ea 3d 17 d5 65 3e 39 62 8a be
       -0.21464524 0.114398666 0.22444569 -0.27028063
0002d0 43 a1 87 3d 00 db 17 3e 70 c5 58 3d 16 30 d1 bd
       0.06622555 0.14829636 0.052922666 -0.1021425
0002e0 f8 31 1a 3e e4 ae 1a 3e 13 fa dd 3d ef 81 4d bd
       0.15058124 0.15105778 0.108387135 -0.050172742
0002f0 9f 44 98 bd 9f c0 00 3d 83 70 4a bd 3b d6 ab bd
       -0.074349634 0.031433698 -0.049423706 -0.083904706
000300 d6 84 3c 3e 20 eb 7d 3e 8e f7 df bc 68 19 87 bd
       0.18410048 0.24796724 -0.027339723 -0.06596643
000310 06 33 73 3b 07 f1 96 bc 9b 74 90 3d 99 1d a3 3d
       0.003710927 -0.018425478 0.07053491 0.0796463
000320 68 60 86 be cf 7b d7 bd 08 a2 77 3e 10 0c e4 3d
       -0.26245427 -0.105216615 0.24182904 0.11135113
000330 0b d4 5f bc 47 54 2f be db 84 34 be 79 01 86 be
       -0.013661395 -0.17121993 -0.17628805 -0.26173
000340 5e 2c c0 bd 89 28 c7 3d 54 6e 3c 3e 54 fc 04 3e
       -0.09383462 0.09724528 0.18401462 0.1298688
000350 69 99 82 be a4 6e 31 be e9 26 3b bd cf b9 8e 3e
       -0.25507668 -0.17327362 -0.045691404 0.27876136
000360 76 30 0e 3d a9 e1 a6 bd e1 5b fb 3d 14 d9 e9 bd
       0.034714185 -0.0814851 0.12273384 -0.114183575
000370 03 45 45 be 6f eb 51 3e 58 2c 0a be c2 d0 7d bd
       -0.19264607 0.20499967 -0.13493478 -0.061966665
000380 f5 46 96 be 42 ad 50 3e 15 2c 5a 3e 03 27 cc 3d
       -0.2935101 0.20378593 0.21305878 0.099683784
000390 34 93 4d be 67 32 91 be e8 92 70 be 61 81 5e 3e
       -0.20075685 -0.28358766 -0.2349354 0.21729042
0003a0 a8 32 10 3e 62 39 79 3e 1c f7 19 3e a4 78 98 3d
       0.14081824 0.24338296 0.15035671 0.074448854
0003b0 83 79 5d 3a 6c 50 61 be 66 58 79 be b2 27 88 be
       0.00084485876 -0.22003335 -0.24350128 -0.26592785
0003c0 1c 0a f0 3d 0a fb 10 be f9 e5 44 bd 04 d0 25 be
       0.11720678 -0.14158264 -0.04807088 -0.16192633
0003d0 71 25 54 bd 69 11 4d be 23 58 3e be 57 99 cc 3d
       -0.05179352 -0.20026173 -0.18588309 0.09990185
0003e0 a9 f5 ae bd 1f 44 53 3e a5 64 b9 bd 54 95 56 be
       -0.0854295 0.20631455 -0.090523995 -0.20955402
0003f0 aa e9 5e bd fd dd 11 be 97 d0 d7 bd 47 46 8f be
       -0.05442206 -0.14244838 -0.10537832 -0.27983305

layer1.bias f4 [512]
000000 b4 ec 65 be 58 43 60 3d 52 72 78 bd 53 85 61 3e
       -0.22453576 0.054751724 -0.0606559 0.22023515
000010 56 87 93 be 0c e0 25 3c 8a cd 00 3e 6c 36 1d 3d
       -0.2881419 0.010124218 0.12578407 0.03838198
000020 d9 db a7 bd 5e d0 87 3e 3e 0d 67 be 33 f0 89 3e
       -0.081962295 0.2652616 -0.22563645 0.2694107
000030 ec b0 9c 3d c0 c8 0c 3e 9c fe 4e 3e d3 3b e6 3c
       0.07650933 0.13748455 0.20214313 0.028104698
000040 21 99 f0 3c 8b 18 70 bd fd 2a 83 be af 42 fa 3d
       0.029369893 -0.058617156 -0.25618735 0.1221975
000050 2a d0 5a 3e 4f 26 ff 3d ee 2c 44 bd 9e 4a 86 be
       0.21368471 0.12458479 -0.04789441 -0.26228803
000060 c2 b2 ea bb de 29 97 3d b5 59 69 be b2 f2 78 3e
       -0.007162423 0.073810324 -0.22788127 0.24311331
000070 0a 23 31 bc b6 6b a6 3d 08 22 81 3e 70 37 05 3e
       -0.010811577 0.08126013 0.25221276 0.13009429
000080 ac da 25 be 77 4b dd 3d 3e 63 2d 3e e5 1c 11 3e
       -0.16196698 0.108054094 0.16932389 0.14171179
000090 f2 bb 0c be 58 4b d2 3c 79 ef 56 be 67 df 03 bd
       -0.1374357 0.025670692 -0.20989789 -0.032195475
0000a0 08 10 4d be b6 cf 31 3e b5 2e 8f 3e d1 02 90 be
       -0.20025647 0.17364392 0.27965322 -0.2812715
0000b0 56 f8 09 be 54 66 fd bd 97 c9 50 be af 63 84 3e
       -0.13473639 -0.12373033 -0.203894 0.25857303
0000c0 ca f1 61 be da 87 1c be 23 48 78 be 49 74 68 3a
       -0.22064891 -0.15286198 -0.24246268 0.00088674255
0000d0 ec e3 5e be 5f 92 4a be 86 2b 92 3e 86 85 03 3e
       -0.21766633 -0.19782399 0.2854883 0.12843904
0000e0 59 aa f9 3d 80 8e 50 3e 61 14 45 3d 4c 9a 3a 3d
       0.12190694 0.2036686 0.048115138 0.045557305
0000f0 de 7d 5c be 3f eb a5 3d fc fb 67 be ae ab 7c bb
       -0.2153239 0.0810151 -0.22654718 -0.0038554478
000100 37 58 20 be 25 4d 23 be 87 08 24 be 2f e1 12 be
       -0.15658651 -0.15947397 -0.16018878 -0.14343713
000110 76 99 2c be 84 8c 20 be 8b 80 dd bd b0 53 88 be
       -0.16855416 -0.15678602 -0.10815533 -0.26626348
000120 d3 5d 6c 3e 0a bc cb 3d 37 87 92 be ea 05 95 be
       0.23082666 0.09947975 -0.28618786 -0.29106075
000130 a7 dd 10 be 05 50 f8 3d 86 3a 84 3e 3c 4e 38 bd
       -0.14147054 0.121246375 0.258259 -0.044996485
000140 86 e6 30 3e f7 44 1f be 59 8b 80 bd f7 91 3a bd
       0.17275438 -0.15553652 -0.062765785 -0.04554936
000150 4c be 8f be d7 b0 9c 39 05 6e 9e 3d dc 21 2e 3e
       -0.28074872 0.00029886395 0.07735828 0.17005104
000160 4c 7b 6b be 80 22 ad bd 13 86 70 3c 6a 98 fa 3c
       -0.22996253 -0.08453846 0.014680403 0.030590255
000170 8a 24 35 3d ad 52 5c be dd 8a 67 3e 66 46 85 be
       0.0442243 -0.21515913 0.22611566 -0.26030272
000180 ef c6 d1 bd 5d 04 14 3e 15 b3 99 bd 5a 10 11 be
       -0.10243022 0.1445479 -0.0750486 -0.14166394
000190 26 b2 8e be 46 c1 48 3e 3d 2e d4 bb e7 02 0f 3e
       -0.2787029 0.19604978 -0.0064752386 0.13965951
0001a0 02 26 6d 3d 79 57 5d be 24 d5 d6 bd d4 04 4f 3e
       0.057897575 -0.216154 -0.10489872 0.20216686
0001b0 ef 9a 07 be 8e 0f 08 be fe 6b 29 3e 1d 94 fe bd
       -0.13242696 -0.13287184 0.16545102 -0.12430594
0001c0 2d 93 30 3d 15 80 14 be 3b 5c b3 3d f5 b5 e0 3c
       0.043109108 -0.14501984 0.08757826 0.027430514
0001d0 c6 cd 6e be 15 25 60 be e8 d0 d2 3d 8d 6a c1 bd
       -0.23320684 -0.21889146 0.10293752 -0.09444151
0001e0 33 46 22 3e 11 e7 9a 3c 6f f9 c9 bd 1d cb 5c bd
       0.15847091 0.01890901 -0.09862029 -0.05390464
0001f0 54 52 07 be 32 be 12 3e a6 93 6a 3e d3 17 19 bc
       -0.13215 0.14330366 0.22907886 -0.009344059
000200 b7 49 3f be 43 21 56 3e 4b 6f 73 3e 7e 63 44 3e
       -0.18680464 0.20911126 0.23772924 0.19178578
000210 ba a1 fb bb f3 79 8d 3d b4 1a 33 3c f7 b3 df bd
       -0.0076791914 0.069080256 0.0109316595 -0.109229974
000220 f9 8c 93 be 4f da f6 bc 37 6e f1 3d 40 61 2e 3e
       -0.2881849 -0.030133395 0.117886 0.17029285
000230 3b a3 8c 3d 06 f0 06 3e 63 d9 38 3e df f4 66 bd
       0.06867071 0.13177499 0.18051676 -0.05638587
000240 7c 7e 43 3e 5c 63 d5 bb 25 5e d2 bd 25 7a e9 bd
       0.19091219 -0.0065120887 -0.10271863 -0.1140025
000250 0b b2 2f be 84 49 65 be 05 01 87 3d e7 35 8f 3e
       -0.17157762 -0.22391325 0.06591991 0.27970812
000260 40 18 2e 3d 41 a3 1f 3d 6b 41 df bd a2 d1 e8 bd
       0.042503595 0.03897405 -0.10901149 -0.11368109
000270 4f 65 b7 bd 16 6b cd 3d 8c 3f 49 3d 0c f6 d7 bd
       -0.0895487 0.10030191 0.04913287 -0.105449766
000280 6d 2a 6d 3d 34 3d 2c bd e6 35 b7 bc f3 a6 50 3e
       0.05790179 -0.042050555 -0.022364568 0.20376186
000290 6b e6 f8 bd bd 3d 87 3e 93 4f 22 be a3 ae 87 3e
       -0.12153324 0.2641429 -0.15850668 0.26500425
0002a0 e6 fa e3 3d 12 69 e8 3d 25 ab 87 bd 5a 50 a4 bd
       0.111318395 0.113481656 -0.0662444 -0.08023138
0002b0 b5 01 58 be 62 99 8d be 42 12 4d 3e c5 bb 8e 3e
       -0.21094401 -0.27656084 0.20026496 0.27877632
0002c0 e1 c2 ab 3d 0e 05 e7 bd 96 20 84 3d 2a 58 13 bc
       0.083867796 -0.11280261 0.06451528 -0.008993188
0002d0 ae 50 7e be 44 e8 5b be b1 fc c7 3d 63 cb ae bd
       -0.24835464 -0.21475321 0.09764994 -0.08534887
0002e0 96 aa 87 bd 81 b8 34 be 24 be fc 3d 8c d5 1a be
       -0.066243336 -0.17648508 0.12340954 -0.15120524
0002f0 04 7c bb bd 39 30 1f 3e 4f a2 8c 3e 32 7f 82 3e
       -0.091545135 0.15545739 0.27467582 0.25487667
000300 93 60 ea 3d a6 21 2c 3c c7 88 5d 3e 98 c6 81 3e
       0.11444201 0.010506069 0.21634208 0.25346828
000310 78 e5 04 3e 75 30 b5 3d cf 37 8d 3d d8 11 df 3c
       0.1297816 0.08847133 0.0689541 0.027230188
000320 01 6e 41 3e ed 92 a7 3d d1 06 76 be 61 55 31 be
       0.1888962 0.08182321 -0.24026038 -0.17317726
000330 c0 1f 87 be b8 7e b1 bd a4 9c 8a 3c dc 46 f4 bd
       -0.2639141 -0.08666748 0.016920395 -0.11927578
000340 1b 3b 87 be 77 0f 41 be 4f 76 fe 3d af 69 a6 bc
       -0.2641228 -0.18853556 0.12424909 -0.020314066
000350 a7 30 4b bd a8 3b 3f 3d cd 68 77 bd d4 a9 1d be
       -0.049606945 0.046687752 -0.06040268 -0.15396816
000360 31 3b 04 be 36 9a f5 bd 36 86 8b be cd 19 87 be
       -0.12913205 -0.11992304 -0.27250832 -0.26386872
000370 e4 8c ed bd c8 e0 d7 3d 66 41 8e 3e 04 02 1b bc
       -0.115991384 0.105409205 0.2778427 -0.00946093
000380 79 aa 49 3e a8 ba c3 3d 2d 2f 6b be ea 3e 10 be
       0.19693936 0.09557086 -0.22967215 -0.140865
000390 58 67 a6 bd 01 ac 71 be 34 31 16 3d 72 f6 84 3d
       -0.0812518 -0.2360077 0.036668018 0.06492318
0003a0 f0 08 69 be ba 89 6e bd 06 38 83 be 16 62 92 3e
       -0.22757316 -0.058236815 -0.2562868 0.2859046
0003b0 37 38 2a 3e c9 c8 de bd 93 6a 7c 3e 10 13 3a be
       0.16623007 -0.108781405 0.2465003 -0.18171334
0003c0 2a d6 72 3e 3c 6a df bd 06 a3 af 3d 53 f5 4e 3e
       0.2371451 -0.109089345 0.08576016 0.20210771
0003d0 0f 7c 0a 3e bf 50 91 3d a8 f3 12 bd fe bd 90 3a
       0.13523887 0.07095479 -0.0358769 0.001104295
0003e0 bd 23 7c 3e 52 7f c7 bd 65 56 bd bd fb 1c 1c 3d
       0.24623008 -0.09741081 -0.09244994 0.038113575
0003f0 f4 45 0f be b5 29 da bd 02 d7 b8 3c c4 88 61 3e
       -0.13991529 -0.10652486 0.022563461 0.22024828

layer2.weight f4 [256, 512]
000000 b0 18 1e 3d aa 17 b1 3c 59 10 cf 3c 9a 32 1c bd
       0.038597763 0.02161773 0.02527635 -0.038134195
000010 f1 bf f6 3c e6 25 a7 3b 3e 20 2f bd 97 b6 2b 3d
       0.030120822 0.0051009534 -0.042755358 0.041922178
000020 37 2e 6a bb 53 3f be 3b ff c0 0a 3d 63 16 d3 3c
       -0.0035733113 0.0058058887 0.03387546 0.02576751
000030 ab 4e 15 3d ae c4 33 bd 64 1d 28 3d e9 2f 30 3c
       0.036451977 -0.04388874 0.041043654 0.01075361
000040 09 df e7 3a df 71 12 bd 5c 91 d4 bc 9d 94 2e 3d
       0.0017690371 -0.035753127 -0.025948219 0.042622197
000050 cf 93 f7 3c 83 45 08 3d 1e fe ce bb 59 1b df bc
       0.030221848 0.033269417 -0.006316914 -0.02723472
000060 bc d0 fa 3b 97 e0 a9 bc 49 6b eb bc c5 b1 3d 3c
       0.0076542776 -0.020736976 -0.028737681 0.011578028
000070 9d 05 03 3d 88 1b 12 bd 52 78 2a bd ca 0b 70 3b
       0.031987775 -0.035670787 -0.041618653 0.003662812
000080 50 be 94 bc 4a c7 d5 bc 47 23 1d bc 5c 99 a8 bb
       -0.018157154 -0.026096005 -0.00959093 -0.005145235
000090 f2 19 48 bc 2a 46 f6 3c b6 ba b1 3c 67 82 63 3c
       -0.012213217 0.030062754 0.021695476 0.013886071
0000a0 fc 40 78 bc bf a4 a4 bb 45 9a d4 3c 35 23 9f 3b
       -0.015152212 -0.005024522 0.025952468 0.004856492
0000b0 f9 72 2e bd 0e c9 b1 3b b0 5f bd 3c ba 7b 64 bc
       -0.042590115 0.005425579 0.023116916 -0.013945514
0000c0 80 08 07 bc 55 e2 0d bc 49 f2 c8 3c 82 cb 08 3d
       -0.008241773 -0.008659919 0.024529593 0.033397205
0000d0 93 59 18 bd e9 ec dc 3c 4e ec 9c 3c fd d0 85 3c
       -0.0371948 0.026968436 0.019155648 0.016335005
0000e0 0f 00 e3 bc 9f 63 c4 bc b6 81 28 3d f3 3e 4c 3c
       -0.027709989 -0.023973284 0.041139327 0.01246618
0000f0 81 a4 4d bc 72 80 12 bc 9d 3a eb 3c 80 be 5e bc
       -0.012551428 -0.008941757 0.028714472 -0.013595223
000100 6c c2 de 3c 28 5e 68 bc 70 62 07 3c 3b d5 13 3c
       0.027192317 -0.014182605 0.008263215 0.009023006
000110 1e ef ae bc ca 59 cb ba de d7 cc 3b 3e d3 2b bd
       -0.021354254 -0.001551443 0.0062513193 -0.041949503
000120 0b 76 0e bc 62 bc 89 3b ce dd 0c 3d 5c 37 1a 3c
       -0.008695136 0.004203365 0.034391217 0.009412613
000130 5c b4 19 bd 2d 66 5f bc 91 54 28 3d d6 72 09 bc
       -0.03752552 -0.0136352 0.041096274 -0.008389195
000140 eb 3f 0a 3d 33 fb a5 3b 6e c5 d5 3c 0e 4a b1 bc
       0.033752363 0.0050653457 0.026095118 -0.021641757
000150 7c a5 31 3d d0 dd d9 3b 67 d3 3d bc 39 38 0c 3d
       0.04337071 0.0066487566 -0.011586047 0.034233306
000160 91 89 90 3c c1 1a f3 bc 25 0e 5d bb 27 9a 01 3d
       0.017643722 -0.029675843 -0.0033730355 0.03164115
000170 4f 6f 0a 3c c4 35 89 bc 69 8c f9 bc 88 65 09 bd
       0.00844939 -0.01674927 -0.03046246 -0.033544093
000180 c7 2f d3 3c c4 13 8e 3c e4 0c 2b bd 53 ef 3f bc
       0.025779618 0.01734341 -0.04176034 -0.011714774
000190 b2 5f 28 3c 28 f6 1a bd eb d8 1b 3d d1 61 67 bb
       0.010276722 -0.03783241 0.038048666 -0.0035306106
0001a0 64 55 9d bc a8 78 c9 3b 55 a0 85 3c f8 ba 20 3c
       -0.019205756 0.0061484165 0.016311804 0.009810202
0001b0 0c 9f 27 3d 86 97 cb 3c 19 27 c8 bb bf 4e 0f 3c
       0.040923163 0.024852525 -0.0061081764 0.008746802
0001c0 34 7b 04 3c c1 39 a5 bc a2 e6 15 bd 63 b3 f1 bb
       0.008086015 -0.02016914 -0.0365969 -0.007376121
0001d0 b0 7e 9f bc d0 df 35 bd 20 b7 58 3c c8 bf 97 bc
       -0.019469589 -0.044402897 0.013227254 -0.018524066
0001e0 10 27 22 3d 30 57 81 3c 38 06 9a 3c b0 f7 27 3c
       0.039588034 0.015788645 0.018801793 0.010251924
0001f0 9b f8 6e 3c 98 18 e2 3c cd df 09 3d 0d d1 a6 bb
       0.014585639 0.027599618 0.0336607 -0.0050908388
000200 98 27 3d bc 72 38 31 3c 00 2f a3 bc 42 44 9d bb
       -0.011545084 0.01081668 -0.019919872 -0.0047993967
000210 ea 70 67 3c 86 f9 8c 3c fd 50 3a bd 34 40 6e 3c
       0.014126042 0.017208826 -0.045487393 0.014541674
000220 21 61 ac bc c9 56 0a bd d7 9a bb bc 62 5e b6 b9
       -0.021042408 -0.03377417 -0.022900982 -0.00034784066
000230 06 7b 9d 3c 47 3e 2b bd 82 7a 44 3c b0 6b 18 3d
       0.019223701 -0.04180744 0.011992099 0.037212074
000240 81 e0 c5 bc 82 18 41 3c 28 64 91 bc a9 d4 31 3c
       -0.024154903 0.011785628 -0.017747954 0.010853925
000250 4f 0b 87 3c e2 5a f4 bc 98 26 01 3c 41 13 2b 3d
       0.016484885 -0.029828493 0.007882737 0.04176641
000260 a9 ef 5b 3a 76 5a 00 bd 70 dc 6a bb 2f 82 1f 3c
       0.0008389899 -0.03133627 -0.0035836957 0.009735628
000270 d7 15 68 3c 0d f1 bc bb a8 fc 45 bc 56 8d c9 bc
       0.014165363 -0.00576604 -0.012084164 -0.024603527
000280 d7 71 d5 3c 8f 96 d0 bc d3 bc 90 bc 46 28 da 3c
       0.02605526 -0.025462417 -0.017668163 0.026630532
000290 de d6 bf bc ce 27 09 bc 04 c6 a5 bc 36 3f 2b bd
       -0.023417886 -0.008371307 -0.020236023 -0.04180833
0002a0 36 3a a4 3c 49 91 b6 bc 3f ae a1 bc 75 0d 4a bc
       0.020047288 -0.022286074 -0.019736407 -0.01233231
0002b0 6f 2f 46 3c c4 c5 1e 3d 78 d2 15 3d 40 e1 ad 3a
       0.01209627 0.038762823 0.03657767 0.0013265982
0002c0 75 19 1b bd 33 81 55 3b 92 b6 85 3a 45 b9 18 3d
       -0.037866075 0.003257823 0.0010201505 0.03728606
0002d0 b1 2d 3f bc 66 e3 2e bd b6 63 5b 3c 4d 82 49 bc
       -0.0116686085 -0.042697333 0.013390472 -0.0122991325
0002e0 73 91 80 3c 72 cb 6d 3c 3d 23 57 3c c3 67 b2 3c
       0.015694356 0.014513837 0.01313096 0.021777993
0002f0 81 46 05 bd 62 40 0e bd 7e c9 1e 3d e7 8d 1a 3d
       -0.03253794 -0.03472937 0.038766377 0.037732985
000300 9b 52 98 bc 6b 7a 1d 3d e5 2a ca 3b 0f 7b 67 bc
       -0.018594077 0.038446825 0.006169664 -0.014128461
000310 bf ae b9 bc 99 76 c0 bc 93 6f 06 3d ac c4 f3 bc
       -0.022666333 -0.023494052 0.03282125 -0.029756866
000320 13 d8 a9 bc bd f3 34 3d 2a fc c5 bc 4b cc 26 3d
       -0.020732915 0.04417776 -0.024168093 0.040722173
000330 ea b7 8d 3c 1f 6c b3 3c 5f 1a f3 3b 8d 1d f3 bb
       0.017299611 0.021902142 0.007418915 -0.007419294
000340 1e 46 8b 3c ad 81 6b 3c de c3 be bc 05 f8 14 bd
       0.017001208 0.014374179 -0.023286756 -0.036369342
000350 e4 6e 12 bd fc 13 af bb c8 a2 46 3c aa ed f9 bc
       -0.035750285 -0.0053429585 0.012123771 -0.030508835
000360 33 43 05 3c 75 56 d0 3c b1 86 bf 3c 7e 25 87 bc
       0.008133697 0.02543185 0.023379656 -0.01649737
000370 45 05 f6 3b b7 35 2b bd ae f2 ed 3c d4 f4 1a bd
       0.0075079524 -0.041799273 0.029046383 -0.037831143
000380 29 95 20 3b ce 92 88 bc 7d ef 15 bd c5 9c 20 bd
       0.002450297 -0.016671564 -0.036605347 -0.039212007
000390 2a 59 e8 bc 59 46 03 bd 32 1f fe 3c 63 1a 1a bc
       -0.02836283 -0.03204951 0.031020734 -0.009405705
0003a0 5e a7 03 bd 4a fa 26 39 fb 22 b9 bc 6a 08 ba bb
       -0.032142036 0.00015924234 -0.022599688 -0.0056772726
0003b0 ff a9 10 3d 8d 96 1f bd 3a 8a 26 bd a6 03 45 3c
       0.03531837 -0.038961936 -0.040659167 0.012024796
0003c0 9d 18 e7 3c a7 cf 2b bd ed fa 6b 3c 02 4d 38 3d
       0.028209979 -0.04194608 0.014403087 0.044995315
0003d0 39 74 1d bc 86 36 cb bc 14 9b 9a 3c 89 8a b6 3c
       -0.009610229 -0.024806272 0.018872775 0.022282856
0003e0 3d 2f 96 bb 11 17 1e bd 2c 6b e0 3a 5c 35 ea bc
       -0.004583268 -0.038596217 0.0017121783 -0.028589897
0003f0 d5 61 1a bd 5c d3 cc 3c 07 4a fe 3c f5 73 78 3c
       -0.037690956 0.025003128 0.031041158 0.015164365

layer2.bias f4 [256]
000000 64 66 7d bc ec 2a ab 3c 0a 9c c5 3c bd 38 da bb
       -0.015466306 0.02089449 0.024122257 -0.0066595958
000010 fa 03 11 bd fb da 29 3d c1 ea 57 3c 47 62 97 3c
       -0.035404183 0.0414686 0.013178528 0.01847948
000020 82 81 32 3d f5 90 9c bc 62 f8 7e 3c 87 39 28 3d
       0.04358054 -0.01911209 0.015562149 0.041070487
000030 37 ad 1f 3d 85 2b 28 3d 22 58 10 3d c3 dc 0f bd
       0.03898355 0.04105713 0.0352403 -0.035122644
000040 0e 6d 75 bc 89 5c 1e 3b 48 42 c1 3b 69 4c 1e bd
       -0.014979614 0.0024164042 0.005897794 -0.03864709
000050 39 d1 54 bc 4c 4c 87 3c b3 01 bd 3c 29 68 a6 3c
       -0.012989336 0.016515873 0.0230721 0.02031334
000060 35 4d 16 3d c4 f7 07 bd 99 2c 19 bc 5c 44 0c bd
       0.036694724 -0.033195272 -0.009349012 -0.03424488
000070 c6 b6 10 bd ff 7e 8d bb a8 ee 6a bc cd 44 31 bc
       -0.035330556 -0.0043181176 -0.014339127 -0.010819626
000080 ed e9 7d bc a6 3b 29 3d 91 e5 b3 bc 4a 1f e5 3c
       -0.015497667 0.04131665 -0.021960052 0.027969021
000090 19 21 4b bc 57 19 ce 3c dd 9f 13 bd 35 f0 14 bd
       -0.012398028 0.025158567 -0.03604113 -0.03636189
0000a0 c8 39 1c 3d 35 ec 3a bd dc ff 92 bc c5 46 b2 bc
       0.038141042 -0.04563542 -0.017944269 -0.021762261
0000b0 50 31 c1 3c 4f bd 8d bc 0e 4f 2e bd 2f f7 aa 3c
       0.023583084 -0.017302183 -0.04255586 0.02086982
0000c0 49 a3 c0 3c 76 f6 81 3a 19 cd 21 bd 1e 44 da bc
       0.02351536 0.000991537 -0.039502237 -0.026643809
0000d0 33 b3 0d 3d 49 93 30 bc 3d 17 1f bc 0f de e7 3c
       0.034594726 -0.010777303 -0.00971013 0.028304128
0000e0 c9 7b ef 3b 74 31 c5 bc 78 0e 17 bc 1e 6a 56 3b
       0.0073084575 -0.024071433 -0.009219758 0.003271706
0000f0 cb d7 e7 3c f2 41 b6 bc 95 e6 ed bc cb bf ef 3c
       0.02830114 -0.022248242 -0.029040614 0.029266259
000100 3f 0e 17 3d c9 a2 0b 3c eb 21 ca bc 88 a8 41 bc
       0.03687882 0.008522698 -0.024674376 -0.011819966
000110 06 50 25 3d 52 b4 c2 bc 2b 73 1d bd d5 96 cf 3c
       0.04035952 -0.023767624 -0.03843991 0.025340477
000120 d2 8a cf ba c5 61 a2 38 ca af cb bc da d8 3c bd
       -0.0015834218 7.742973e-05 -0.024864096 -0.046105243
000130 7a 25 60 bc 85 e0 c5 3c 39 b0 32 3c e3 35 ef 3c
       -0.01368081 0.02415491 0.010906273 0.0292005
000140 86 bf 16 bd 67 be 19 3c 5a 29 fc bc a0 b0 19 bd
       -0.036803745 0.009383774 -0.030781437 -0.03752196
000150 ea 94 c4 bb 4a c4 a6 3c f5 2d 82 bc 61 52 9d bc
       -0.0059991973 0.02035727 -0.015891055 -0.01920432
000160 50 53 63 3c 45 be ca bb f6 69 92 bc 05 8b fa ba
       0.013874844 -0.0061872327 -0.017872792 -0.0019114917
000170 5f 8b 8d bc e0 0a 10 3d 00 0c ed bc 09 a8 af bc
       -0.017278371 0.03516662 -0.028936386 -0.02144243
000180 93 a1 22 bd 95 11 31 bd 33 7e 01 3d c7 5f ee 3c
       -0.03970487 -0.04322966 0.031614494 0.029098405
000190 ec 6c 31 3c a2 94 2e bd 1c 47 f6 3c a7 f9 0a 3d
       0.010829192 -0.042622216 0.030063204 0.033929493
0001a0 6f 3c 00 bc b5 bb ba bc 44 49 19 3d c6 db c8 bc
       -0.0078269085 -0.022794584 0.037423387 -0.024518859
0001b0 04 50 26 3c a2 ed f7 3c 59 1c 0a bd 53 8a 2f bc
       0.010150913 0.03026468 -0.03371844 -0.010714131
0001c0 34 a9 ff 3c 12 a4 9a bc c9 5a 52 bb 5d c5 f8 ba
       0.031208612 -0.018877063 -0.003209757 -0.0018979717
0001d0 d4 61 d5 3c dd 7c d1 bc af 58 20 3c 96 59 cb bc
       0.026047625 -0.025572235 0.009786769 -0.024822991
0001e0 70 ad 2a 3d ad 57 29 3d 7b af 85 3b 25 a3 2f 3d
       0.04166931 0.04134338 0.004079757 0.042880196
0001f0 68 8a 06 bc 68 14 c0 bc 8a 0a b1 bc d8 6b da b9
       -0.00821171 -0.02344723 -0.02161147 -0.0004166055
000200 14 6a 42 bc 1f d1 aa bb 5f c2 14 bd bf c8 28 bd
       -0.011866111 -0.0052129175 -0.03631818 -0.04120707
000210 19 29 0a 3b 7c 34 05 3d c4 1c 19 bd b6 78 8d 3c
       0.0021081625 0.032520756 -0.03738095 0.017269474
000220 5d 80 22 3d db d9 c0 3c 3c 6a 5d bc d5 5b 29 bc
       0.039673198 0.023541382 -0.013514098 -0.010336836
000230 c6 be b1 bc 64 77 32 bd 55 a9 0c bd c3 99 1a bd
       -0.021697413 -0.04357089 -0.034341175 -0.037744295
000240 02 22 7a bc 37 d9 13 bd b0 80 32 bd 10 a6 8d 3c
       -0.015266897 -0.036095824 -0.043579757 0.017291099
000250 fa 4e 70 bb 73 7e 97 3c 09 bb ec 3c fe 7f 9b 3c
       -0.0036668167 0.018492913 0.028897779 0.01898193
000260 25 f6 43 3c 2f a8 70 bc de d2 15 3d 7d 7e 31 bd
       0.011960541 -0.014688536 0.03657805 -0.04333352
000270 45 d5 ea bb bc 29 02 3c 57 62 80 3b ff 5b 0a 3d
       -0.007166537 0.007944521 0.003917973 0.03377914
000280 73 09 0a bc 9c d0 9c bc 1f 00 bc bb ce 4d 01 3d
       -0.008425104 -0.019142441 -0.005737319 0.03156834
000290 fe 6c 34 bd db e6 e9 ba df 5e c4 3c 1a 9d 05 3d
       -0.044049256 -0.001784529 0.02397102 0.032620527
0002a0 6a 41 21 3d e2 35 a1 bc 58 4c 11 3d 62 eb 20 bd
       0.039369024 -0.019679014 0.035473198 -0.03928698
0002b0 b6 c0 a8 3c 84 fa 21 3d bf d2 a1 bb 8d 2b 3b bc
       0.020599704 0.03954555 -0.004938453 -0.0114239575
0002c0 fc b2 6f 3c f7 4b b0 3c eb dc 17 bd 3d 75 e5 3b
       0.014630076 0.021520598 -0.03707592 0.0070025013
0002d0 59 5f 82 bc c4 6e ca bb e0 c0 dc ba 63 34 89 bc
       -0.015914606 -0.006177755 -0.0016842149 -0.016748613
0002e0 74 f5 b1 3c 9a 89 b9 bc f7 49 c0 bc 29 3d 21 bd
       0.021723486 -0.022648621 -0.02347277 -0.039364967
0002f0 c6 f8 1c bc 77 5e 21 bd 33 ab da bc 20 75 a7 3c
       -0.009580797 -0.03939673 -0.026692962 0.020441592
000300 7e 89 1e 3d 9a 47 8d bc 97 6c 15 3c 4b 1d 01 3d
       0.03870534 -0.017246056 0.009120128 0.031522077
000310 8c 35 8d bc b5 9f f6 bb 0d a1 1f bc b2 ea d1 3b
       -0.017237447 -0.007526363 -0.009742987 0.0064061517
000320 00 e9 3e bb ee 3d 2d 3d c8 12 07 bd 1e 6e 84 3c
       -0.0029130578 0.04229539 -0.032976896 0.01616579
000330 07 0a ac bc b8 de f6 bc bd 0a 21 bc 0c ed 7d 3c
       -0.021000875 -0.030135497 -0.00982922 0.015498411
000340 db e3 23 bd 8c df 8b ba 5f e5 12 bd 90 32 c3 3c
       -0.04001222 -0.001067148 -0.035863277 0.023827821
000350 b3 f0 27 bc 3c 14 cb 3b 0c ee cb bb ad 00 ad bc
       -0.010250258 0.0061974805 -0.0062234458 -0.021118486
000360 2f 63 87 3b a5 89 f0 bc 2d f4 03 3d 0d 55 05 3d
       0.0041316967 -0.029362509 0.032215286 0.032551814
000370 cf 46 f3 bc 8c 16 23 3d 3f 2d 26 3d a7 40 fa bc
       -0.02969685 0.039816424 0.040570494 -0.030548407
000380 7d 25 8b 3c 4d 85 65 3c 53 a2 9f 3c 3d d9 1a 3c
       0.01698565 0.014008832 0.019486582 0.009451208
000390 96 0a 0b bd 5a 2e f0 bb b7 cc 04 bd 9c 5c 16 bd
       -0.033945642 -0.0073297443 -0.032421794 -0.036709413
0003a0 9b cb 06 bd 60 4c 77 bc e9 ec f1 3b 8b b4 cd bc
       -0.032909017 -0.015093893 0.007382978 -0.025110504
0003b0 59 dd 15 3d cc d3 13 3d 34 67 15 3d c7 74 e5 bc
       0.036588047 0.036090657 0.036475375 -0.028009785
0003c0 2c 77 cb 3c e0 c8 11 3d 89 e4 44 3a ca 7c 31 3d
       0.024837099 0.03559196 0.0007510861 0.0433319
0003d0 38 01 01 3d 82 65 fc bb f1 8b e8 3c 6c fe 2a 3d
       0.031495303 -0.0077025304 0.028387042 0.04174654
0003e0 8f 52 ff bc db 7e 8b 3c 42 56 ed bc 3b 05 27 3d
       -0.031167297 0.017028263 -0.028971795 0.040776473
0003f0 69 e5 2e 3c eb 4d 06 bc ab 7a 1c bd e8 32 01 bd
       0.010674813 -0.008197288 -0.038202923 -0.03154269

layer3.weight f4 [57, 256]
000000 42 8c ed 3c 73 0f c4 bb 4c d0 59 bd 96 a2 5b b9
       0.028997544 -0.005983287 -0.053177163 -0.00020946036
000010 00 58 d1 bc f2 f8 3f 3d 0a ec 6f bd 28 f9 30 3d
       -0.025554657 0.046868272 -0.058574714 0.043206364
000020 dc 3a 9c bc 8e 93 32 3d c1 78 c4 3c 48 c1 3e 3d
       -0.019071035 0.04359775 0.023983361 0.046571046
000030 16 62 a7 3c 63 b3 ba bc ba 96 53 bd 11 0e 51 bc
       0.020432513 -0.022790616 -0.051657416 -0.012759701
000040 81 64 8a 3b 70 8c ab bb f8 03 96 3c 12 43 43 bd
       0.004223407 -0.0052352473 0.01831244 -0.047671385
000050 e0 f6 4e 3d 6b 8c 95 bc 2c e8 65 3d b4 43 d7 bc
       0.050528407 -0.018255433 0.05612962 -0.0262774
000060 ee a8 22 3c ce 75 a9 3b 92 d9 4c bd b8 2f 4a bd
       0.009927971 0.005171514 -0.05001218 -0.049361914
000070 3b bb e9 bc d1 6d 05 bd 8f db 96 bc 30 b6 cf bc
       -0.028531661 -0.032575432 -0.01841524 -0.025355428
000080 9a 77 84 ba 09 54 ce bb fd aa 1c bc 70 30 05 bd
       -0.0010106445 -0.006296639 -0.009562251 -0.032516897
000090 51 6f 83 bc f3 2e 70 bd 38 4e 36 3d e6 92 8f 3b
       -0.01604429 -0.058638524 0.04450819 0.0043815253
0000a0 b9 d6 45 3d 3a 07 1f 3d ce bb f8 3c 66 9d 51 3d
       0.04830048 0.03882525 0.03036299 0.051175497
0000b0 6c 6c 27 bc 71 ef 5a bc 42 f2 62 bd 33 72 88 bc
       -0.010218721 -0.013362751 -0.055406816 -0.016656017
0000c0 0a ad 25 bd 28 74 65 bd fc fc 64 bd 34 a0 5e bd
       -0.040448226 -0.05601898 -0.055905327 -0.054352
0000d0 f0 bd a7 bc 5d fa d5 bc 10 06 9d bc 8e f9 5b bd
       -0.020476311 -0.02612036 -0.01916793 -0.05370479
0000e0 2e 89 6a bc 7a 00 55 bd bc bc b1 3c 44 f4 66 3d
       -0.014314933 -0.052002408 0.02169644 0.056385294
0000f0 40 33 15 3d ae 19 7e 3d 16 94 2e bd bb 7d 4c bd
       0.03642583 0.06203621 -0.042621695 -0.049924593
000100 c6 8f 2c bc 7e 23 dd 3c 58 05 b7 bc fd 88 00 3d
       -0.010532325 0.026994463 -0.022341415 0.031380642
000110 be 96 2a 3d d0 b4 6b bd 14 8b f8 bb e2 0d 13 3d
       0.041647665 -0.057545483 -0.007584939 0.03590191
000120 26 2c e8 3c c0 7b 73 3d 7a 2f a7 bc 72 02 06 3d
       0.028341364 0.05944419 -0.02040838 0.032717176
000130 c0 d8 d5 3c de 91 3d 3d e0 d4 39 3c a2 e1 29 bd
       0.026104331 0.046281688 0.011342257 -0.041474946
000140 9e 4d 6a bc d1 0e a9 bc 7a 20 4c bd 08 1f b6 3c
       -0.014300732 -0.020636948 -0.04983566 0.022231594
000150 17 0a 68 3c 9d 54 18 bd 48 3f f5 bc f0 11 54 bd
       0.014162562 -0.03719007 -0.029937401 -0.05177492
000160 ce 32 b4 3b 50 1e 75 bc b6 74 63 bd 06 e4 5f bc
       0.0054992205 -0.01496084 -0.055531226 -0.013665205
000170 9e 97 d1 3c c2 40 db 3c 26 9e 42 bd 45 3b 0d 3d
       0.025584992 0.026764277 -0.047514103 0.034480352
000180 f8 84 72 3c 7c 71 2e 3d 48 a5 3d bd 84 6f 13 3b
       0.01480221 0.042588696 -0.046300203 0.0022496888
000190 22 ed 75 3a 03 09 3b bd 0a 63 1e bd 4a 41 04 bc
       0.0009381344 -0.04566289 -0.03866867 -0.008072207
0001a0 2a 74 02 bd 29 0e 5c 3c ee 1e 26 bd 69 df 8a bc
       -0.031849064 0.01343111 -0.04055684 -0.016952233
0001b0 aa 01 49 bc 0f 4d 88 bc 52 6b 42 bc 26 de 09 3d
       -0.012268463 -0.016638307 -0.0118664075 0.033659123
0001c0 54 7c 6f bd ce 2c 27 bd 06 9e 51 bd 20 be 30 bd
       -0.058468178 -0.040814213 -0.051176094 -0.043150067
0001d0 0b 90 f0 3c de c8 c0 3c f7 15 9a 3c 8e 4a 3f 3d
       0.02936556 0.023533281 0.018809302 0.04670196
0001e0 ea 82 88 3c 1e e8 53 3d 51 f8 3e 3d ce 87 25 3b
       0.016663987 0.051735036 0.04662353 0.0025257948
0001f0 51 de 0d bd 00 89 05 bd a8 19 eb bc 0e 2e db bc
       -0.034635846 -0.032601357 -0.028698757 -0.026755359
000200 1f 8d fa bc 8e 0b 7e 3d 36 50 5b 3b 0c 20 d7 bc
       -0.03058487 0.06202274 0.0033464557 -0.026260398
000210 e8 bf 0e bd d7 f9 74 3d 94 02 99 3c cc 2e d3 3c
       -0.034850985 0.05980858 0.018677987 0.02577915
000220 23 9f 12 3d 19 b6 10 3d 02 c6 0c bd 80 91 3a 3d
       0.035796296 0.03532991 -0.034368522 0.045548916
000230 00 d5 6e bd 22 85 41 bc f6 a7 63 3d 17 bc db bc
       -0.0583086 -0.0118115265 0.055580102 -0.026823087
000240 e4 9d f3 3c 44 a7 53 3c 5e 4e df bc e2 98 f8 3c
       0.029738374 0.012918297 -0.027259048 0.030346338
000250 12 0f 15 3d 4a 1d 5e bd 58 3d 3d 3b 02 b3 1e 3d
       0.036391325 -0.05422715 0.0028875675 0.038744934
000260 ee c7 16 bd 40 08 ee bc bd d9 ef 3c a2 06 09 bd
       -0.03681176 -0.029056668 0.02927863 -0.03345359
000270 63 b6 3c bd ed 9c 68 bb 7c 36 75 3d e0 04 d4 3c
       -0.046072375 -0.0035493926 0.059866413 0.02588123
000280 f8 6c 79 bd 7c 08 79 bd 16 f9 cd bb e6 87 14 bd
       -0.060894936 -0.060799107 -0.006285797 -0.036262415
000290 ca 9b 0f bc fc 11 d7 bc f2 b6 4e 3d 3b 99 20 3d
       -0.00876517 -0.026253693 0.05046744 0.039208632
0002a0 ec d1 06 bc 3e ad a5 3c 6e e4 74 bd ce 92 85 bc
       -0.00822876 0.02022421 -0.05978816 -0.016305353
0002b0 be 6d 4c 3d 4e 1a ac bb ce d4 27 bd 0c e5 0a 3d
       0.049909346 -0.005252159 -0.04097443 0.033909842
0002c0 63 a6 66 3d 62 49 00 3c 78 8f 95 bc d5 0f cf 3c
       0.056311022 0.007829996 -0.018256888 0.025276104
0002d0 69 58 5d bd 3c 22 8c 3b 48 7f fd 3c aa 5c 81 3c
       -0.054039393 0.004276542 0.030944481 0.015791256
0002e0 bb d2 4a 3d 34 ec 37 bd 98 1d 92 bc c6 03 82 bd
       0.049517374 -0.044902995 -0.017836377 -0.06348376
0002f0 62 b7 ed bc 8c 25 07 3d 4b a1 67 bd c5 bb 51 bb
       -0.029018108 0.032994792 -0.056550305 -0.0032002789
000300 89 79 0e 3d b0 29 54 bd 1b 40 d4 bc 27 72 08 bc
       0.034783874 -0.05179757 -0.025909474 -0.008327997
000310 7e 9f 25 bd 0a 5f 7f bd da cf d9 3b 8d 31 c9 3c
       -0.040435307 -0.062346496 0.0066470923 0.02455976
000320 b7 64 cd bc 36 3e 15 3d 8b c8 7d bb 00 25 06 3d
       -0.025072439 0.036436282 -0.003872427 0.03275013
000330 96 37 3d bd 86 14 38 3d 1c 07 34 3d 22 e0 6a bd
       -0.04619559 0.044941448 0.043952093 -0.057342656
000340 8e 4d 50 bd a8 21 93 bc ab 27 90 bc 9c cd 2f 3d
       -0.050855212 -0.017960384 -0.01759704 0.042920694
000350 0c 20 d1 bb 56 48 e4 3b 5e 77 ea bc 84 00 6b bd
       -0.006381994 0.006966631 -0.028621372 -0.05737354
000360 68 95 5a bc fc bd dd 3c 42 5d 39 3d 90 30 ac 3c
       -0.013341285 0.02706813 0.045254953 0.02101925
000370 d3 ec 64 bd 08 ee 19 bd 17 c1 96 bc e0 ef 9b 3c
       -0.055889916 -0.03758052 -0.01840262 0.01903528
000380 00 02 bc 3c f8 f9 25 bd 04 74 54 3c 1d f0 6f bd
       0.022950172 -0.040521592 0.012967113 -0.0585786
000390 85 36 45 bd 6c 0c 09 3d ce 2f a1 3b 1f 98 b1 3b
       -0.048147697 0.033459112 0.004919029 0.0054197456
0003a0 c2 f6 68 3d 4f e8 1f bd fe 7d fb bc c5 a2 11 ba
       0.05687595 -0.039039906 -0.030699726 -0.00055555656
0003b0 c4 4b 77 3d 66 7d 6b bd 9e fb 27 bd 96 bf 23 3c
       0.06037499 -0.057492636 -0.041011445 0.009994408
0003c0 77 bc 58 3d 9e 48 86 bc 04 45 ea bc 24 e2 74 3d
       0.05291411 -0.016392048 -0.028597362 0.059785977
0003d0 ea 93 70 3c 4c 18 23 bd ac f7 29 3d d6 67 60 3d
       0.014683703 -0.039818093 0.041495964 0.054786526
0003e0 48 45 92 3c c5 21 86 3c 94 e4 93 bb 12 e2 b1 3c
       0.017855301 0.016373524 -0.0045133326 0.021714244
0003f0 e4 04 5b 3d 17 f5 32 bd b2 f2 a9 bc 2e 24 5e bc
       0.05347146 -0.043690767 -0.020745609 -0.013558431

layer3.bias f4 [57]
000000 10 85 7f bc 88 6d 4e bd c8 34 f7 bc 39 41 67 3b
       -0.015595689 -0.050397426 -0.030176535 0.0035286678
000010 dd ee 33 3d 12 ce 60 3c 11 cd e0 3b 9c 72 42 3d
       0.04392897 0.013721006 0.0068603833 0.04747258
000020 29 68 93 3c 2a 54 10 3d 49 a6 0a 3d 2a 1b 4d 3d
       0.017994003 0.035236515 0.033849988 0.050074734
000030 4d 51 e2 ba 5f 4d 29 3d 21 3e 01 3d 4f 9d 67 bd
       -0.0017266661 0.041333552 0.03155339 -0.056546506
000040 d0 8a 75 bd dd 3f 61 3d ee dd e7 bc 5d f0 ea 3c
       -0.059946835 0.054992545 -0.028304067 0.028679067
000050 b9 21 49 3d 63 fa 49 bd 0a 7e 52 3c 39 11 9f bc
       0.049104426 -0.049311053 0.012847433 -0.019417392
000060 40 6f 54 bc 01 eb f7 bb 64 ca cd bc 8a 71 20 bb
       -0.012965977 -0.0075658564 -0.025120921 -0.0024481737
000070 96 07 92 bb ac 83 9d bc ef 75 41 3d bf 61 ef 3c
       -0.0044564707 -0.019227825 0.04723161 0.029221414
000080 2d 74 5c 3d d1 c9 3f bd 39 72 93 bc bd 65 53 3d
       0.05382173 -0.046823326 -0.017998802 0.051610697
000090 3b ff 1c 3d 2b 5b 1b 3d 44 a5 6c bc 47 d0 94 b9
       0.038329344 0.03792874 -0.014443699 -0.00028383938
0000a0 8b 8c 81 bd d4 00 ec bc d5 e2 66 ba d5 0c e9 bc
       -0.063256346 -0.028808989 -0.00088076043 -0.028448502
0000b0 a0 ee 5f 3d 38 4d 15 bb 2f 65 f6 3c e3 be 66 bd
       0.05467093 -0.0022781622 0.030077545 -0.056334388
0000c0 49 ba 1a 3d c1 cc 5e 3d ae 80 a6 3c f2 fd b5 bc
       0.03777531 0.054394487 0.020325031 -0.022215817
0000d0 d4 da 55 3d f6 86 4e 3d 3e 25 32 bd 5f 20 7c bc
       0.052210644 0.050421678 -0.04349255 -0.015388577
0000e0 cf fd 47 3d
       0.048826035
