results/models/dqn/best_model_ep1_2024-11-20_23-58-35.pt (torch, 613462 bytes, 6 tensors)

layer1.weight f4 [512, 12]
000000 d8 8b 5f 3e 21 06 72 3e 3d fe 8c bd 75 c3 89 3e
       0.2183069 0.2363515 -0.068844296 0.26906934
000010 ec bf 84 bd 69 a8 73 3d 8a 02 11 be 92 ce 30 3e
       -0.06481919 0.05948678 -0.14161125 0.172663
000020 82 0f 82 3e 38 cf 59 be d9 c4 80 3e 2a 1d 61 3d
       0.25402457 -0.21270454 0.25150183 0.054959454
000030 d7 78 56 3e 24 c7 11 3d c5 ba 11 3e b1 ae 18 bd
       0.20944534 0.035590306 0.14231403 -0.037275974
000040 ba ef 5f 3e 6d 6a 20 3d 92 3b 06 be c5 60 9d 3d
       0.21868792 0.039163996 -0.13108662 0.07684473
000050 cf 68 0b be 1e e4 f8 bc bc 9e f6 bd 5b 34 40 3e
       -0.136142 -0.030382212 -0.12041995 0.18769972
000060 8e 83 4e be 2c 23 dd bd 22 3f 80 bd eb 91 1c be
       -0.20167372 -0.10797724 -0.06262042 -0.15290038
000070 60 2a 4f 3d 6c 87 86 be c0 96 8f 3e a8 95 66 be
       0.05057752 -0.26275194 0.280447 -0.22518027
000080 5d e8 7b 3e 24 b7 53 3c e0 b9 91 bd b7 33 4d 3e
       0.24600358 0.012922082 -0.07115531 0.20039259
000090 f4 90 3e 3d d8 5b 6c 3e 0f 09 f0 3c 77 49 b6 bd
       0.046524957 0.2308191 0.029301194 -0.08900731
0000a0 c9 e1 a0 3d f7 8b 9b bd 4d d5 f3 3d 5b a1 84 3e
       0.07855565 -0.075950556 0.11905918 0.25904354
0000b0 9d b2 2c 3e ea 35 03 be 01 87 2c 3e 4e 0b 5c 3d
       0.1686501 -0.12813535 0.16848375 0.05372172
0000c0 51 96 10 3e d3 49 2a be 66 ad 8d be e8 fb f8 bd
       0.14119841 -0.16629724 -0.27671355 -0.12157422
0000d0 99 63 5d be 98 65 69 3e ba 48 bb 3d 05 83 e0 3d
       -0.21620025 0.22792661 0.09144731 0.1096249
0000e0 06 e6 aa 3d 63 93 62 3b 28 5c 5e 3e 3e 16 5a be
       0.08344655 0.0034572713 0.21714842 -0.21297547
0000f0 5e e7 0e 3d c6 a6 37 be 80 51 dd 3d 1f 52 a5 bd
       0.034888618 -0.17934713 0.108065605 -0.08072304
000100 a4 c2 d9 3d 85 f8 28 bd 16 b3 83 3e 49 cc 1b be
       0.10632828 -0.04125263 0.2572257 -0.15214647
000110 d7 5b 1d be 15 43 1d be 89 03 8e 3e a6 ff e9 3d
       -0.15367065 -0.15357621 0.27737072 0.11425714
000120 1f 42 85 3e 31 6f 6a be 99 72 8c be f3 c1 6c be
       0.2602701 -0.22893979 -0.2743118 -0.23120861
000130 29 e3 56 be 24 95 d7 3d e7 af ea 3d 99 70 6d 3e
       -0.20985092 0.10526493 0.11459332 0.23187484
000140 49 60 26 be ce 65 3d be 85 54 10 3e 14 89 03 be
       -0.16247667 -0.18495867 0.14094742 -0.1284526
000150 f1 66 3d 3e a6 95 6e bd 0d 0e 33 3e b2 df 5a be
       0.184963 -0.058248185 0.17485829 -0.21374395
000160 f7 7a 0a be 86 9e c8 3d 30 7d 91 3d 52 ab 81 bd
       -0.1352347 0.09795861 0.07103956 -0.06331505
000170 c4 30 3a 3e d5 81 52 3e 2f 97 4b be b5 27 13 be
       0.18182665 0.2055734 -0.1988189 -0.14370616
000180 58 4d 8f 3e 1a 6a a2 bd eb e8 b0 bd 8b e4 86 be
       0.27988696 -0.079303935 -0.086381756 -0.2634624
000190 74 06 18 be 36 61 b5 3d 5d 44 bd bc 64 d6 46 be
       -0.14846212 0.08856432 -0.023103887 -0.19417721
0001a0 e2 ea c0 3c e9 41 4d be b6 f6 69 be 53 23 12 be
       0.0235495 -0.20044674 -0.22848019 -0.14271288
0001b0 d2 e2 6b be 58 0e 26 be e5 61 98 3e ed 63 89 3d
       -0.23035744 -0.16216409 0.29762188 0.067085125
0001c0 a9 20 dc 3d 57 7c 81 be f7 14 32 be ad 1d ab bd
       0.10748417 -0.25290176 -0.1739081 -0.083552696
0001d0 1e 24 82 3d 0f a4 99 be bf 8c db bd 2a 3d 1f be
       0.06354545 -0.3000798 -0.107202046 -0.15550676
0001e0 54 6e cd 3a 7a cd d7 bd 9c d2 bf bc a0 0e 4b be
       0.0015673139 -0.105372384 -0.023415856 -0.19829798
0001f0 9b 08 4a be 20 c4 2d be 9b a0 ce bd 75 33 6c be
       -0.19729845 -0.16969347 -0.10089227 -0.23066504
000200 36 ac 77 3e 86 ae b5 bd 4f 59 7d 3e 5a e8 b6 3d
       0.24186787 -0.08871178 0.247411 0.08931036
000210 9c ec 78 be 93 a5 4d 3e 1f c5 95 bd 58 34 d7 bd
       -0.2430901 0.20082693 -0.073129885 -0.10508031
000220 40 4b 73 be 22 5b 91 be 2a 2a af 3d a6 05 6d bd
       -0.23759174 -0.2838984 0.08552964 -0.057866715
000230 51 b2 e9 3d cf e2 40 be 16 b7 5d 3e f1 e9 55 be
       0.11410964 -0.1883652 0.21651873 -0.20890023
000240 8e 85 03 bd 03 f9 9d 3d 62 89 21 3e 4a ea 76 3e
       -0.03210979 0.07713511 0.15775064 0.24112812
000250 ae 8c 8d 3e 4a e7 5d be 3c 90 aa 3d 86 4f eb bd
       0.27646393 -0.21670261 0.08328292 -0.11489777
000260 bf 5e 96 bc e1 35 76 be 2d dc 8c 3e e0 73 4b be
       -0.018355725 -0.2404399 0.2751173 -0.19868422
000270 0c 15 2a 3e 60 84 e9 3d 17 71 be 3d 66 5a 1e be
       0.16609591 0.11402202 0.09298914 -0.15464172
000280 48 b6 8a 3e ec a9 8b 3d 27 7f 28 3d 8b 88 81 be
       0.27092195 0.068195194 0.041136887 -0.25299487
000290 7e b4 04 3e ff cd d7 bd 12 15 00 be 51 42 82 3e
       0.12959477 -0.105373375 -0.12508038 0.2544122
0002a0 db b5 a7 3d 5c e6 10 be ff c6 f9 bd 1a 5b 12 3c
       0.08188983 -0.14150375 -0.121961586 0.008932853
0002b0 f8 22 39 3e 98 7c 57 bd 65 13 12 be 2a cf 9b bd
       0.18079746 -0.052609056 -0.14265211 -0.07607873
0002c0 cd 96 47 be 75 ae 19 3e 92 61 79 3e 6c 5a 80 be
       -0.1949112 0.15007956 0.24353626 -0.25068986
0002d0 7b b5 75 3d 62 fd 10 3e e3 4a 72 3d 9d ef c3 bd
       0.059987526 0.14159158 0.05915345 -0.09567187
0002e0 d2 e7 12 3e 51 b6 13 3e cf f5 ea 3d 77 73 32 bd
       0.14346245 0.14425017 0.114726655 -0.043567147
0002f0 51 96 aa bd 8c c2 1a 3d 30 45 6d bd 4c 49 be bd
       -0.08329452 0.03778319 -0.05792731 -0.09291324
000300 5a 85 2d 3e ad 0c 83 3e 1c 88 90 bc fd aa 8f bd
       0.16945401 0.25595608 -0.017643027 -0.07015035
000310 85 73 1d bc b1 e8 e5 bc ed 1c a4 3d 64 c2 96 3d
       -0.0096100615 -0.028065057 0.0801333 0.07361296
000320 4d 85 8c be 19 77 c3 bd 04 d6 6c 3e d8 77 ce 3d
       -0.2744545 -0.095442005 0.23128515 0.10081452
000330 1f c0 e2 bc c2 02 27 be b7 fb 27 be 31 c7 88 be
       -0.027679501 -0.16309646 -0.16404615 -0.2671447
000340 25 1e da bd d9 54 ae 3d 2a 97 48 3e 36 5d fc 3d
       -0.10650281 0.08512277 0.19588915 0.12322466
000350 ff 11 89 be 1f e9 24 be cc 11 6d bd 34 50 88 3e
       -0.26771542 -0.16104554 -0.0578783 0.2662369
000360 35 8a 17 3d 21 23 a3 bd 57 10 07 3e a6 81 c9 bd
       0.03699704 -0.07965685 0.13189827 -0.098391816
000370 9b a4 3e be 3d 9b 5d 3e c6 ed fc bd 8f 35 3c bd
       -0.1861748 0.2164125 -0.12350039 -0.045949515
000380 0b 39 92 be 8b fe 9b 3e 8e d4 62 3e 73 96 dd 3d
       -0.28559145 0.30467638 0.22151396 0.108197115
000390 1b d8 4b be 4a b4 90 be 14 cf 6e be 94 20 59 3e
       -0.19906656 -0.2826255 -0.23321182 0.21203834
0003a0 b8 05 11 3e 65 79 77 3e 3e 54 1b 3e 3f e3 90 3d
       0.14162338 0.24167402 0.15168855 0.07074594
0003b0 56 ae 32 bb 4d 91 5f be 9e 5b 7d be e1 3f 8a be
       -0.0027264557 -0.21832772 -0.2474198 -0.2700186
0003c0 91 d5 f9 3d 3d d8 0b be cb 1b 13 bd 59 18 15 be
       0.12198938 -0.13656707 -0.035915177 -0.14560069
0003d0 dc 53 39 bd de 4c 41 be fa 3d 31 be 45 06 ee 3d
       -0.04524599 -0.18876979 -0.17308798 0.116222896
0003e0 9d 18 9f bd 15 12 92 3e ef 76 a6 bd d2 1f 4d be
       -0.077683665 0.2852942 -0.081281535 -0.2003167
0003f0 fb f7 48 bd c3 7e 0f be e0 70 b8 bd e1 9c 8d be
       -0.049064618 -0.140132 -0.09005904 -0.27658752

layer1.bias f4 [512]
000000 55 16 68 be 5f f3 4e 3d ab 00 a3 bd 76 68 61 3e
       -0.22664769 0.050525066 -0.07959112 0.22012505
000010 26 ee 96 be f8 e7 0e bc 60 c0 ec 3d 40 96 df 3c
       -0.29478568 -0.008722298 0.1156013 0.027293324
000020 74 47 c1 bd 4c ae 81 3e 90 82 64 be 93 1b 88 3e
       -0.09437457 0.2532829 -0.2231543 0.26583537
000030 14 45 86 3d a4 44 05 3e 4f 28 3b 3e 8f f7 b1 3c
       0.06556144 0.13014466 0.18277095 0.02172449
000040 21 28 a1 3c 77 a1 90 bd c8 72 87 be 4e f8 f6 3d
       0.019672455 -0.07062047 -0.2645476 0.12059079
000050 19 5d 51 3e c3 29 f5 3d 40 18 7d bd ce 3b 90 be
       0.2044567 0.11970856 -0.061790705 -0.28170627
000060 d2 a2 d0 bc 93 db 96 3d 5d e7 66 be 69 d5 6d 3e
       -0.025468264 0.07366099 -0.22549196 0.23225941
000070 2b 9f a9 bc 05 80 93 3d 66 9e 78 3e 2f 5c 01 3e
       -0.02070578 0.07202152 0.24279174 0.12632822
000080 1d a5 29 be f3 8b c8 3d 48 ee 25 3e b6 f9 09 3e
       -0.16566892 0.09792318 0.16204178 0.13474163
000090 f7 a1 0c be 98 d7 93 3c 16 17 5a be 03 71 4b bd
       -0.1373366 0.018047139 -0.21297869 -0.049668323
0000a0 f3 10 5a be e4 22 32 3e 13 28 87 3e a3 66 92 be
       -0.21295528 0.17396122 0.26397762 -0.2859393
0000b0 64 d4 09 be 7e 09 0a be 9d 91 4e be a1 16 77 3e
       -0.13459927 -0.13480183 -0.20172735 0.24129726
0000c0 7e e2 6a be dc e4 32 be 26 8c 81 be 2b f2 00 bc
       -0.22937962 -0.17470115 -0.25302237 -0.007870237
0000d0 39 0b 63 be 3c e3 4e be 41 c6 8b 3e ea a5 e8 3d
       -0.2217225 -0.2020387 0.27299693 0.113597706
0000e0 2d 94 f2 3d de b3 46 3e f5 5b 2a 3d f8 49 16 3d
       0.118446685 0.19404551 0.041591603 0.036691636
0000f0 8b fc 5d be cf c0 a5 3d 48 7a 66 be 32 13 83 bc
       -0.21678369 0.08093416 -0.22507584 -0.016000364
000100 c9 05 2e be f6 1d 37 be c9 31 21 be 13 3d 1e be
       -0.16994394 -0.17882523 -0.15741648 -0.15452985
000110 7b f7 2e be be 8b 27 be 83 d3 d8 bd 76 0b 8e be
       -0.17086594 -0.16361901 -0.10587218 -0.2774312
000120 e5 22 6c 3e e4 2a c2 3d 55 b7 92 be 3f e5 99 be
       0.23060186 0.09480837 -0.28655496 -0.30057713
000130 59 e6 1a be 1d 32 c7 3d 06 69 80 3e 77 c9 61 bd
       -0.15126933 0.09726355 0.25080127 -0.055123772
000140 2a c0 31 3e fb 1d 1f be 04 61 9c bd 36 2c 85 bd
       0.17358461 -0.1553878 -0.07635692 -0.06502573
000150 bc 9b 8f be 13 6d 5d bc 81 4c 90 3d cb a8 3f 3e
       -0.28048503 -0.013514775 0.07045842 0.18716733
000160 7e 42 64 be 2c a6 b1 bd e5 66 3a 3c 0b 5a fa 3c
       -0.2229099 -0.08674273 0.011377071 0.030560514
000170 5f 2b 2e 3d 72 25 68 be 34 77 70 3e e5 3f 8c be
       0.04252183 -0.22670534 0.23482972 -0.27392498
000180 be c2 e3 bd 2d ae 06 3e 2d 60 c3 bd 34 2b 1e be
       -0.111211285 0.1315238 -0.095398284 -0.15446168
000190 09 07 97 be 1a 8c 3f 3e 03 f8 d3 bb 0c 1c 08 3e
       -0.29497555 0.18705788 -0.0064687743 0.13291949
0001a0 ec c3 84 3d 49 86 6a be 15 43 c8 bd 15 4a 4b 3e
       0.06482682 -0.22902788 -0.0977842 0.19852479
0001b0 53 e3 f8 bd fa ec 07 be 48 83 36 3e cd 52 12 be
       -0.12152734 -0.13273993 0.17823517 -0.14289398
0001c0 19 99 ee 3c 81 44 1d be 58 ca 9d 3d 4a bc 50 3c
       0.029125737 -0.15358163 0.0770461 0.012740204
0001d0 ed ec 7e be 69 a5 67 be 35 1c cc 3d d5 39 c1 bd
       -0.24895068 -0.22621693 0.099663176 -0.09434859
0001e0 0e fb 1d 3e 31 cc 07 3c 3f c4 c9 bd 1f 84 85 bd
       0.15427801 0.008288429 -0.09851884 -0.06519341
0001f0 a1 90 0e be f0 23 13 3e 37 a4 59 3e 90 12 00 bc
       -0.13922359 0.14369178 0.21254049 -0.007816926
000200 45 52 48 be 99 5d 56 3e 93 ee 63 3e d4 b2 3c 3e
       -0.19562633 0.20934142 0.22258978 0.18427593
000210 71 cf 3c bc ec 92 72 3d 7f 94 e4 3b 65 b5 f2 bd
       -0.011524067 0.059222147 0.00697571 -0.118510045
000220 c4 0d 92 be 31 0d 20 bd 7c 2e ff 3d 5b 47 2d 3e
       -0.28526127 -0.03907508 0.12460038 0.16921751
000230 4b f0 69 3d 34 1c fe 3d 71 a9 38 3e c8 46 83 bd
       0.057113927 0.12407723 0.18033387 -0.06409985
000240 27 43 41 3e 0b 47 98 bc 9c f4 d0 bd be 1d e5 bd
       0.18873273 -0.018588563 -0.102029055 -0.111873135
000250 ea e1 40 be bf 0b 68 be 00 a1 59 3d 98 58 84 3e
       -0.1883618 -0.22660731 0.053132057 0.25848842
000260 a6 7d 0d 3d f9 7b 1f 3d 00 b3 e7 bd 52 94 e8 bd
       0.034543656 0.03893659 -0.113134384 -0.11356415
000270 f4 7a d0 bd 50 89 ca 3d e5 0a 35 3d e0 65 e6 bd
       -0.101797014 0.098894715 0.044199843 -0.112499
000280 90 a9 64 3d bc 72 29 bd 02 a4 36 bd d2 1e 4b 3e
       0.05582577 -0.041369185 -0.044590004 0.19835976
000290 3e 6f 00 be 00 37 84 3e 16 8f 24 be 70 39 80 3e
       -0.12542436 0.25823212 -0.16070208 0.2504382
0002a0 e8 b2 c8 3d a9 31 c8 3d ab a4 81 bd 6b 22 ba bd
       0.09799749 0.09775097 -0.06330236 -0.09088596
0002b0 1d c9 57 be a6 73 8d be 32 de 38 3e 21 59 8e 3e
       -0.21072812 -0.27627295 0.18053511 0.27802375
0002c0 22 95 96 3d a7 c8 e6 bd 5e 3d 39 3d 5d 08 a8 bc
       0.073526636 -0.1126874 0.04522454 -0.0205118
0002d0 18 4e 88 be 97 ff 70 be ae cb ba 3d 43 6c c5 bd
       -0.2662208 -0.23535 0.0912088 -0.0963979
0002e0 23 25 8b bd c5 3f 3e be d8 8e fd 3d c3 a0 2c be
       -0.06794193 -0.18579014 0.12380761 -0.168582
0002f0 93 68 d4 bd 2b 55 20 3e 27 98 83 3e 9d cf 6d 3e
       -0.103715084 0.15657489 0.2570202 0.2322373
000300 8c d3 ec 3d c7 ab 27 3c a0 00 4e 3e b7 85 81 3e
       0.11563787 0.010233826 0.20117426 0.2529733
000310 73 23 06 3e 83 70 ad 3d fe 13 3f 3d 18 6c ac 3b
       0.1309946 0.084687255 0.046649925 0.005261909
000320 51 37 30 3e 80 b2 a3 3d f5 ae 76 be b4 ec 37 be
       0.17208602 0.079930305 -0.24090178 -0.17961389
000330 17 11 86 be 60 52 b1 bd 9f e6 f3 3b e8 58 fa bd
       -0.26184914 -0.0865829 0.0074432637 -0.12223989
000340 99 2d 8b be 20 55 4b be ad 80 01 3e 3f 3f a6 bc
       -0.27183226 -0.19856691 0.12646742 -0.02029383
000350 7d 2f 68 bd 1e 0c 3f 3d e7 25 69 bd d3 db 1d be
       -0.056685913 0.046642415 -0.056920912 -0.15415888
000360 59 fd 19 be 26 7d f0 bd 78 18 8d be 1e 1d 8b be
       -0.1503805 -0.1174262 -0.2755773 -0.27170652
000370 fd c8 02 be 8e 89 bd 3d 7a b5 83 3e 56 f2 b6 bc
       -0.12771983 0.09254752 0.25724393 -0.022332352
000380 cf 75 49 3e ec b2 b2 3d 07 f5 6a be 1c 60 1b be
       0.19673847 0.08725533 -0.22945033 -0.15173382
000390 18 c7 c5 bd 83 25 73 be 05 d5 1e 3d 59 7c 52 3d
       -0.09657115 -0.23744778 0.03877737 0.05138812
0003a0 a2 85 6f be 7c 11 85 bd 9e 11 8a be 60 bd 8c 3e
       -0.2339082 -0.064974755 -0.26966566 0.27488232
0003b0 a2 79 19 3e ff 90 de bd 31 55 81 3e b0 d9 41 be
       0.14987805 -0.108674996 0.25260308 -0.18930697
0003c0 ad 7b 68 3e c3 0f e3 bd 71 d0 9b 3d f4 d0 4f 3e
       0.22703429 -0.11086991 0.076081164 0.20294553
0003d0 58 a0 04 3e 03 6f 95 3d ef 1e 31 bd 51 44 d4 bb
       0.12951791 0.072965644 -0.04324239 -0.0064778705
0003e0 8d e4 7b 3e da 65 d7 bd 9d 73 c0 bd 2f e1 fc 3c
       0.24598904 -0.105174735 -0.093970515 0.030869095
0003f0 64 23 0f be a9 4e e2 bd 08 4e 17 3c 5e 17 61 3e
       -0.13978344 -0.110501595 0.009234913 0.2198157

layer2.weight f4 [256, 512]
000000 e1 2d 32 3d aa eb b0 3c a9 03 a7 3c f6 33 09 bd
       0.043500785 0.021596748 0.020387487 -0.03349682
000010 c3 d5 15 3d cb 92 d2 3a 20 18 14 bd ff 88 2b 3d
       0.036580812 0.0016065476 -0.03615582 0.041878697
000020 ac 2f 07 bc 6a f4 96 3a cd 5c ee 3c 7e a8 a9 3c
       -0.008251112 0.0011516933 0.029096985 0.020710226
000030 af 1b 03 3d e5 a2 43 bd 14 9d 15 3d e9 03 30 3c
       0.032008823 -0.04776277 0.036526754 0.01074312
000040 aa 66 fc 3b 9c bb e8 bc e0 c7 df bc ed 11 49 3d
       0.007702668 -0.028409772 -0.027316988 0.04908936
000050 62 c1 d1 3c 3b 32 da 3c d9 1b 2e bc 9a 2a 02 bd
       0.025604907 0.02663528 -0.010626757 -0.03177891
000060 50 01 40 3b 8b e9 73 bc c0 30 eb bc f2 ae d5 3b
       0.0029297657 -0.014887224 -0.02870977 0.0065210992
000070 04 26 e0 3c bb 09 ce bc 0f ee 3d bd 67 d8 8c bb
       0.027361877 -0.025151124 -0.04636961 -0.004298258
000080 d4 b6 bb bc 8f 18 01 bd 8c 97 85 bb c9 ea 1e bc
       -0.022914328 -0.03151756 -0.0040769037 -0.009699532
000090 1f 5c c0 bb 2a 34 d0 3c 5f 2a 91 3c 3f 48 63 3c
       -0.0058703567 0.025415499 0.0177204 0.013872205
0000a0 72 ac a7 bc 36 20 1d bc ce ce ac 3c 95 e1 35 3c
       -0.02046797 -0.009590199 0.021094706 0.011101146
0000b0 32 48 2e bd 80 73 2a 3c 56 31 bd 3c 3b 22 98 bc
       -0.04254932 0.010403514 0.023094814 -0.01857101
0000c0 ec e5 06 bc a0 b3 52 bc e8 43 a2 3c b3 56 ca 3c
       -0.008233529 -0.012860209 0.01980777 0.024699545
0000d0 0b fd 28 bd 3b b9 9d 3c 87 cb c6 3c f9 1c b3 3c
       -0.041256946 0.019253364 0.024266971 0.021864401
0000e0 84 7d 02 bd 62 89 98 bc 49 a4 15 3d 91 67 91 3c
       -0.031857982 -0.018620197 0.036533628 0.01774958
0000f0 29 43 8a bc 4e 5c 12 bc 2d e6 f1 3c a4 4c 93 bc
       -0.016877728 -0.00893314 0.029528702 -0.017980881
000100 c7 a6 bd 3c 5f 2d ab bc 79 ef b0 3b f7 26 9e 3b
       0.023150815 -0.020895658 0.005399641 0.0048264223
000110 01 8a 8c bc 16 a9 c4 bb 49 16 d8 3a 9b d4 15 bd
       -0.01715565 -0.006001602 0.0016486134 -0.03657971
000120 f8 4f 0e bc 04 99 89 3b b0 ca 14 3d 9c 04 20 3c
       -0.008686058 0.004199149 0.03632611 0.009766724
000130 46 8c 19 bd 05 9f da bb 41 4b 15 3d ee 91 5a bc
       -0.03748729 -0.0066717886 0.03644872 -0.013340456
000140 83 d0 21 3d c3 d0 a5 3b 28 33 a5 3c 9e 89 d7 bc
       0.039505493 0.0050602867 0.020165995 -0.026310738
000150 cf 78 31 3d 93 86 cc 3a 05 6f 82 bc be a6 1c 3d
       0.043328103 0.0015604071 -0.015922079 0.038244955
000160 77 2c b2 3c 2e dc f2 bc 91 cf 40 3b bb 7a 01 3d
       0.021749718 -0.029646005 0.0029420594 0.031611186
000170 a1 10 8e 3b 89 7c ad bc f2 af 17 bd 5f 9e 1b bd
       0.0043354784 -0.021177547 -0.03703303 -0.03799283
000180 43 22 fd 3c 5e 4d 4d 3c 46 c9 3b bd cc 43 85 bc
       0.030900126 0.012530653 -0.045846246 -0.01626768
000190 fe ff 94 3b ef ea 05 bd 0b b0 1b 3d 26 3b a9 b9
       0.004547118 -0.032694753 0.038009685 -0.0003227826
0001a0 61 71 b1 bc 48 43 36 3c b5 e7 b4 3c 5a 93 20 3c
       -0.021660509 0.01112444 0.022083143 0.009800756
0001b0 db 05 27 3d 4e 65 cb 3c 2b 24 1d bc 8e 72 65 3c
       0.04077707 0.02482858 -0.009591143 0.014004363
0001c0 fe 06 69 3b b3 23 c8 bc 93 8f 00 bd 2e 5e 3d bc
       0.0035557146 -0.024431085 -0.031386923 -0.011558099
0001d0 69 1a c3 bc 0a 58 4d bd 5c 73 19 3c 8b 98 97 bc
       -0.023816304 -0.05013279 0.009365883 -0.018505355
0001e0 cd 25 0c 3d c4 37 81 3c 22 de 99 3c 44 d5 c2 3b
       0.034215737 0.015773661 0.018782679 0.0059458334
0001f0 3a d4 22 3c 92 28 da 3c ad 81 1e 3d 52 69 20 38
       0.009938294 0.026630674 0.038697887 3.824506e-05
000200 9a 08 cf bb 7d 90 93 3c 24 06 a3 bc 14 8d 12 bc
       -0.006318164 0.018013233 -0.019900389 -0.008944768
000210 4f fb 9b 3c cd 3b 57 3c 99 45 4e bd 3f 0f 30 3c
       0.019040732 0.013136816 -0.050359342 0.010745822
000220 f5 e3 8b bc bd b2 1d bd fe de 99 bc 88 b4 ae 3b
       -0.017076472 -0.038500536 -0.018783089 0.0053315796
000230 7b cf 80 3c b9 d9 3a bd 36 48 44 3c 5c 58 07 3d
       0.015723934 -0.045617793 0.011980107 0.03304325
000240 6c cc 98 bc 62 10 8b 3c be 40 91 bc df a7 31 3c
       -0.018652163 0.016975585 -0.017731067 0.010843246
000250 65 f8 40 3c 5f 8b 0d bd 5d 89 52 3b 14 3f 15 3d
       0.011777972 -0.034556743 0.0032125332 0.03643711
000260 23 ce 4a 3b d4 3b 00 bd 56 9e 10 3a e7 5a 1f 3c
       0.003094562 -0.031307057 0.0005516758 0.009726263
000270 69 f4 a2 3c 33 c3 45 3a 61 49 85 bc 01 02 f0 bc
       0.019891934 0.00075440406 -0.016270341 -0.02929783
000280 69 b3 b3 3c e7 a9 04 bd b8 cd b6 bc b5 88 b6 3c
       0.021936135 -0.032388594 -0.022314891 0.022281984
000290 03 0a e5 bc c4 76 4a bc cf 27 cb bc 91 db 3e bd
       -0.027958876 -0.0123574175 -0.024799256 -0.046596114
0002a0 ae 7f b5 3c e2 1e da bc 46 21 69 bc 6d 5f 89 bc
       0.022155609 -0.026626054 -0.014229124 -0.016769135
0002b0 59 fc 45 3c 46 9f 1e 3d 38 c8 0a 3d 91 c5 de 3b
       0.01208409 0.038726114 0.03388235 0.006798454
0002c0 95 f0 1a bd 2f 4a 55 3b c8 94 85 3a f9 91 18 3d
       -0.037827093 0.0032545438 0.0010191435 0.037248585
0002d0 2c 52 77 bc ee d7 0a bd 0b ad 0f 3c 58 3e 86 bc
       -0.015095275 -0.033897333 0.008769284 -0.01638715
0002e0 2b 70 b0 3c 63 b6 a1 3c b2 d6 0e 3c 6b b0 8c 3c
       0.02153786 0.01974029 0.00871818 0.017173966
0002f0 b1 47 14 bd d8 39 f1 bc fa 80 0a 3d 60 05 08 3d
       -0.036201183 -0.029446527 0.033814408 0.03320825
000300 45 e5 3a bc fe f8 2c 3d 8d c0 fb 3a 5c e2 a2 bc
       -0.011407201 0.042229645 0.0019207165 -0.019883327
000310 28 58 91 bc ab 46 c0 bc a6 44 e7 3c 65 73 0c bd
       -0.017742231 -0.023471197 0.028230976 -0.034289736
000320 e6 85 d0 bc 5f a6 4d 3d 18 ad e9 bc 46 18 17 3d
       -0.025454473 0.050207492 -0.02852492 0.036888383
000330 ee 14 6c 3c 8b 3e b3 3c 4e ca 28 3b a6 f9 d8 ba
       0.014409287 0.021880409 0.0025755349 -0.0016553893
000340 46 53 4c 3c fe dd 9e 3c 8b 3d 92 bc 4d d2 14 bd
       0.012471026 0.019392963 -0.017851612 -0.03633337
000350 4b 95 f2 bc c6 e8 ae bb 44 aa 8b 3c 3c 31 06 bd
       -0.029612204 -0.0053378073 0.017048962 -0.032761797
000360 00 22 05 3c cf 21 d0 3c de c3 9b 3c ea 02 87 bc
       0.008125782 0.025406746 0.019014295 -0.016480882
000370 ca 3c 66 3b fe 42 3f bd ef 02 c5 3c bd 9a 2b bd
       0.0035131448 -0.046694748 0.02404925 -0.041895617
000380 e1 6d 20 3b fd 63 b3 bc c5 c9 15 bd f8 09 2d bd
       0.0024479555 -0.021898264 -0.036569376 -0.042245835
000390 4e 1c e8 bc 23 26 03 bd 4b 2e d8 3c ba ff 62 bc
       -0.02833381 -0.032018792 0.026389262 -0.013854915
0003a0 41 c8 16 bd 2c cf 26 39 82 ec dc bc c8 d9 31 37
       -0.03681207 0.00015908171 -0.026968244 1.0600728e-05
0003b0 1c c4 fa 3c 45 6f 1f bd 18 89 49 bd dc b3 93 3c
       0.03061109 -0.038924474 -0.04920301 0.0180301
0003c0 0b d8 c1 3c 0f a2 2b bd ec 7f a5 3c c9 b1 49 3d
       0.023662588 -0.041902598 0.0202026 0.049241815
0003d0 bb 99 58 bc 53 b2 a2 bc 5b df 59 3c 9e 21 8e 3c
       -0.013220246 -0.019860422 0.013297881 0.017350014
0003e0 e3 08 96 bb 77 89 31 bd 98 32 e0 3a 38 fb e9 bc
       -0.004578696 -0.043343987 0.0017104922 -0.028562173
0003f0 bf 39 1a bd 57 36 a8 3c 91 16 16 3d fc 86 21 3c
       -0.037652727 0.020533724 0.036642615 0.009858843

layer2.bias f4 [256]
000000 76 83 a3 bc 6f 9b 7c 3c f9 6c d1 3c 3f 67 74 bc
       -0.019960146 0.015417918 0.025564658 -0.014917194
000010 78 7c 3a bd 78 ca 0e 3d cd 85 08 3c ab 2f 83 3c
       -0.04552886 0.034861058 0.008332682 0.01601394
000020 b8 54 32 3d 69 ab cb bc 7b d0 33 3c 0e 40 22 3d
       0.043537825 -0.024862008 0.010974999 0.03961187
000030 ee ae 15 3d 92 f0 18 3d b2 90 e2 3c 4a b3 11 bd
       0.03654378 0.0373388 0.027656887 -0.035571374
000040 74 44 a9 bc f9 fc 2d bb d3 68 81 bb 20 20 18 bd
       -0.020662524 -0.0026548489 -0.0039492636 -0.03714001
000050 7c c8 0d bc 5d d4 42 3c 0e 6b 98 3c b9 3d a6 3c
       -0.008653756 0.011891452 0.018605735 0.020293104
000060 19 19 02 3d 30 d5 07 bd a5 ce 80 bc d0 26 22 bd
       0.031762216 -0.033162296 -0.015723536 -0.039587796
000070 74 40 e8 bc 1f dd 8a bb a7 61 a0 bc 66 c9 68 bc
       -0.028351046 -0.0042377855 -0.019577814 -0.014208173
000080 6b ab d6 bc ea f0 0b 3d ea 3f e2 bc ec b0 f3 3c
       -0.026204785 0.0341653 -0.027618367 0.029747449
000090 ad ce 91 bc 6f 09 9c 3c ef 7a 13 bd 27 49 32 bd
       -0.017798746 0.019047467 -0.03600591 -0.043526795
0000a0 2c 55 11 3d 81 78 4b bd 3d ce b3 bc fb 19 b2 bc
       0.035481617 -0.04967547 -0.021948928 -0.021740904
0000b0 99 5f 97 3c 59 ef bf bc 40 36 40 bd 0c c3 87 3c
       0.018478202 -0.02342956 -0.046926737 0.016572498
0000c0 23 60 cc 3c 8e a8 53 bb 07 a5 21 bd 1c 0d da bc
       0.024948185 -0.0032296511 -0.039464023 -0.02661758
0000d0 18 d0 e4 3c 21 a6 2d bc 7d ef 75 bc 42 a4 ba 3c
       0.027931258 -0.01059869 -0.015010712 0.022783402
0000e0 fc 86 35 3b 47 5b b3 bc 36 0d 24 bc 31 98 d0 ba
       0.0027698865 -0.02189411 -0.010012915 -0.0015914497
0000f0 d8 f4 b5 3c 57 9d df bc ee 57 0e bd 17 94 c9 3c
       0.022211477 -0.027296705 -0.034751825 0.024606748
000100 0b 6f fc 3c c9 3a d4 3b 1d 24 fd bc 07 12 b9 bc
       0.030814668 0.0064767343 -0.03090101 -0.022591604
000110 06 26 25 3d 4e 34 f6 bc f0 6a 3a bd ba a3 b1 3c
       0.040319465 -0.030054238 -0.04551214 0.021684516
000120 f6 56 cf ba e4 19 cd bb ff b3 e3 bc 87 90 50 bd
       -0.0015818763 -0.00625919 -0.02779579 -0.050919082
000130 e6 ec 5f bc 81 65 82 3c bd b6 c2 3b 61 f9 ee 3c
       -0.013667321 0.015917541 0.0059421943 0.029171648
000140 ff c3 29 bd 96 20 32 3b dd 6d 05 bd aa 79 35 bd
       -0.041446682 0.0027180067 -0.032575477 -0.04430548
000150 c9 40 48 bc af e1 69 3c 6f 0e 82 bc 19 99 ba bc
       -0.012222477 0.014274999 -0.015876023 -0.02277808
000160 d7 73 0a 3c 78 f3 82 bb 80 6f c6 bc bb 4c fa ba
       0.00845047 -0.003996309 -0.02422309 -0.0019096354
000170 09 ef aa bc e6 cc f5 3c d6 10 08 bd ed 9f b0 bc
       -0.020865934 0.03000493 -0.03321918 -0.021560634
000180 b7 78 22 bd 95 e5 30 bd 0f 89 00 3d 38 83 a0 3c
       -0.039665904 -0.043187696 0.03138071 0.01959382
000190 25 7a 32 3b ca 7d 3c bd a5 ce c0 3c 1a 3a d6 3c
       0.0027233448 -0.0460184 0.023536036 0.026150752
0001a0 51 b7 53 bc c7 e0 ea bc c3 59 01 3d 9b 20 ef bc
       -0.012922124 -0.028671635 0.031579744 -0.029190352
0001b0 53 5f 44 3c a4 b5 db 3c 8c 98 24 bd 62 e3 81 bc
       0.011985618 0.026820011 -0.040184543 -0.015855495
0001c0 3a 7e fb 3c df 1f bf bc 83 14 33 bc 41 c9 dd bb
       0.030699838 -0.023330627 -0.010930183 -0.006768376
0001d0 e3 0a c0 3c 5f d4 02 bd 8a 2c b0 3b 6d f1 ee bc
       0.023442691 -0.031940814 0.005376403 -0.029167855
0001e0 d7 f2 2a 3d 11 a6 fe 3c 16 46 16 3c e2 75 1a 3d
       0.041735496 0.031085046 0.009171983 0.037710078
0001f0 85 4f 27 bc e5 04 d5 bc 27 2c 02 bd bc 61 81 bb
       -0.01021183 -0.02600331 -0.03178039 -0.0039484184
000200 c0 bc 3e bc 51 a4 aa bb 8d 69 2b bd 85 0d 3e bd
       -0.011641681 -0.0052075763 -0.041848708 -0.046399612
000210 f1 04 0a 3b ff 08 05 3d 27 f5 18 bd d0 a4 06 3c
       0.0021060074 0.032479282 -0.03734317 0.008218005
000220 bf c7 ea 3c b6 35 9c 3c 3c 33 5d bc 83 47 8a bc
       0.0286597 0.01906858 -0.013500985 -0.016879803
000230 92 f4 f7 bc 7b 95 4c bd 73 b1 2a bd 88 e9 38 bd
       -0.030267987 -0.049947243 -0.041673135 -0.045144588
000240 e8 c5 bc bc 49 b4 13 bd e6 53 32 bd 0a ad 61 3c
       -0.023043588 -0.036060605 -0.043537043 0.013774166
000250 39 ae be bb 3e 6f 4f 3c 88 ff da 3c c4 fc 5a 3c
       -0.005819109 0.0126608 0.026733175 0.013365928
000260 24 82 44 3c 5e 10 aa bc 5b 72 f8 3c 9a 80 3f bd
       0.011993919 -0.020759758 0.030327966 -0.046753503
000270 41 14 51 bc 36 2f 62 3b b5 43 80 3b 5d 4a c2 3c
       -0.012761177 0.0034513003 0.0039143213 0.0237171
000280 a2 49 59 bc 99 cb 99 bc 61 e4 18 bc 62 2e 01 3d
       -0.013262184 -0.01877384 -0.0093317935 0.031538375
000290 b1 b0 47 bd 5d f4 d1 3b 81 43 d5 3c 1d 8b da 3c
       -0.04875249 0.006407304 0.026033165 0.026677663
0002a0 9b da 06 3d d0 0d a1 bc 10 c5 07 3d a9 33 19 bd
       0.032923322 -0.019659907 0.033146918 -0.037402783
0002b0 bd 9a 7a 3c 72 d2 21 3d 63 fb 22 bc df 4a 76 bc
       0.015295682 0.039507337 -0.009947631 -0.015032499
0002c0 a2 e3 08 3c a0 f1 a3 3c c3 dc 0f bd 33 8e 5e ba
       0.008355053 0.020012677 -0.035122644 -0.0008489817
0002d0 d3 dc a9 bc c7 1b 44 bc 70 20 c3 bb f2 20 a7 bc
       -0.02073518 -0.011969513 -0.0059547946 -0.020401452
0002e0 4d 2c 97 3c 2a ac d7 bc 21 8c c5 bc 73 50 33 bd
       0.018453741 -0.026327211 -0.02411467 -0.043777894
0002f0 46 1c 29 bc 65 36 21 bd ce 4f 08 bd 2f 11 76 3c
       -0.010321682 -0.039358515 -0.033279233 0.015018745
000300 66 8f 04 3d ab 4f af bc ef 32 91 3b ae 74 eb 3c
       0.032363318 -0.021400293 0.0044311206 0.02874216
000310 d0 0f 8d bc 41 5f f6 bb 7c b2 3d bc 1c 0a 75 3a
       -0.017219454 -0.0075186794 -0.0115781985 0.0009347515
000320 33 b7 ff bb 59 12 17 3d f6 fe 21 bd 08 1e 45 3c
       -0.0078038215 0.036882732 -0.03954979 0.012031086
000330 0b 6a c8 bc 59 73 0f bd fb 36 68 bc 46 1d 26 3c
       -0.024464628 -0.035022113 -0.014173265 0.010138815
000340 9d 36 45 bd c6 4b 62 bb 76 53 2b bd 16 e8 96 3c
       -0.048147786 -0.0034530028 -0.04182764 0.018421214
000350 6f 59 a7 bc 63 ba 92 3b d7 84 30 bc 96 d2 ac bc
       -0.020428387 0.0044777854 -0.010773859 -0.021096509
000360 13 2b 30 ba fc ba 0b bd 23 fb ca 3c ca b6 de 3c
       -0.0006720286 -0.03411387 0.024777954 0.02718677
000370 c9 a5 ec bc 7b 6b 2c 3d 3f 4d 10 3d 80 dc 28 bd
       -0.028887646 0.04209469 0.035229918 -0.04122591
000380 e0 5f 16 3c 28 92 14 3c 8d 95 59 3c 1b cf d9 3b
       0.009178132 0.0090680495 0.013280285 0.0066470033
000390 b9 d9 1c bd 0a e2 2c bc b7 ab 04 bd 67 cf 22 bd
       -0.038293574 -0.010551939 -0.032390323 -0.039748576
0003a0 0a e0 39 bd da b8 96 bc a8 c3 ea 3b a1 29 ef bc
       -0.045379676 -0.018398691 0.0071644373 -0.029194655
0003b0 55 38 0d 3d f4 09 09 3d b2 d7 04 3d 76 54 07 bd
       0.03447755 0.033456758 0.032432266 -0.033039533
0003c0 ed 76 90 3c bc a4 11 3d ac 8b 41 bb 46 80 1a 3d
       0.017634833 0.035557494 -0.0029532714 0.037719987
0003d0 fe 2c e2 3c 93 4b 80 bb f1 58 f4 3c 59 1f 2a 3d
       0.027609345 -0.003915259 0.029827567 0.0415338
0003e0 74 70 15 bd 4b 55 4a 3c 8a 1a ed bc b1 28 0e 3d
       -0.036484197 0.012349437 -0.028943319 0.034706775
0003f0 13 67 b7 3b 4a 0b 57 bc 01 51 1c bd 4d 8c 1a bd
       0.005597004 -0.01312525 -0.03816319 -0.037731458

layer3.weight f4 [57, 256]
000000 bb 67 9c 3c 63 53 59 bc ea 96 59 bd 47 91 49 bc
       0.019092431 -0.01326451 -0.05312244 -0.012302703
000010 48 23 d1 bc d6 d7 45 3d 7e bb 85 bd 0f 4a 12 3d
       -0.025529519 0.04830154 -0.06529902 0.03571516
000020 80 11 9c bc e6 07 1d 3d 30 fa 89 3c 24 92 3e 3d
       -0.019051313 0.03833761 0.016842932 0.04652609
000030 dc 36 a7 3c 17 fb f3 bc 2d 38 6d bd d1 a8 04 bc
       0.020411901 -0.029782815 -0.0579149 -0.00809689
000040 9a 51 84 3b 33 cf ef bb 0e de 95 3c 90 11 43 bd
       0.004038048 -0.0073184012 0.01829436 -0.04762417
000050 fd 5f b9 3c 34 6a c3 bc 14 46 64 3d e6 0b d7 bc
       0.022628779 -0.023854353 0.055730894 -0.02625079
000060 0a 97 34 3c ca 49 a9 3b fc 96 67 bd 44 fa 49 bd
       0.011022339 0.005166267 -0.056540474 -0.049310938
000070 24 3b fa bc 41 fd f9 bc a8 64 92 bc 1e 5c e6 bc
       -0.030545779 -0.030516269 -0.017870262 -0.028120097
000080 9a 56 84 ba 06 71 e8 bb 60 fe 84 bc d9 91 d6 bc
       -0.001009661 -0.0070935516 -0.016234577 -0.026192592
000090 2d 95 bc bc 78 06 86 bd 10 1f 36 3d d3 f4 5f bc
       -0.023020351 -0.065442026 0.044463217 -0.0136692105
0000a0 b6 f8 2d 3d bc e0 1e 3d 86 7e f8 3c 2d 68 51 3d
       0.042473517 0.038788542 0.030333769 0.05112474
0000b0 f3 5c 81 bc 0b 85 8e bc 1a b8 62 bd 04 ac bd bc
       -0.015791392 -0.017397424 -0.055351354 -0.023153313
0000c0 c6 98 2b bd 84 1a 77 bd 0a c2 64 bd 6a 68 5e bd
       -0.041893743 -0.06032802 -0.055849113 -0.054298796
0000d0 4b 34 db bc 40 ef 01 bd 66 dc 9c bc c9 ac 73 bd
       -0.026758334 -0.031722307 -0.019148063 -0.059490953
0000e0 dd 00 9a bc 76 c9 54 bd 5e ab 6b 3c fa b7 66 3d
       -0.01879924 -0.05194994 0.014384119 0.056327797
0000f0 bc 8e 0b 3d 41 ea 50 3d fe 58 45 bd 30 cc 48 bd
       0.03407167 0.051004652 -0.048180573 -0.049022853
000100 2e 62 2c bc db 81 7a 3c 30 d6 b6 bc ff be db 3c
       -0.010521455 0.015289749 -0.02231893 0.026824472
000110 f0 69 2a 3d e2 79 6b bd c0 99 73 bc aa 4e d9 3c
       0.041604936 -0.057489283 -0.0148682 0.026526768
000120 95 ef e7 3c ea 43 78 3d 61 e7 fa bc 47 f8 cc 3c
       0.028312484 0.060611643 -0.030627908 0.025020732
000130 bc a1 d5 3c a9 48 55 3d 91 f8 38 3c 48 b5 29 bd
       0.026078098 0.052071247 0.011289732 -0.04143265
000140 98 b3 6d bc 28 90 a7 bc e4 e5 82 bd 36 f0 b5 3c
       -0.0145081505 -0.020454481 -0.063915044 0.022209268
000150 e4 5a 6a 3c 26 8d 3c bd 9e ff f4 bc aa e9 5c bd
       0.014303897 -0.046033047 -0.029907044 -0.053933777
000160 f4 50 c2 ba a6 de 74 bc d8 f7 7f bd 72 ab 5f bc
       -0.0014825151 -0.014945662 -0.06249222 -0.013651716
000170 44 b6 85 3c 8c 0a db 3c a4 6c 42 bd a2 d1 fa 3c
       0.016322263 0.026738428 -0.04746689 0.030617539
000180 e2 46 72 3c b8 46 2e 3d c1 26 59 bd aa d1 1f bc
       0.014787408 0.04254791 -0.053015474 -0.009754578
000190 ee 60 14 3b ef 34 25 bd c1 5b f2 bc 4a 20 04 bc
       0.0022640782 -0.040333685 -0.029584767 -0.008064339
0001a0 f4 c7 f6 bc 0e 1a e9 ba 16 c4 26 bd 88 25 88 bc
       -0.030124642 -0.0017784254 -0.040714346 -0.016619459
0001b0 00 cd 48 bc a5 71 f5 bc 86 a2 e0 bc 7e ba 09 3d
       -0.012255907 -0.029961416 -0.027421247 0.03362512
0001c0 cf a3 47 bd 94 01 27 bd 97 f7 8a bd dc d2 48 bd
       -0.048740204 -0.04077299 -0.06785505 -0.049029216
0001d0 37 7d c4 3c 0a f3 ba 3c 88 a7 9b 3c 0c a9 47 3d
       0.023985488 0.022820968 0.019000784 0.0487452
0001e0 2b 37 8a 3c 8c 2b 1b 3d 71 6e 3b 3d 5e 5d 25 3b
       0.01687201 0.037883326 0.045759622 0.0025232653
0001f0 28 e1 2a bd 36 67 05 bd 84 df ea bc d8 f7 da bc
       -0.041718632 -0.032569133 -0.028671034 -0.02672951
000200 6e 74 bf bc 1e cb 7d 3d 00 1a 5b 3b 60 61 cf bc
       -0.023370948 0.061961286 0.0033432245 -0.025314987
000210 62 99 0e bd b6 08 21 3d 39 db 98 3c 2e 9a f4 3c
       -0.034814246 0.039314948 0.018659221 0.029858675
000220 a6 0c 1f 3d a4 77 f0 3c 10 a1 0c bd 95 60 3a 3d
       0.038830422 0.029353924 -0.03433329 0.045502264
000230 a6 cc 73 bd 74 cd 23 bc 23 6a 53 3d c7 23 ea bc
       -0.05952134 -0.009997714 0.05161489 -0.028581513
000240 04 5f f3 3c 0a 71 53 3c 0e 16 df bc 7a ab ca 3c
       0.029708393 0.012905369 -0.027232196 0.02473997
000250 05 fd 0c 3d 68 3b 7a bd dc d4 a2 bb da 98 19 3d
       0.034420986 -0.06109181 -0.0049692225 0.037499286
000260 6c a1 16 bd 16 55 1b bd 0c 4b f2 3c 36 b5 26 bd
       -0.036775038 -0.03792294 0.0295768 -0.04070016
000270 56 29 3a bd 27 a9 64 bc d2 f6 74 3d a6 ce d3 3c
       -0.045449577 -0.013956345 0.0598057 0.025855374
000280 fc 03 77 bd ca c8 9a bd 81 ce 62 bc ab 62 14 bd
       -0.060306534 -0.07557829 -0.01384318 -0.03622691
000290 40 ea 11 bc ca 71 ee bc 76 ca 64 3d 47 cc 09 3d
       -0.008905947 -0.029106993 0.055857144 0.03364208
0002a0 51 34 7b bc ce 82 a5 3c bb 93 87 bd 04 71 85 bc
       -0.015332297 0.020203974 -0.06619974 -0.016289242
0002b0 4c e2 4e 3d b6 ec ab bb 34 8a 25 bd df be ed 3c
       0.050508782 -0.005246724 -0.040415004 0.029021678
0002c0 43 35 50 3d c0 2a 00 3c c0 69 95 bc 61 ad d2 3c
       0.050832044 0.007822692 -0.018238902 0.02571744
0002d0 4c 7a 5a bd 3c 5c a1 3b 9c e3 fa 3c 3e 3d 81 3c
       -0.053339288 0.0049243253 0.03062611 0.015776273
0002e0 7d 9e 26 3d 42 bc 37 bd 0a 5f b3 bc 7d fc 8d bd
       0.04067849 -0.04485727 -0.021895904 -0.06932924
0002f0 a9 74 1e bd f8 02 07 3d 24 20 67 bd 43 34 47 bc
       -0.038685475 0.032961816 -0.056427136 -0.012158456
000300 8c 87 ec 3c be 45 7a bd d2 67 d3 bc e5 48 5f bc
       0.028873228 -0.061101668 -0.025806341 -0.013628219
000310 0e 75 25 bd ff 1d 7f bd 62 35 80 3b 73 3d a9 3c
       -0.040394835 -0.062284466 0.0039126137 0.020659184
000320 20 4d c6 bc 7e 18 15 3d 23 d2 ff bb dc 71 e9 3c
       -0.024206698 0.03640031 -0.0078070327 0.028496675
000330 3c 09 3d bd 14 76 8a 3d 88 d9 33 3d fe a5 6a bd
       -0.046151385 0.06760803 0.043908626 -0.05728721
000340 a5 49 58 bd b8 60 d1 bc 48 8c 67 bc 66 a2 2f 3d
       -0.052804608 -0.025558814 -0.014132567 0.042879485
000350 66 eb d0 bb 35 3a 22 3b ce d7 fd bc 60 c6 6a bd
       -0.006375718 0.0024753932 -0.030986693 -0.05731809
000360 c9 24 51 bc 83 ee b9 3c 12 a3 52 3c bf 31 42 3c
       -0.012765118 0.022696739 0.012856262 0.011852681
000370 60 97 7f bd e2 90 35 bd 3c b8 90 bc 00 c7 9b 3c
       -0.06240022 -0.044327624 -0.017665975 0.019015789
000380 78 d0 bb 3c 23 57 2b bd 9b 3d 54 3c df 62 80 bd
       0.022926554 -0.041831147 0.012954141 -0.06268858
000390 42 05 42 bd 0e e9 08 3d bc 07 a1 3b ba 0e 65 ba
       -0.047368295 0.033425383 0.004914252 -0.0008737851
0003a0 55 54 3c 3d e7 d8 4f bd 22 3f fb bc 10 ca 67 3a
       0.045978863 -0.050743964 -0.030669753 0.00088420603
0003b0 86 aa 5e 3d bf 42 6b bd 64 d0 27 bd 7f 31 1d 3b
       0.054361843 -0.0574367 -0.04097022 0.00239858
0003c0 45 bc 53 3d d4 26 86 bc e0 0a ea bc 51 be 5b 3d
       0.05169322 -0.016375937 -0.028569639 0.053648297
0003d0 35 f1 a5 3b 70 ef 22 bd 1f cb 29 3d 42 2f 60 3d
       0.0050641545 -0.039779127 0.041453477 0.05473257
0003e0 24 21 92 3c 7a 65 48 3c a6 bf 93 bb e9 d9 89 3c
       0.017838068 0.012231225 -0.0045089303 0.01682754
0003f0 37 06 45 3d 60 d9 46 bd 31 c6 a9 bc 64 ec 5d bc
       0.04810163 -0.04854715 -0.020724388 -0.013545129

layer3.bias f4 [57]
000000 6f 0a 14 bd 8c 01 5b bd ab 2f 43 bd fa 1a 9f bc
       -0.036142763 -0.053468272 -0.04765288 -0.019422043
000010 fc 60 52 3d 55 cf b4 3c b0 81 3f 3c 26 3e 39 3d
       0.051362023 0.02207152 0.011688635 0.045225285
000020 c1 84 23 3c 53 fd c5 3c 3c 49 cd 3c c9 3b 3a 3d
       0.0099803815 0.024168646 0.025059335 0.04546717
000030 12 6f f5 3b 84 79 30 3d 22 69 1c 3d c6 5b a8 bd
       0.0074900473 0.043084636 0.0381862 -0.082206294
000040 ab 37 73 bd f7 da 52 3d 2e ee d0 bc ff 81 4d 3c
       -0.05937926 0.051478352 -0.025504198 0.0125432005
000050 a7 5a 62 3d dc 7a 04 bd 78 4f 2f 3b 19 e5 55 ba
       0.055262234 -0.03234373 0.0026750248 -0.00081594434
000060 01 27 96 bc 41 70 1f bb 1c 8f 01 bc 9e 01 d7 3c
       -0.018329145 -0.0024328383 -0.007907655 0.026245888
000070 40 82 0c 3c a7 11 7f bc d7 83 42 3d 49 09 d8 3c
       0.008575976 -0.0155681735 0.047489014 0.026371615
000080 f2 01 33 3d b5 b1 20 bd 99 d0 13 bd 26 ee 3f 3d
       0.043703027 -0.039231975 -0.036087606 0.046857975
000090 03 47 39 3d d7 f0 25 3d 47 f1 ac bc 66 12 00 bb
       0.045233738 0.040512886 -0.021111144 -0.0019542216
0000a0 c2 26 a4 bd b1 64 ef bc d5 19 2d bc e9 7a 0a bd
       -0.08015205 -0.029222818 -0.010565241 -0.033808623
0000b0 7a 01 6d 3d d5 42 cf 3b 21 d1 10 3d cf e1 57 bd
       0.057862736 0.0063251057 0.03535569 -0.052705582
0000c0 f3 5c b8 3c 24 d8 33 3d 8d e1 f8 3b 15 37 3d bd
       0.02250526 0.0439073 0.007595247 -0.04619511
0000d0 0d 45 28 3d b1 be 63 3d 59 0e 72 bd 6b d5 84 bc
       0.041081477 0.05560178 -0.059095714 -0.016215047
0000e0 6a c7 a5 3d
       0.08094676
