results/models/dqn/best_model_ep2_2024-11-21_00-07-16.pt (torch, 613462 bytes, 6 tensors)

layer1.weight f4 [512, 12]
000000 36 15 3a 3e 07 f5 89 3e a8 e2 1b bd ad 5f 80 3e
       0.18172154 0.26944754 -0.038057953 0.25072995
000010 1d d2 e4 bd 23 e8 ec 3c 49 30 e1 bd df 2f 1b 3e
       -0.111728884 0.028919285 -0.10995538 0.1515498
000020 31 c7 6a 3e 54 79 38 be e6 ea 6c 3e 16 27 25 3d
       0.22927548 -0.18015033 0.23136482 0.04032048
000030 38 ec 4a 3e 92 b3 4f 3d b0 32 2d 3e 01 99 71 bd
       0.19816673 0.05070836 0.16913867 -0.058983807
000040 b7 9c 33 3e 72 92 28 3c da b7 ce bd 0d 0c 72 3d
       0.1754025 0.0102888215 -0.10093661 0.059093524
000050 a2 0a 1c be 8a 10 be ba a6 ac 06 be 2b 2b 33 3e
       -0.15238431 -0.0014500779 -0.13151798 0.17496936
000060 c5 f5 1e be 68 94 44 bd c8 d0 45 be ff 73 16 be
       -0.15523441 -0.047993094 -0.19317925 -0.14692686
000070 93 e5 dd 3d 28 5d 82 be de ff 90 3e 70 ac 62 be
       0.108348034 -0.25461698 0.2832021 -0.22136092
000080 4b bf a1 3e b7 eb e7 3a f1 4d 45 bd 74 d4 60 3e
       0.31591257 0.001769415 -0.048170034 0.21956044
000090 78 38 b2 3c df 14 80 3e fe e8 7e 3d fe ba bc bd
       0.021755442 0.25015923 0.062233917 -0.092153534
0000a0 c3 6a 2a 3d 8b 8d dd bd ac 74 1a 3e 63 14 7b 3e
       0.041605722 -0.10818013 0.1508357 0.24519496
0000b0 f8 48 18 3e ec 04 bf bd 11 4e 0a 3e d7 67 ff 3c
       0.14871585 -0.09327111 0.13506342 0.031177444
0000c0 68 be 0f 3e 4f 74 25 be 6e 57 8e be 0b 91 0c be
       0.14037478 -0.1615765 -0.2780108 -0.13727205
0000d0 b0 84 57 be 66 47 6b 3e 94 51 af 3d 17 c2 cc 3d
       -0.2104671 0.22976455 0.08560482 0.09997957
0000e0 6a 86 97 3d 51 dc aa ba 7d 1e 61 3e 93 5e 50 be
       0.07398684 -0.001303563 0.21984287 -0.20348577
0000f0 a5 b7 bf 3d 1b 31 fb bd 29 c5 50 3b 96 6e 6e bd
       0.09361199 -0.122652255 0.0031855798 -0.05821093
000100 79 3f 19 3e da c8 d2 bc 31 ff 87 3e 73 ee 0b be
       0.14965619 -0.02573054 0.26561883 -0.1366518
000110 a7 7c c1 bd b6 9b ca be 3b f9 98 3e 3b 8d 0c 3e
       -0.09447604 -0.39571923 0.29877648 0.1372575
000120 9e 01 85 3e d5 3b 71 be 39 6c 8d be 40 ce 92 be
       0.25977796 -0.2355798 -0.2762163 -0.2867298
000130 51 b7 38 be 93 60 df 3d 44 0a dd 3d 7c c8 34 3e
       -0.1803868 0.10907092 0.10792974 0.17654604
000140 59 61 3c be 05 72 40 be b4 09 23 3e dc d4 e6 bd
       -0.1839651 -0.18793495 0.1592167 -0.112710685
000150 68 ee 37 3e 3a 16 78 bd 11 cc 2d 3e 21 3c 5b be
       0.17962039 -0.060568072 0.16972376 -0.21409656
000160 97 ed 0b be e0 a9 c0 3d 3c d9 88 3d 6e 2e 86 bd
       -0.13664852 0.09407401 0.06682059 -0.065518245
000170 c5 c6 34 3e 3f 72 4c 3e 7a 3f 4c be bc 80 14 be
       0.1765395 0.19965456 -0.1994609 -0.14502233
000180 44 47 af 3e 76 cf 13 3c 91 cb 48 be 35 b1 75 be
       0.3423406 0.0090216305 -0.19608904 -0.2399338
000190 54 14 8d bd d3 29 d9 3d 4d 59 c1 bb b6 fb 35 be
       -0.06888643 0.106036805 -0.005900538 -0.17771801
0001a0 68 20 ef 3d 40 18 7d be 4e f5 3b be 06 d2 cb bd
       0.11676103 -0.24716282 -0.18355295 -0.09952168
0001b0 00 07 43 be 0f ea 02 be 11 d5 81 3e bc b4 a6 3d
       -0.19045639 -0.12784599 0.2535787 0.08139941
0001c0 df d5 07 3e 6b b7 79 be cd 16 26 be 08 34 8f bd
       0.13265179 -0.24386375 -0.16219635 -0.06992346
0001d0 ee cb c6 3d 1e d0 ab be ab 5c b8 bd c4 7a 0d be
       0.09706865 -0.33557218 -0.0900205 -0.13816363
0001e0 fe 73 4d 3d cf 25 24 bd ed 1c 18 be be 5b 42 be
       0.050159447 -0.04007512 -0.14854784 -0.1898031
0001f0 5e c2 0c be fc 7b 2a be 5a ce c7 bd 06 82 69 be
       -0.1374602 -0.16648859 -0.09756155 -0.22803506
000200 76 01 a0 3e e6 44 2d be 7b 77 88 3e 8e cd e0 3d
       0.31251115 -0.16920814 0.26653656 0.109767064
000210 55 59 63 be 36 ec 4d 3e 53 5f 9e bd 6d 82 c1 bd
       -0.22202046 0.20109639 -0.077330254 -0.09448705
000220 73 4e 5e be de 0a 87 be 28 63 db 3d 35 0f 34 bd
       -0.21709614 -0.26375479 0.10712272 -0.043959815
000230 03 d9 02 3e 28 de 24 be 98 dd 67 3e 75 29 46 be
       0.12778096 -0.16100371 0.22643125 -0.19351752
000240 d8 0b 84 3b d7 bf 00 3e d5 94 06 3d 36 ba 71 3e
       0.004029732 0.12573181 0.03285678 0.2360619
000250 14 e8 a0 3e 24 b7 64 be f3 54 94 3d 74 33 f6 bd
       0.31427062 -0.22335488 0.07242765 -0.12021533
000260 4e e5 26 3d 3b 22 6e be 1d 5d 90 3e 78 f8 3e be
       0.040746026 -0.23255245 0.2819604 -0.18649471
000270 2e c0 4c 3e a8 15 2d 3e 95 98 49 bd 98 48 1c be
       0.19995186 0.16902792 -0.04921778 -0.15262067
000280 60 97 a3 3e 33 60 66 3d 5c f1 09 3d 55 4b 82 be
       0.31951427 0.056244086 0.033677444 -0.254481
000290 a7 22 4c 3e 2e e6 58 bd 71 e2 dd bd 2a 0e 88 3e
       0.19935094 -0.05295389 -0.10834206 0.26573306
0002a0 ee 99 59 3d e0 a0 44 be 57 e4 5b bc fc 0b 27 3c
       0.053125314 -0.19201994 -0.01342114 0.010195728
0002b0 10 25 0d 3e d5 f5 4e bd 12 4e 09 be 29 22 8c bd
       0.1378367 -0.050527412 -0.13408688 -0.06842453
0002c0 ab fe 7c be f4 53 5c 3e a9 b2 68 3e db 4b 85 be
       -0.24706523 0.215164 0.22724403 -0.26034436
0002d0 f2 c4 7c 3d 25 bf 22 3e 0a 5f 68 3d 21 bf bd bd
       0.06171126 0.15893228 0.05673126 -0.092649706
0002e0 4a f3 fc 3d 75 ed 13 3e b0 5a e4 3d 00 78 28 bd
       0.12351091 0.14446051 0.1115011 -0.041130066
0002f0 ef 6c 92 bd e0 aa 11 3d 64 78 78 bd f7 8f bc bd
       -0.07149684 0.03556335 -0.06066169 -0.092071466
000300 9c e0 15 3e 26 c6 78 3e 3a 1a b0 3c ff 94 13 bd
       0.14636463 0.24294338 0.02149688 -0.036030766
000310 da 8b ee 3c b2 fb 87 bd 38 9e f1 3d 55 c4 d0 3d
       0.02911942 -0.06639804 0.11797756 0.10193697
000320 ec a5 60 be 08 d7 62 bd 79 a7 5a 3e d3 35 b7 3d
       -0.21938294 -0.05538085 0.21352948 0.08945813
000330 cb f4 37 bd a8 15 29 be 42 b9 19 be d8 99 82 be
       -0.044911187 -0.16512167 -0.15012076 -0.25507998
000340 c4 bc c0 bd e9 ae 93 3d 3a 4c 52 3e 88 6b 03 3e
       -0.09411004 0.07211096 0.2053689 0.12833989
000350 23 00 83 be 08 ad 16 be a4 24 97 bd 10 91 75 3e
       -0.25586042 -0.14714444 -0.073800355 0.23981118
000360 8c 50 ca bc c8 25 23 be 79 0f 84 3e a2 c7 e7 bd
       -0.02469661 -0.15932381 0.25793055 -0.11317374
000370 c8 c7 82 be 55 b4 4d 3e ee b1 02 be 52 d6 58 bd
       -0.25543046 0.20088322 -0.12763187 -0.052938767
000380 40 c7 be be 6b ea ac 3e 27 ea 3d 3e 88 3a 98 3d
       -0.3726139 0.33772597 0.18546353 0.07433039
000390 08 e4 4a be 6f 65 91 be a0 5e 6c be 01 a3 52 3e
       -0.1981355 -0.283977 -0.23082972 0.20569994
0003a0 a5 ad 04 3e 2b bf 74 3e 7d f0 18 3e 42 da 99 3d
       0.12956865 0.2390105 0.14935489 0.075123325
0003b0 26 5a 6b 3b ec 48 5d be 37 c9 81 be fb a2 88 be
       0.0035911887 -0.21609849 -0.25348827 -0.26686844
0003c0 d9 11 e1 3d 7e ab 2b be b7 3c 80 3d 41 c1 0f be
       0.10989732 -0.16764638 0.062615804 -0.14038564
0003d0 e3 eb 90 bd 25 b3 31 be c7 bd 1f be 33 4e fb 3d
       -0.07076242 -0.17353494 -0.15599738 0.12270775
0003e0 5b 90 ef bd d4 ee 7d 3e 11 ea a9 bd 4c c7 4c be
       -0.116974555 0.24798137 -0.08296598 -0.199979
0003f0 6e 9e dd 3b 0e 94 b4 bd 2a e1 95 be 98 17 82 be
       0.006763271 -0.08817302 -0.2927335 -0.25408626

layer1.bias f4 [512]
000000 a5 ec 81 be d5 be ae 3c 46 2b cd bd e2 87 3c 3e
       -0.25375858 0.02133123 -0.100180194 0.1841121
000010 bc a3 92 be 25 73 07 bd 37 a2 f4 3d 18 f9 f5 3c
       -0.28640544 -0.033068795 0.119450025 0.030026004
000020 ed 5e 08 be c2 5f 71 3e 59 d9 76 be a3 34 80 3e
       -0.13317461 0.23571685 -0.24106349 0.2504016
000030 05 11 60 3d ee 80 eb 3d 0e b9 45 3e 71 f0 bd 3c
       0.05470373 0.11499201 0.19308874 0.02318594
000040 a5 6f 9f bc 1b 33 a7 bd ed b3 69 be 16 e8 f4 3d
       -0.019462416 -0.081640445 -0.22822542 0.119583294
000050 74 0e 51 3e be 26 e1 3d e4 ea 94 bd d0 9e a8 be
       0.2041567 0.109937176 -0.07271364 -0.32933664
000060 f7 33 e4 bc d2 f4 a7 3d 16 95 4e be 3d 74 55 3e
       -0.02785681 0.08200993 -0.2017406 0.20845123
000070 48 86 96 bd 90 f2 91 3d 69 57 44 3e c1 66 ee 3d
       -0.07349831 0.07126343 0.1917397 0.116406925
000080 fd c3 3f be da 93 b0 3d 99 3c 1f 3e d4 2f c9 3d
       -0.18727107 0.086219504 0.1555046 0.098235756
000090 9e d3 44 be f5 ef f0 bb ff 5d 66 be 3a 59 22 bd
       -0.1922135 -0.007352824 -0.22496794 -0.039635874
0000a0 a8 34 6b be 72 57 2c 3e 0d 61 61 3e 54 e1 8d be
       -0.22969306 0.16830233 0.22009678 -0.27710974
0000b0 35 7f fe bd 84 88 09 be 5f 8b 66 be c2 ea 79 3e
       -0.124266066 -0.13430983 -0.22514103 0.24405959
0000c0 34 61 6e be d9 ef 35 be d0 13 97 be c4 d7 59 3d
       -0.23279268 -0.17767276 -0.29507303 0.053184286
0000d0 38 61 6d be cd 3f 3d be be 2f 87 3e ee 45 d4 3d
       -0.23181617 -0.1848137 0.26403612 0.103649005
0000e0 16 2c b0 3d e2 4b 12 3e 19 e9 e8 3b 44 4c b8 3c
       0.08602159 0.1428676 0.0071078655 0.022497304
0000f0 1d e7 62 be b7 8e 33 3d 37 76 6c be 2b d8 78 bd
       -0.22158475 0.043837275 -0.2309197 -0.06075303
000100 56 fe 44 be 01 01 ed bd 6c 5e fa bd f2 51 04 be
       -0.19237646 -0.11572457 -0.12225041 -0.12921885
000110 64 92 49 be ff 0d 36 be 8f a2 b5 bd b9 a6 82 be
       -0.1968475 -0.17778777 -0.08868896 -0.25517824
000120 4a 9a 53 3e 6d 37 bf 3d 0b c5 99 be ca e3 95 be
       0.20664325 0.093367435 -0.30033144 -0.29275352
000130 11 c2 cb bd 6a 3e d8 3d ab 32 59 3e 7c d0 97 bd
       -0.099491246 0.105587795 0.21210735 -0.07412812
000140 7a 53 28 3e 65 07 26 be ae 44 a8 bd ff af a6 bd
       0.16438094 -0.16213758 -0.082162246 -0.08139037
000150 1c 4a 94 be 00 95 21 bd 63 74 b1 3d f8 26 21 3e
       -0.2896279 -0.039448738 0.08664777 0.15737522
000160 b0 e3 63 be ea 98 e3 bd 68 c5 47 3c c1 3e f7 3c
       -0.22254825 -0.111131504 0.012193061 0.03018129
000170 21 c4 29 3d e9 19 7d be 03 c2 4a 3e 7c f2 7f be
       0.04144681 -0.24716915 0.19800572 -0.24994844
000180 0a 08 fd bd f1 c7 fb 3d f4 c1 08 be 84 06 42 be
       -0.12355049 0.12293995 -0.13355237 -0.18947798
000190 ce 22 80 be 0c e9 39 3e 08 f6 f6 bb 9e 80 18 3e
       -0.25026554 0.18155307 -0.0075366534 0.14892814
0001a0 ed 0b c4 3d 81 70 69 be 3e d9 02 be 95 42 39 3e
       0.09572587 -0.22796823 -0.12778184 0.18091805
0001b0 12 cf bf bd 3f 3d 06 be db 9d 5c 3e ea 91 20 be
       -0.093656674 -0.13109301 0.21544592 -0.15680662
0001c0 e5 7e 0b bc 64 8f 3d be 6c fc 8a 3d 10 29 92 3b
       -0.008514141 -0.1851173 0.06786427 0.0044604614
0001d0 11 6f 7c be a4 fd 51 be 3e 1c bf 3d f9 d3 be bd
       -0.24651743 -0.20506912 0.09331559 -0.09317774
0001e0 c9 45 02 3e 42 0b 2e 3b 45 e2 e0 bd 45 78 d4 bd
       0.12721933 0.0026557003 -0.109806575 -0.10374502
0001f0 f8 84 1c be 27 9c 3c 3e 16 04 40 3e 6d c1 3f bd
       -0.15285099 0.18418942 0.18751559 -0.046815325
000200 bb c8 2f be 40 cd 3f 3e fa 37 6a 3e 13 7e 38 3e
       -0.17166416 0.1873064 0.22872916 0.18016843
000210 23 1b 44 3c 73 a1 18 3d ba d7 85 bb 23 b9 de bd
       0.0119693605 0.037263345 -0.0040845545 -0.10875156
000220 e1 bf 9f be 63 7f bf bd 0c 79 03 3e 0d a3 15 3e
       -0.3120108 -0.09350469 0.12839144 0.1461298
000230 c6 02 72 3d dc b7 e5 3d 2e af 23 3e 58 2d 96 bd
       0.059084676 0.11216709 0.15984794 -0.073328674
000240 56 b2 3f 3e 86 52 09 bd b9 f4 08 be 80 fb 10 be
       0.18720374 -0.033525966 -0.13374604 -0.1415844
000250 22 1e 58 be b5 e2 87 be 33 a7 5b 3d d6 2a a8 3e
       -0.21105245 -0.2654015 0.05362625 0.3284518
000260 96 d1 89 3d 1a db 27 3d 53 4a bf bd 69 b9 e7 bd
       0.067294285 0.040980436 -0.09340348 -0.11314661
000270 6b a9 fe bd f0 04 d4 3d 5d 45 04 3d ff 44 0e be
       -0.12434658 0.10352504 0.032292712 -0.13893507
000280 09 41 97 3d 83 d6 4a bd cb 0c 85 bd e0 4d 36 3e
       0.07385451 -0.04952098 -0.06496581 0.17803144
000290 db 51 f2 bd a7 0c 7b 3e 93 b6 40 be 12 ee 7c 3e
       -0.11832019 0.24516545 -0.18819647 0.24700192
0002a0 e5 a5 d6 3d a7 fc b3 3d 2a c1 7f bd ed 47 cb bd
       0.104808606 0.08788424 -0.062440075 -0.09925828
0002b0 a2 52 67 be 22 b2 8b be a2 8b 30 3e 19 5b 85 3e
       -0.22590116 -0.27284342 0.17240766 0.26046064
0002c0 f6 8a 23 3d aa 7a 97 bd ec 87 46 3d 40 94 2e bc
       0.039927445 -0.07396443 0.04846947 -0.010655463
0002d0 f6 e6 72 be 19 52 37 be 15 78 c3 3c 3d d5 0c be
       -0.23720917 -0.17902412 0.02386097 -0.13753219
0002e0 ff db 90 bd 1a 19 28 be 08 a5 4a 3d 1b c9 37 be
       -0.07073211 -0.16415825 0.049473792 -0.1794781
0002f0 62 d4 c4 bd 10 8f 2a 3e 57 3a 83 3e 12 f1 55 3e
       -0.09610821 0.16656137 0.25630447 0.20892742
000300 82 bc 9a 3d a4 62 a6 bc c5 4b 4a 3e 72 e2 6f 3e
       0.07555486 -0.020310707 0.19755466 0.23426226
000310 0c 60 0c 3e 89 a6 20 3d 7e b0 f2 3c 47 5f ba bc
       0.13708514 0.03922132 0.029625174 -0.02275051
000320 32 55 2f 3e 22 7f 90 3d 12 96 81 be 58 6e 42 be
       0.17122343 0.07055499 -0.25309807 -0.18987405
000330 03 01 85 be 48 1f af bd 07 bd b1 bc 42 ec fc bd
       -0.25977334 -0.08550888 -0.02169658 -0.1234975
000340 bd ad 9b be 8f 92 49 be 5f 5c 0a 3e fd 5b 0d bd
       -0.3040599 -0.19684814 0.135118 -0.034511555
000350 44 c1 7c bd e4 06 5c 3d c4 8c 9f bd 25 e0 27 be
       -0.06170775 0.05371751 -0.07790521 -0.16394098
000360 01 a7 04 be 57 ae 23 be ef 8c 89 be 4d 9b 90 be
       -0.12954332 -0.15984474 -0.26865336 -0.28243485
000370 03 16 26 be 78 c1 97 3d 0e 42 6d 3e 73 a8 24 bc
       -0.16219334 0.07409948 0.23169729 -0.010049927
000380 9a f5 46 3e ec 20 6c 3d 92 0a 68 be a8 e2 cd bd
       0.19429627 0.057648584 -0.22660282 -0.10052997
000390 7e 6f 54 bd 18 4a 85 be 84 26 1a 3d 6e 32 10 bb
       -0.05186414 -0.26033092 0.037634388 -0.0022002715
0003a0 f1 fe 9c be 27 de 70 bd b4 a0 93 be 86 47 8d 3e
       -0.30663255 -0.05880561 -0.28833544 0.2759363
0003b0 4e f3 06 3e 83 0d e1 bd f3 39 83 3e b6 50 37 be
       0.13178751 -0.10988905 0.2563015 -0.17901883
0003c0 8f d9 2f 3e 67 10 f5 bd a6 8e 80 3d 2c 03 43 3e
       0.17172836 -0.11966019 0.06277208 0.19044179
0003d0 aa 6a f3 3d 17 e2 8e 3d 6f b8 93 bd ce 19 46 bd
       0.11885579 0.06976717 -0.07212912 -0.048364453
0003e0 61 c4 78 3e f8 f3 18 be 77 76 f0 bd 7d e6 95 3a
       0.24293663 -0.14936817 -0.117413454 0.0011436489
0003f0 93 5c 0d be 8b d8 ef bd 18 e0 03 3c 3f 28 50 3e
       -0.13804846 -0.11711224 0.008049034 0.20327853

layer2.weight f4 [256, 512]
000000 2d 43 1f 3d e9 55 9b 3c 9c 00 c6 3c fc c7 0a bd
       0.038882423 0.018961864 0.024170212 -0.033882126
000010 07 69 bb 3c 50 6e 48 3b 99 a0 38 bd 56 68 29 3d
       0.02287723 0.003058333 -0.045075033 0.041359268
000020 52 66 92 bb 5b be ac 3b 67 71 06 3d 1e 26 cd 3c
       -0.004467764 0.0052717156 0.032822993 0.02504259
000030 a3 1a 13 3d d3 ce 33 bd 4e 84 22 3d 1a 42 9d 3b
       0.035914075 -0.043898415 0.039676957 0.0047991397
000040 3c 62 ae 3b 80 3e 07 bd 75 c0 ea bc 97 e5 f9 3c
       0.005321769 -0.03301859 -0.028656224 0.030504985
000050 ee 13 ed 3c 23 3e 5d 3c c8 f4 e0 bb 51 85 e0 bc
       0.028940167 0.013503584 -0.0068651177 -0.02740732
000060 66 dc db 3b 9d f4 94 bc 84 45 e8 bc 1a 13 26 3c
       0.006709623 -0.018183047 -0.02835346 0.01013639
000070 14 c0 fd 3c bd 67 27 bd 98 90 2d bd 93 d7 0a 38
       0.030975379 -0.040870417 -0.042374223 3.3102533e-05
000080 a7 54 9a bc 4b fa e1 bc cb d3 82 bc ea 1a c6 bb
       -0.018839194 -0.02758517 -0.015970131 -0.006045689
000090 d7 30 27 3c 82 3c eb 3c 37 c2 a7 3c 6f 5d a0 3c
       0.010204515 0.028715376 0.020478351 0.019575803
0000a0 47 88 e5 bc 28 e8 13 bc fc 84 ca 3c b3 1e 96 bc
       -0.028019084 -0.009027518 0.024721615 -0.018325185
0000b0 d2 1e 31 bd 34 d1 2f bb 1f d8 ba 3c ef 53 6d bc
       -0.043242283 -0.0026827576 0.022808133 -0.014485343
0000c0 f5 9f 32 bc 6f 59 10 bc a1 b5 c0 3c 2c c7 1b 3d
       -0.010902395 -0.008810385 0.023524107 0.038031742
0000d0 a3 e2 18 bd 8a 74 b9 3c e7 0f 89 3c 87 b1 5c 3c
       -0.037325513 0.022638578 0.016731216 0.01347006
0000e0 92 af e7 bc df a2 58 bc 12 3d 24 3d 2b 75 80 3c
       -0.02828196 -0.013222425 0.040097304 0.01568087
0000f0 12 3a 48 bc a9 90 13 3c 8e d9 a8 3c 43 6f 65 bc
       -0.012220876 0.009006658 0.02061155 -0.014003578
000100 30 af d9 3c 93 c1 40 bc 4c 22 2d 3b 39 9a 03 3c
       0.026572794 -0.011764902 0.0026418148 0.008032375
000110 6f 79 4a bc f7 2f 01 bb f7 c4 9f 3b 5d cc 09 bd
       -0.012358054 -0.0019712427 0.004875775 -0.03364216
000120 00 bb c0 bb 3e 35 4d bc 89 26 e1 3c 86 5d 85 3c
       -0.005881667 -0.012524901 0.027484195 0.016279947
000130 dd d0 1c bd 80 b0 ff bc 21 5c 23 3d 43 31 17 bc
       -0.038285125 -0.031212091 0.039882783 -0.0092280535
000140 66 a1 02 3d 5c 42 70 bb 31 95 c8 3c 43 63 b3 bc
       0.031892203 -0.0036660647 0.024485203 -0.021897918
000150 38 57 28 3d 6c 1f bc 3b dd 02 4b bc 05 6b e9 3c
       0.041098803 0.0057410505 -0.012390819 0.028493414
000160 54 03 9f 3c b6 49 0a bd 0d 6d 4c bb ca be ff 3c
       0.019410767 -0.033761702 -0.003119293 0.031218905
000170 b9 93 fa 3b 0c 5f 87 bc a0 30 0e bd 3a 88 09 bd
       0.0076470044 -0.016524814 -0.03471434 -0.03357718
000180 07 87 b1 3c fa d3 89 3c 8f f4 29 bd 65 8a 44 bc
       0.021670831 0.016824711 -0.041492995 -0.011995886
000190 db 78 0c 3c 13 8c 02 bd ef fa aa 3c 4a 48 6b bc
       0.008573736 -0.031871866 0.020871608 -0.014360497
0001a0 15 37 ab bc 2a a3 5a 3b 02 b0 74 3c a5 3b 91 3c
       -0.020900289 0.0033361414 0.014934542 0.017728636
0001b0 8e 99 1b 3d 73 df c8 3c a0 b3 65 bb a7 67 11 3c
       0.037988238 0.024520611 -0.0035049692 0.00887481
0001c0 5c 04 db 3b bd 3c a4 bc 83 e8 03 bd 48 0a 00 bc
       0.0066838693 -0.020048494 -0.032204162 -0.007814951
0001d0 bb 97 a0 bc ba a2 34 bd 75 46 42 3c 4b b7 95 bc
       -0.0196036 -0.0441005 0.011857619 -0.018275877
0001e0 38 f3 1b 3d 0d e0 82 3c 2f f5 97 3c 03 7f 1c 3c
       0.03807375 0.015975976 0.01854953 0.009551766
0001f0 82 c4 61 3c ee fd f1 3c ac f9 0f 3d 24 32 ad 3b
       0.013779761 0.029540028 0.035150215 0.0052855182
000200 f2 93 a4 bc 24 af 0c bc 46 84 aa bc 56 87 c1 bb
       -0.020090077 -0.008586679 -0.020815026 -0.005906026
000210 7e d9 f6 3b d4 32 83 3c fb 68 3c bd 2c 7b 5e 3c
       0.0075332513 0.016015448 -0.045998555 0.013579171
000220 1d 59 a8 bc 37 6f 0a bd 8d 14 a6 bc 62 ff 06 bc
       -0.020550305 -0.03379747 -0.020273471 -0.008239599
000230 43 e1 96 3c cf e4 31 bd 9b 8b 36 3a d8 75 13 3d
       0.01841796 -0.0434311 0.0006963552 0.036001056
000240 a1 5a 18 bd 72 5f 28 3c 7c a9 9a bc c1 73 2f 3c
       -0.037195805 0.010276662 -0.018879645 0.01070875
000250 60 7c 7c 3c 20 3e f7 bc 41 3f f4 3b 03 a7 7a 3d
       0.015410513 -0.03018099 0.0074538295 0.06119443
000260 d8 b5 db 3a 6c 26 04 bd a8 7b 53 bb 22 e9 cc ba
       0.0016762568 -0.032263204 -0.003226975 -0.0015633444
000270 e5 2b 75 3c 4b b7 60 bc 68 98 49 bc 71 7e cb bc
       0.014964079 -0.013715575 -0.012304403 -0.024840565
000280 98 3f c9 3c b3 4c f5 bc 64 1e 94 bc 38 b7 d6 3c
       0.024566457 -0.0299438 -0.018080898 0.026210412
000290 0f d9 bf bc 42 5c 0c bc e7 e8 ae bc b1 78 2c bd
       -0.023418931 -0.008566918 -0.02135129 -0.042107288
0002a0 71 84 b6 3b af 3e b7 bc f3 4c 0f bd 60 71 56 bc
       0.0055699875 -0.022368757 -0.034985494 -0.013088554
0002b0 b9 bd 36 3c 50 a7 1c 3d 2a fe 0d 3d 01 4b 2f bb
       0.011153632 0.0382455 0.034666218 -0.0026747587
0002c0 e4 d4 f2 bc 55 dd 9a 3a 71 89 83 bc 4c ad 16 3d
       -0.02964253 0.001181523 -0.016056748 0.036786363
0002d0 db 27 44 bc ac f1 2b bd 37 3b 4f 3c a6 6a 4c bc
       -0.011972393 -0.041978523 0.012648395 -0.012476599
0002e0 48 63 50 3c 7e cf cb bb 82 75 48 3c ad 2d a9 3c
       0.012718983 -0.0062198034 0.012235047 0.020651663
0002f0 76 52 14 bd 00 21 2c bd 24 af 16 3d 38 20 16 3d
       -0.036211453 -0.04202366 0.03678812 0.03665182
000300 68 a5 b2 bc 95 1c 36 3d 42 26 8c 3b b5 68 a6 bc
       -0.021807387 0.04446085 0.0042770216 -0.0203136
000310 a1 d1 eb bc d9 48 83 bb 33 3b 02 3d 50 4a f6 bc
       -0.028786482 -0.004006487 0.031794738 -0.030064732
000320 a3 72 af bc 5c 3b 27 3d 5d 69 c9 bc 9d 5d 23 3d
       -0.021416968 0.040828094 -0.024586374 0.0398842
000330 c9 73 84 3c 4e 05 b1 3c 99 ea d6 3b 70 0c 92 bc
       0.016168492 0.021608975 0.006558728 -0.017828196
000340 6f cc 87 3c 0f 10 2c 3a b8 20 14 bd 58 f9 12 bd
       0.016576974 0.0006563672 -0.036164016 -0.035882324
000350 83 3c 7a bd dd 22 84 bb e2 54 e7 3a 16 c1 d2 bc
       -0.061092865 -0.0040324763 0.0017649198 -0.025726836
000360 69 ab e9 3b e6 c5 3a 3d 0c f6 b6 3c 54 21 f8 bc
       0.0071310294 0.045598887 0.022334121 -0.03028933
000370 d7 03 e5 3b f3 52 2c bd ef 1e c5 3c 57 b6 1c bd
       0.006988983 -0.042071294 0.024062602 -0.03825983
000380 61 70 1e 3b 67 0f 9a bc 18 ee 13 bd 59 72 31 bd
       0.002417587 -0.018806173 -0.036115736 -0.04332194
000390 af 3f 5c bd 86 85 01 bd a4 ae f7 3c f6 df 20 bc
       -0.05377167 -0.03162148 0.030234642 -0.009819021
0003a0 27 ca 03 bd cf 8d bf bb 65 91 bb bc fb e2 f5 bc
       -0.03217521 -0.0058457623 -0.022896478 -0.03001546
0003b0 79 7b 0c 3d f0 2c 41 bd 4e 60 3f bd 8a 85 d2 bb
       0.03429744 -0.047161996 -0.046722703 -0.0064246105
0003c0 4c c9 da 3c f4 80 29 bd 70 2a 9a 3b aa 81 6e 3d
       0.026707314 -0.041382745 0.004704766 0.058229126
0003d0 82 29 29 bc fe 26 cb bc a3 c7 8b 3c be cd ad 3c
       -0.010324838 -0.024798866 0.017062968 0.02121627
0003e0 91 2c 94 bb 98 d6 1f bd e3 24 56 3b 04 e1 ca bc
       -0.0045219143 -0.039023012 0.0032675795 -0.024765499
0003f0 e4 4f 18 bd fe fb c3 3c f7 1e 52 3c ca b7 58 3c
       -0.037185565 0.02392387 0.012824765 0.0132274125

layer2.bias f4 [256]
000000 61 82 8e bc 8c 0c 60 3c 58 6b 6d 3c e1 eb 56 bc
       -0.017396154 0.013674866 0.014490925 -0.013117761
000010 81 b2 13 bd 89 5e 10 3d e1 58 09 3c 5e 13 df 3b
       -0.036058906 0.035246406 0.008383007 0.0068077287
000020 e7 1d 30 3d 55 54 c4 bc 43 ac 63 3d 68 be 02 3d
       0.042997267 -0.023965994 0.055584203 0.031919867
000030 43 9f fd 3c 38 f1 17 3d 87 e6 01 3d d0 f4 21 bd
       0.030959731 0.03709528 0.03171399 -0.039540112
000040 bb f6 9d bc 0a ca 71 bb a0 10 15 bc e1 75 31 bd
       -0.01928269 -0.0036894106 -0.009098202 -0.04332531
000050 05 83 b2 bc b3 30 1b 3c d2 86 96 3c 83 2d a4 3c
       -0.02179099 0.00947206 0.018374834 0.020041233
000060 60 42 11 3d 05 b1 ff bc c0 20 89 bc 53 3c 20 bd
       0.03546369 -0.03121234 -0.01673925 -0.03912003
000070 9d 08 1f bd 9b 7f 21 bc 91 61 81 bc 24 05 1f bc
       -0.038826574 -0.009857084 -0.015793594 -0.009705815
000080 84 2e 67 bc a8 79 0d 3d f5 09 d8 bc d3 0c a3 3c
       -0.014110211 0.03453985 -0.026371935 0.019903576
000090 d8 c3 4b bc e7 df a3 3c 56 2f 79 bd 0b 1a 2b bd
       -0.0124368295 0.020004226 -0.06083616 -0.041772883
0000a0 81 13 fb 3c c6 2e 46 bd d8 4e c3 bc 05 04 11 bd
       0.030648949 -0.04838445 -0.023841307 -0.035404224
0000b0 9e ad 86 3c 33 83 9e bc c1 61 3e bd 56 d8 7f 3c
       0.016440209 -0.01934967 -0.046479944 0.015615543
0000c0 a0 37 90 3c f9 34 05 3b 6e a3 1f bd 35 24 07 bd
       0.017604649 0.0020325764 -0.038974218 -0.032993514
0000d0 da 6f ee 3c 27 61 33 bc 4a 15 77 bc a8 9e d9 3c
       0.02910607 -0.010948456 -0.015080759 0.026564911
0000e0 33 7e 5b 3a 26 03 16 bd f3 51 62 bc 46 af d5 bb
       0.0008372992 -0.036624096 -0.0138134835 -0.0065211384
0000f0 81 1c bb 3c 7c 7b cd bc ea 22 10 bd e7 db c6 3c
       0.02284074 -0.025083296 -0.035189547 0.02427478
000100 70 57 ae 3c 9f a5 93 3b 16 b1 20 bd a3 21 a0 bc
       0.021281928 0.0045058276 -0.039231382 -0.01954729
000110 75 3c 44 3c f0 de eb bc c6 f4 29 bd 15 ea 43 3c
       0.011977305 -0.028792828 -0.0414932 0.011957665
000120 17 c4 cc ba 89 10 d1 bb fa 51 f3 bc ec ff 55 bd
       -0.0015622404 -0.006380145 -0.029702175 -0.05224602
000130 ed 9c 75 bc e3 c2 72 3c cf 11 cc 3b 3b 02 ec 3c
       -0.014991027 0.014816972 0.006227709 0.028809657
000140 fb a8 27 bd 9c da d2 3b 23 5a 09 bd 4b d5 4e bd
       -0.040932637 0.0064347517 -0.033533227 -0.05049638
000150 bb bd 33 bc 53 2b 5b 3c 5c 71 80 bc c3 bf c5 bc
       -0.010970528 0.0133770285 -0.015679054 -0.02413929
000160 0b 47 ce 3b 5c 30 75 bc 20 f7 ba bc da 97 64 bb
       0.00629509 -0.014965143 -0.022822917 -0.003488055
000170 12 32 ca bc 2d ad ec 3c 87 53 33 bd 89 6b d9 bc
       -0.024682079 0.02889117 -0.04378083 -0.026540535
000180 91 d6 61 bd 6d b3 2e bd b6 9f fe 3c 72 da bb 3c
       -0.055136267 -0.042651583 0.031082015 0.022931311
000190 b0 3f 30 3b 51 18 37 bd 1d ed b8 3b a0 94 60 3c
       0.002689343 -0.044700924 0.0056435005 0.01370731
0001a0 bf 16 51 bc 8e ce d1 bc 91 72 0a 3d c4 72 de bc
       -0.012761771 -0.025611188 0.033800665 -0.027154334
0001b0 e6 bc c2 3b f4 d6 b9 3c bd 33 3a bd 2b 5a 5c bc
       0.0059429286 0.022685505 -0.045459498 -0.013449232
0001c0 7b 17 df 3c 2f bf a6 bc 2d c7 14 bc ed b8 8b bb
       0.027232876 -0.020354835 -0.00908069 -0.004263988
0001d0 87 4d ba 3c 76 b8 f1 bc 20 e6 58 3b 84 96 17 bd
       0.022742046 -0.029506903 0.003309615 -0.037008777
0001e0 ac e0 ab 3c 11 d3 01 3d 64 ae 2d bb 1a 8d 18 3d
       0.020981155 0.03169543 -0.002650165 0.03724394
0001f0 c1 3b 25 bc e8 0d f5 bc 3b 19 d7 bc 55 09 ca bb
       -0.010085047 -0.029913858 -0.026257148 -0.0061656632
000200 60 3d 8c bc d9 21 c0 bc 5c 48 29 bd ae 0b 3c bd
       -0.01711911 -0.02345364 -0.041328773 -0.045909576
000210 6e 4e 08 3b df 72 c8 3c 84 01 41 bd 6d f6 03 3c
       0.00207987 0.024468837 -0.047120586 0.008054358
000220 5b b0 fe 3c e0 ff a6 3c 4f 8a f9 bc 16 68 a1 bc
       0.031089952 0.020385683 -0.030461458 -0.019702952
000230 fe ea e1 bc 86 d8 49 bd 12 57 3a bd ab ef 3f bd
       -0.027577873 -0.04927876 -0.045493193 -0.046859425
000240 bd 3f d2 bc 45 4b 3e bd ee f9 4a bd 81 cb 56 3c
       -0.025665158 -0.0464585 -0.049554758 0.013110043
000250 1f d9 f7 bb 13 94 55 3c d5 6d 15 3d 73 39 51 3c
       -0.0075637246 0.013035792 0.036481697 0.012770045
000260 1f 96 2a 3c 85 dc 8c bc fe f9 f0 3c 5b 1c 4f bd
       0.010411768 -0.017194996 0.02941608 -0.05056415
000270 b1 a7 4c bc 02 de 95 3a 2a 4e 59 bc 9e 36 29 3d
       -0.012491153 0.0011433961 -0.013263265 0.041311853
000280 02 98 56 bc c0 c9 c3 bc b5 2f 44 bc 04 28 ff 3c
       -0.013097765 -0.023899913 -0.011974265 0.03114701
000290 09 36 45 bd 40 7f 54 bb aa 42 59 3c 6d 63 cc 3c
       -0.048147235 -0.003242448 0.013260523 0.024949754
0002a0 8b 68 0c 3d 16 d3 f7 bc a3 7e 9c 3c 0e 46 29 bd
       0.034279387 -0.03025202 0.019103354 -0.041326575
0002b0 59 1e fd 3b 18 36 8d 3c 69 f5 20 bc 40 f9 6e bc
       0.007724565 0.017237708 -0.009824135 -0.014585793
0002c0 70 f3 37 3c 87 e9 56 3c 11 50 18 bd 7c 27 55 bb
       0.011227474 0.013117201 -0.037185732 -0.0032524755
0002d0 05 08 b6 bc 3e d2 ac bc 55 62 27 bc 95 5d a1 bc
       -0.02222062 -0.021096345 -0.010216315 -0.019697944
0002e0 42 ee 81 3c b8 44 dd bc 48 89 13 bd b9 64 7d bd
       0.01586068 -0.027010307 -0.036019593 -0.061863635
0002f0 4d a3 32 bc 15 a8 65 bd 7a c7 06 bd eb b8 9b 3c
       -0.010903192 -0.0560685 -0.03290508 0.019009074
000300 9a 34 0e 3d f6 1d b6 bc 03 81 91 3b a6 c6 c3 3c
       0.034718134 -0.022231083 0.004440428 0.023898434
000310 9e 46 11 bd 89 d8 05 bd ac cd 46 bc 51 4f 79 3b
       -0.035467736 -0.032677207 -0.012133997 0.003804166
000320 e2 71 f5 bb f3 7b 1e 3d c5 7d 13 bd 29 19 17 3c
       -0.0074903825 0.038692426 -0.036008615 0.009222307
000330 ad 44 ae bc 3a 92 1d bd cd fd a8 3c b6 6d 2f 3c
       -0.021272982 -0.03846953 0.020628834 0.0107073095
000340 0c 02 24 bd 48 48 c3 bb 86 8e 1a bd 5b 4a 96 3c
       -0.040041015 -0.0059595443 -0.037733577 0.018346002
000350 bc 5b 33 bc 99 ce 35 3b 38 e7 6c bc fb ca f1 bc
       -0.010947164 0.002774155 -0.014459424 -0.029515734
000360 d7 fc 2d ba 78 43 07 bd dc 97 eb 3c 1f aa f7 3c
       -0.00066371023 -0.033023328 0.028758936 0.030232487
000370 77 22 1b bd 87 1c ae 3c a9 ea f9 3c bb b2 8c 3a
       -0.037874665 0.021253837 0.030507402 0.0010734418
000380 fc d5 a3 3b e5 0b 1f 3c 5d ce 7d 3c a8 a2 af 3b
       0.004999874 0.009707426 0.015491095 0.0053599663
000390 a4 70 28 bd 1b 4f 4d bc a5 93 1d bd 26 1b 2a bd
       -0.041123047 -0.012531067 -0.038470883 -0.041529797
0003a0 68 7c 09 bd 16 ba 8b bc 5b 6d 28 3b cf 4c e2 bc
       -0.03356591 -0.017056506 0.0025699947 -0.027624516
0003b0 b9 e8 05 3d a9 c4 ed 3c 1b 82 fc 3c 9f 3b fd bc
       0.032692645 0.029024439 0.030823758 -0.030912219
0003c0 75 52 85 3c bd 1b 98 3c 0d 20 47 bb cf ea 13 3d
       0.01627467 0.018567914 -0.0030384094 0.036112603
0003d0 fa 72 e6 3c 77 fc ab bc 92 21 34 3c 03 03 28 3d
       0.028130997 -0.020994408 0.010994332 0.041018497
0003e0 69 b0 16 bd a4 0b 04 3c 60 29 ea bc 7c bd 0c 3d
       -0.03678933 0.008059416 -0.028584182 0.034360394
0003f0 51 8f 97 3b 95 1c 5a bc 91 60 1a bd 1a 9c 28 bd
       0.004625239 -0.013312479 -0.03768975 -0.041164495

layer3.weight f4 [57, 256]
000000 57 b5 e1 3c 8a 90 a1 bb be e3 56 bd 42 b3 58 b9
       0.02755229 -0.0049305605 -0.052463286 -0.00020666144
000010 6d 13 a0 bc 4d 63 43 3d 61 c0 74 bd 36 9b 2e 3d
       -0.019540513 0.047702122 -0.05975378 0.04262849
000020 00 22 9a bc 79 b7 48 3d a1 e5 ba bd 5e 34 3c 3d
       -0.01881504 0.0490031 -0.091258295 0.04594838
000030 4d 3c 28 3d 5d 37 ca bc 16 6f 67 bd db a8 56 bc
       0.041073132 -0.024684602 -0.056502424 -0.013101782
000040 cf 56 2b bb a7 eb 2f bc 2c 02 94 3c 99 a5 40 bd
       -0.0026144271 -0.010737336 0.018067442 -0.047032926
000050 d8 6b 47 3d 36 ff 88 bc 75 96 79 3d 92 60 d4 bc
       0.048686832 -0.016723257 0.060934503 -0.025924955
000060 fe 06 fd 3b e0 2f a7 3b de f5 2e bd 8f 54 2f bd
       0.007721781 0.0051021427 -0.042714946 -0.04280525
000070 be 5d 0c bd 87 2c 1b bd 6a 23 b7 bc e5 62 d9 bc
       -0.034269087 -0.03788426 -0.022355754 -0.026536414
000080 21 b2 82 ba 9b 3e d6 ba 00 b5 82 bb 9e 98 21 bd
       -0.00099713 -0.0016345562 -0.003988862 -0.039452188
000090 4e 45 6d bc 46 4f 7d bd e1 dc 33 3d 7a e5 93 ba
       -0.014481856 -0.06184318 0.04391182 -0.0011283599
0000a0 a1 72 25 3d 25 e8 1c 3d 47 1f ea 3c d0 a7 85 3d
       0.04039252 0.038307328 0.028579367 0.06526148
0000b0 59 b6 8b bb 9f e6 c4 bb 3b c3 47 bd 88 b8 b4 bc
       -0.004263681 -0.0060089375 -0.04877017 -0.022060648
0000c0 1d e3 2d bd 10 fe 6e bd 42 eb 61 bd d9 a5 5b bd
       -0.04245292 -0.05834776 -0.055156 -0.05362496
0000d0 4d 97 a6 bc f5 73 e6 bc e1 e9 9a bc 52 6c 83 bd
       -0.020335818 -0.028131464 -0.01891035 -0.06417145
0000e0 fb aa 8b bc a7 25 52 bd 76 0d f1 3c f6 da 63 3d
       -0.017049303 -0.05130544 0.029425364 0.05562874
0000f0 4b 70 fc 3c 92 6d 76 3d 9f 2f 39 bd b5 28 2e bd
       0.030815264 0.06016309 -0.04521143 -0.04251929
000100 53 6c e0 3b d6 69 ba 3c f4 90 b4 bc 53 d9 e8 3c
       0.0068488508 0.022755545 -0.022041775 0.02842394
000110 46 4c 28 3d e9 8d 68 bd 8d 4e 5f bc 8e 99 1d 3d
       0.041088365 -0.05677596 -0.013629568 0.03847652
000120 b2 0e e5 3c c0 a8 63 3d d4 69 6c bc cf e3 f5 3c
       0.027961109 0.055580854 -0.014429528 0.030015854
000130 39 0c 4c 3d c7 09 3b 3d 30 a1 8b 3c 66 9a 27 bd
       0.049816344 0.04566362 0.017044634 -0.04091873
000140 92 2b 0a bc 4f ce b4 bc 43 b6 61 bd 7b ae b3 3c
       -0.00843324 -0.022071032 -0.05510546 0.021933785
000150 44 04 a4 3c d9 5b 21 bd 51 f5 f1 bc 51 92 4e bd
       0.020021565 -0.039394233 -0.029535921 -0.050432507
000160 20 6a d1 3b 9a b8 cd 39 d6 7e 7b bd a0 c0 dc 3b
       0.006390825 0.00039238186 -0.061400257 0.00673683
000170 ac 08 ae 3c ca 52 d8 3c 41 03 40 bd 64 53 2d 3d
       0.02124437 0.026406664 -0.046878103 0.042315856
000180 39 45 6f 3c 4f 1d 2c 3d 24 66 26 bd 7b 76 11 3b
       0.014603906 0.04202014 -0.040624753 0.0022195864
000190 2b 37 05 3c db 15 3d bd 89 45 1c bd 71 7c 02 bc
       0.008130829 -0.04616342 -0.03815225 -0.007964239
0001a0 26 6d c3 bc 81 6c c0 3b 25 12 2c bd 73 80 a5 bc
       -0.023855757 0.0058723097 -0.04200949 -0.02020285
0001b0 26 4f 46 bc 03 93 77 bc 38 d1 3f bc 90 34 b4 3c
       -0.012103831 -0.015110734 -0.0117075965 0.02199772
0001c0 ca bd 79 bd 8f 4e 13 bd b1 cf 4e bd 74 db 31 bd
       -0.060972013 -0.03596359 -0.05049104 -0.043422177
0001d0 44 77 c1 3c f4 11 83 3c 8e 17 c8 3c 63 8f 04 3d
       0.02361644 0.015999772 0.024425294 0.032363307
0001e0 8c ae 86 3c 60 fd 6b 3d 52 9b 25 3d 66 50 23 3b
       0.016440652 0.057614684 0.040431328 0.0024919747
0001f0 57 af 0e bd 67 bf 03 bd 56 f5 e7 bc 58 40 d8 bc
       -0.034835186 -0.032164957 -0.028315227 -0.026397869
000200 f1 56 09 bd d3 a4 7a 3d 07 62 58 3b ce 2f f3 bc
       -0.03353018 0.061192345 0.0033017413 -0.029685881
000210 60 d4 0c bd e7 c2 65 3d 5f ad 0b 3d 03 dd a9 3c
       -0.034382224 0.056094076 0.034100886 0.02073527
000220 82 7a 17 3d df 3a dc 3c 73 e2 0a bd 98 b9 21 3d
       0.036982067 0.02688354 -0.033907365 0.039483637
000230 7b 9f 5b bd ec 81 67 bc 99 d2 30 3d 34 1b de bc
       -0.05361889 -0.014130097 0.04316959 -0.02711258
000240 e4 59 f0 3c 6b d1 50 3c 57 51 dc bc f9 16 d4 3c
       0.029339738 0.012745242 -0.026894255 0.02588986
000250 2f 0e f7 3c 4f fe 40 bd 92 2d d9 3d 87 d9 11 3d
       0.03015813 -0.047117528 0.10604395 0.03560784
000260 ab c2 14 bd 94 e1 e7 bc a9 52 03 3d e5 2e 1a bd
       -0.036318462 -0.028305806 0.032061253 -0.03764238
000270 c2 32 2c bd 92 8b a9 bb a0 ec 71 3d 33 ee 14 3d
       -0.042040594 -0.005174109 0.059063554 0.036359977
000280 f3 cd 5b bd 95 36 6b bd 34 f3 b1 39 83 8b 12 bd
       -0.053663205 -0.0574251 0.0003394127 -0.03577758
000290 f7 14 3e bb bb 6b ed bc 54 f3 4b 3d fa ba 0f 3d
       -0.0029004195 -0.028982034 0.049792603 0.035090424
0002a0 4c 53 f1 bb 26 75 a3 3c 97 9b 71 bd ed 73 b0 bc
       -0.007364666 0.019953322 -0.058986273 -0.021539653
0002b0 6f 76 64 3d 49 ca a9 bb e9 56 0b bd 6e b9 06 3d
       0.05577701 -0.005181585 -0.03401843 0.032891683
0002c0 e4 f2 55 3d 38 27 fd 3b 7a 74 06 bd aa cd fc 3c
       0.05223359 0.0077256225 -0.032825924 0.030859787
0002d0 42 9f 3f bd 12 43 30 3c 6c e1 dc 3c 4f 9e 42 3c
       -0.04678274 0.010758178 0.026962958 0.011878564
0002e0 1d 16 67 3d d9 74 35 bd 64 df 04 bd cb f8 78 bd
       0.056417573 -0.044300888 -0.032439604 -0.060784142
0002f0 e7 f7 ea bc 39 dc 87 3d e4 d5 4d bd 3c 97 e2 ba
       -0.028682662 0.06633801 -0.05025281 -0.0017287503
000300 73 44 0c 3d fb 31 62 bd 33 7d a0 bc ac 93 30 bc
       0.034244966 -0.055223446 -0.01959095 -0.010777395
000310 a6 67 23 bd 9c f3 7b bd b5 0d 03 3c 33 70 a6 3c
       -0.03989377 -0.06151162 0.0079988735 0.020317173
000320 f8 8b 93 bc cd 3a e4 3c 84 ea 3a bb ad 79 c6 3c
       -0.018011078 0.02786007 -0.002852113 0.024227941
000330 28 80 19 bd 81 9c 35 3d df 9d 31 3d c2 a6 7e bd
       -0.037475735 0.044338707 0.04336345 -0.06217075
000340 15 6f e9 3c 39 2a 91 bc ce 4d 95 bc 15 99 45 3d
       0.02849535 -0.017720329 -0.018225577 0.048241694
000350 7e 53 ce bb 8a 65 50 3b 4b ef fa bc 86 dc 67 bd
       -0.006296574 0.0031798803 -0.030631682 -0.056606792
000360 66 ef db bb 05 91 99 3c d0 55 1a 3d 6e 51 f2 3c
       -0.006711888 0.018745909 0.037679493 0.029579844
000370 e1 2e 60 bd 14 10 bc bc af b3 4f bc eb 1d db bc
       -0.054732207 -0.022956885 -0.012677117 -0.026747664
000380 34 27 55 3c 68 18 49 bd d3 52 c2 3c 8f af 4d bd
       0.013009835 -0.04909554 0.023721134 -0.050216254
000390 1a f4 55 bd 05 36 07 3d 04 62 cb 3c 56 fe 4d 3b
       -0.052234747 0.0330105 0.02482701 0.0031432114
0003a0 33 7c 49 3d a3 41 4c bd 91 f5 0a bd b7 6f 86 bb
       0.04919071 -0.049867284 -0.033925597 -0.004102673
0003b0 1c 03 65 3d 47 57 68 bd 36 bb 25 bd 41 03 ab 3b
       0.05591117 -0.05672386 -0.04046174 0.0052188938
0003c0 81 55 34 3d c2 c2 9a 3b 58 c9 0b bd 4f 5e 56 3d
       0.044026855 0.004722924 -0.034127563 0.052336033
0003d0 0e 33 4d 3c 8c e9 20 bd 0b b0 27 3d fb 66 5d 3d
       0.012524379 -0.039285228 0.040939372 0.054053288
0003e0 c5 50 90 3c c0 a3 8f 3b 2c ea 91 bb a6 ac dc 3c
       0.017616639 0.004383534 -0.0044529643 0.026937794
0003f0 7c 88 74 3d 06 4b 18 bd 28 ab a7 bc 87 2b 5b bc
       0.059700474 -0.037180923 -0.020467356 -0.013377077

layer3.bias f4 [57]
000000 19 9c fc bb fa f0 2b bd 95 88 61 3b 1f db 3e 3d
       -0.007709038 -0.04197786 0.0034413685 0.04659569
000010 c0 55 89 3d c2 fe 35 3c f1 b0 a9 3c bf ec c0 3d
       0.06705809 0.011108102 0.020714255 0.09420156
000020 d0 77 01 3d 33 87 53 3d f6 93 61 3d c5 17 46 3d
       0.031608403 0.051642608 0.055072747 0.048362512
000030 3e 7c c2 3b 6e 68 2e 3d 45 52 ed 3c e6 d2 75 bd
       0.005935221 0.04258006 0.028969893 -0.06001558
000040 47 20 61 bd 1a f2 98 3d 63 ef 58 bd fd 75 a7 3c
       -0.054962423 0.07468052 -0.052962672 0.020442003
000050 12 53 5a 3d 03 a9 ce bc 19 96 ed 3c bf 92 11 3c
       0.05330188 -0.025227075 0.029002236 0.008885085
000060 81 05 9a 3c e6 75 1e 3c e7 dd 9b ba c1 31 37 3c
       0.018801453 0.009671664 -0.0011891694 0.011181296
000070 bb f9 63 bc 3d 55 0a bd 67 38 ea 3c 41 8a 4c 3c
       -0.013914521 -0.033772696 0.028591348 0.012484134
000080 1e 11 24 3d 20 b5 18 bd 9f 9c d6 bc 89 39 43 3d
       0.040055387 -0.03728211 -0.02619773 0.04766229
000090 f1 dd 21 3d 81 bb e5 3c af 8c cd 3c 9f 6a 2f 3d
       0.0395183 0.02804351 0.025091497 0.04282629
0000a0 60 d7 75 bd 39 71 6b bc 21 2a 80 bc 55 39 2c bd
       -0.06001985 -0.014370256 -0.015645089 -0.042046864
0000b0 d4 cf 3b 3d 4a d2 97 ba 42 30 3c 3d 00 4f 7d bd
       0.045852497 -0.0011583057 0.04594446 -0.06184292
0000c0 22 03 0b 3d 19 6b 3a 3d a7 92 9d 3c e0 5b 3b bd
       0.033938535 0.045512293 0.019234968 -0.045741916
0000d0 c6 e5 6a 3d 2f 3f 29 3d 18 84 ac bd e5 93 29 bd
       0.057348035 0.041320022 -0.084236324 -0.04140081
0000e0 ec e1 7b 3d
       0.061494753
